tf_lite_inference/models/reseffnet_gan_div4_float32.tflite (tflite, 452832 bytes, 42 tensors)

arith.constant f4 [3]
0.05781785 0.03193069 0.0136735365
00000000: 69d2 6c3d c1c9 023d f806 603c

arith.constant1 f4 [8]
0.0030103787 -0.007079026 -0.08287341 0.057757955 0.026691798 -0.063318424 0.14633656 0.056689393
00000000: c649 453b 2df7 e7bb 89b9 a9bd 9b93 6c3d
00000010: c2a8 da3c 17ad 81bd 40d9 153e 2333 683d

arith.constant2 f4 [16]
0.064621866 0.038347006 0.021003436 -0.0109167285 0.0210794 -0.0029988196 0.1789452 0.07285055
-0.02335631 -0.04056107 -0.07097704 -0.10652825 0.16653539 0.14205511 -0.0111317225 0.0100576235
00000000: 7858 843d c011 1d3d 660f ac3c 14dc 32bc
00000010: b5ae ac3c d887 44bb 693d 373e ab32 953d
00000020: bb55 bfbc 5d23 26bd 695c 91bd 7c2b dabd
00000030: 4188 2a3e e576 113e d461 36bc bbc8 243c

arith.constant3 f4 [32]
-0.6562279 0.91408694 -0.00026846677 0.17211361 -0.34464732 -0.039663777 0.26309228 -0.35003844
-0.20645505 0.09462188 -0.88033605 -0.20009564 0.17259726 -0.5681722 -0.011712864 -0.52342147
-0.36305726 0.42033124 -0.27824017 0.030833513 0.29566884 -0.06870474 -0.045146108 0.07235265
-0.025487296 -0.50146466 1.0113256 -0.38552478 0.64597934 0.41149235 -0.34543073 -0.9074748
00000000: 8dfe 27bf 9a01 6a3f 00c1 8cb9 8d3e 303e
00000010: 9d75 b0be 7c76 22bd 08b4 863e 3d38 b3be
00000020: f468 53be 1ec9 c13d b45d 61bf dfe5 4cbe
00000030: 56bd 303e bc73 11bf 50e7 3fbc f3fe 05bf
00000040: a4e2 b9be a835 d73e 7f75 8ebe 9096 fc3c
00000050: e861 973e 12b5 8cbd 20eb 38bd a02d 943d
00000060: bcca d0bc fd5f 00bf 1e73 813f 8163 c5be
00000070: e75e 253f 20af d23e 4cdc b0be 4550 68bf

arith.constant4 f4 [128]
-0.35838556 0.06944602 0.097974084 -0.16201307 0.029980661 0.1880552 -0.23419146 0.2725385
-0.4116716 -0.11739373 -0.12046471 -0.14798632 0.20182176 -0.06665782 0.0590578 0.18618385
-0.124937646 0.1773297 -0.21250585 -0.030852117 -0.06650274 -0.39157706 0.23359418 0.0862355
0.051796526 0.12488058 0.16390052 0.010613794 -0.4572254 0.15117091 -0.34017226 -0.0150060635
-0.124207035 -0.09873155 0.09000904 -0.18036903 -0.42739934 -0.008232663 -0.15749887 -0.17713982
0.17851849 0.28173828 -0.23651767 -0.10161704 -0.20389748 -0.12317841 -0.3930374 0.06689502
-0.352797 -0.17324129 -0.29294357 0.10310652 -0.3079683 0.2256524 -0.15993418 -0.12679842
-0.1817693 -0.30530113 -0.2960986 -0.15757143 0.12655327 -0.13879298 0.0057473793 0.25279093
-0.29751807 -0.4504635 -0.18172123 0.028259743 -0.24086572 -0.26743823 0.007905353 -0.026961247
-0.0029208788 -0.21373305 0.42163 -0.026486168 0.14460129 0.046263475 0.08874029 -0.037896924
0.10893303 -0.14122632 -0.25755093 -0.3118597 0.09602591 0.06730268 0.11778675 -0.4206644
0.043334525 -0.007205959 -0.09674454 -0.038930185 -0.25347713 0.05546642 0.08498912 -0.25709224
-0.2834843 -0.23352425 0.14742917 -0.36737514 -0.32648832 -0.11977934 -0.456257 -0.3446092
-0.082055345 -0.110175475 -0.2945296 -0.036220446 0.094330825 -0.15256913 0.20358069 0.19294518
-0.007577181 -0.16893464 0.07443687 -0.28736514 0.06661108 -0.12857759 -0.39305297 0.06636471
0.11656687 -0.35719275 0.22548306 -0.014311871 -0.17367853 -0.24797247 0.16244897 -0.31854486
00000000: 507e b7be b739 8e3d a3a6 c83d c1e6 25be
00000010: 019a f53c 8b91 403e e3cf 6fbe 2b8a 8b3e
00000020: 9fc6 d2be 206c f0bd 34b6 f6bd ba89 17be
00000030: 5daa 4e3e e583 88bd 97e6 713d fba6 3e3e
00000040: 4fdf ffbd eb95 353e 229b 59be 94bd fcbc
00000050: 9732 88bd ca7c c8be 5033 6f3e 3d9c b03d
00000060: 9828 543d 64c1 ff3d 8ad5 273e 7be5 2d3c
00000070: 7319 eabe 8ccc 1a3e 0f2b aebe fedb 75bc
00000080: 4260 febd c433 cabd a956 b83d a9b2 38be
00000090: 16d4 dabe 4be2 06bc 6247 21be 2464 35be
000000a0: 8dcd 363e 0040 903e b031 72be 981c d0bd
000000b0: 80ca 50be f644 fcbd 333c c9be 4200 893d
000000c0: cfa1 b4be 2a66 31be b3fc 95be 8329 d33d
000000d0: 05ae 9dbe 6c11 673e c9c5 23be 72d7 01be
000000e0: bb21 3abe 6e50 9cbe 3c9a 97be 685a 21be
000000f0: 2e97 013e bf1f 0ebe 8354 bc3b d06d 813e
00000100: 4a54 98be 27a3 e6be 2115 3abe fa80 e73c
00000110: 81a5 76be aaed 88be 7485 013c d5dd dcbc
00000120: 376c 3fbb d6dc 5abe e3df d73e 85f9 d8bc
00000130: 5c12 143e c57e 3d3d 78bd b53d ce39 1bbd
00000140: 4818 df3d a29d 10be b7dd 83be 13ac 9fbe
00000150: 3ba9 c43d fdd5 893d 2e3a f13d 5361 d7be
00000160: 8b7f 313d f71f ecbb 0022 c6bd 4275 1fbd
00000170: c1c7 81be c230 633d c70e ae3d 98a1 83be
00000180: db24 91be fb20 6fbe acf7 163e 9818 bcbe
00000190: 7a29 a7be df4e f5bd 849a e9be 9e70 b0be
000001a0: a20c a8bd aea3 e1bd 95cc 96be e45b 14bd
000001b0: 8530 c13d 153b 1cbe 7577 503e 6c93 453e
000001c0: 004a f8bb 34fd 2cbe 5c72 983d 8621 93be
000001d0: 646b 883d d8a9 03be 3d3e c9be 39ea 873d
000001e0: 9cba ee3d f8e1 b6be 08e5 663e 567c 6abc
000001f0: c9d8 31be 7fec 7dbe 0659 263e 5018 a3be

arith.constant5 f4 [8]
0.09398305 0.15060851 -0.028899085 0.14409631 0.23883256 0.06842993 0.027291592 0.12750264
00000000: 2f7a c03d 1e39 1a3e c6bd ecbc fc8d 133e
00000010: 8690 743e fe24 8c3d 9e92 df3c 0d90 023e

arith.constant6 f4 [128]
2.1615903 1.2330428 -0.52872634 2.9667923 1.0720762 0.3109039 -2.056826 -1.0075003
-0.38169158 0.4455915 0.60084116 -1.9083378 -0.6539166 1.6645561 1.211441 1.6452521
0.066486225 -1.5606706 1.4563719 -0.4302307 -1.075472 0.80192405 -2.0018113 1.378495
-0.12835124 -0.43089443 -1.531911 2.5060494 -0.6281793 -0.99843794 0.64035094 1.1683398
-0.6795342 -0.99153376 0.71013135 0.036262337 1.9937973 0.9485837 -0.4962772 0.62410533
1.1293783 -0.99641085 1.9991691 3.0144885 -1.8551357 1.7468554 1.401667 1.4142041
1.5623845 -1.6073766 0.4036399 -0.063118935 -0.7463371 -1.0759813 -0.43617588 0.30237308
-1.8582361 -0.25909945 -1.0559025 -0.15289 -0.49267542 1.6334846 0.16871636 1.8383882
0.5822344 -1.8921667 -0.45765412 -0.181932 -1.2490895 -1.0886614 1.5142604 2.1167607
1.1665138 1.4126534 0.24257603 -0.2758223 2.5053651 -2.2296944 -0.6975401 -0.30598223
-0.42631885 0.88258404 -0.028901786 0.8861967 0.6982229 -0.5735063 2.6611407 0.04370458
1.5047408 -2.373192 0.20122954 -1.4252548 -1.3269992 1.2093055 2.1327536 0.45912308
1.0726362 1.0919265 1.7757804 -0.6996998 1.2529609 -1.6889426 0.9097823 0.71758544
-0.9621814 -1.0895007 1.8829972 -0.21878144 -0.09611362 0.18384612 1.5232584 -1.7152935
0.4832226 -0.09152311 0.700928 -1.7366842 1.8356087 1.5691634 -1.1047007 -1.4058675
-0.3486027 1.130078 -0.05283172 1.7991543 -1.8567901 -2.329169 0.69877344 -0.46332324
00000000: 7f57 0a40 59d4 9d3f 9c5a 07bf eddf 3d40
00000010: cb39 893f cc2e 9f3e 0aa3 03c0 c5f5 80bf
00000020: 146d c3be 9224 e43e bad0 193f 6a44 f4bf
00000030: 1467 27bf 2d10 d53f 8010 9b3f 9f97 d23f
00000040: ee29 883d 0ec4 c7bf 656a ba3f 3347 dcbe
00000050: 11a9 89bf e54a 4d3f ad1d 00c0 8672 b03f
00000060: 826e 03be 329e dcbe a915 c4bf 1d63 2040
00000070: 5cd0 20bf a199 7fbf 0aee 233f 298c 953f
00000080: f4f5 2dbf 28d5 7dbf 2bcb 353f d187 143d
00000090: c034 ff3f 62d6 723f 0c18 febe 5ec5 1f3f
000000a0: 788f 903f c814 7fbf c6e4 ff3f 61ed 4040
000000b0: 1675 edbf f598 df3f d369 b33f a404 b53f
000000c0: 37fc c73f 84be cdbf e4a9 ce3e 8044 81bd
000000d0: f30f 3fbf c1b9 89bf 7252 dfbe a5d0 9a3e
000000e0: aeda edbf afa8 84be d027 87bf 328f 1cbe
000000f0: f43f fcbe 0616 d13f fbc3 2c3e 4e50 eb3f
00000100: 500d 153f 8532 f2bf a451 eabe 624c 3abe
00000110: 2ae2 9fbf 4259 8bbf 49d3 c13f 0279 0740
00000120: 5350 953f d4d1 b43f da65 783e 9538 8dbe
00000130: e757 2040 50b3 0ec0 fd91 32bf b4a9 9cbe
00000140: 7746 dabe 07f1 613f 70c3 ecbc c9dd 623f
00000150: bcbe 323f 4fd1 12bf 2150 2a40 9303 333d
00000160: 599b c03f 61e2 17c0 1e0f 4e3e c06e b6bf
00000170: 1cdb a9bf 86ca 9a3f 097f 0840 2e12 eb3e
00000180: 254c 893f 3fc4 8b3f c64c e33f 871f 33bf
00000190: 0661 a03f 452f d8bf 7ee7 683f aeb3 373f
000001a0: 8551 76bf c274 8bbf 0d06 f13f 3e08 60be
000001b0: 38d7 c4bd 2842 3c3e 22fa c23f bd8e dbbf
000001c0: f468 f73e 7870 bbbd 0470 333f ab4b debf
000001d0: 3af5 ea3f 59da c83f d566 8dbf 77f3 b3bf
000001e0: 0e7c b2be 65a6 903f 1366 58bd b04a e63f
000001f0: 4cab edbf 1b11 15c0 d1e2 323f b438 edbe

arith.constant7 f4 [32]
-0.3052029 0.5055604 -0.055496715 -0.17672935 0.20438498 0.92434144 0.25391468 0.0957858
-0.5475588 0.07239611 -1.2918209 -0.11238441 -0.10079684 -0.3217699 -0.18443117 -0.06783777
-0.09142867 0.34257856 0.37777162 0.22127703 0.15742691 0.9981575 -0.05827893 0.2916346
0.23881602 0.075850055 0.29338974 0.2956895 -0.27533033 0.119789995 -0.13533148 0.024955511
00000000: 8e43 9cbe 686c 013f 8650 63bd 8af8 34be
00000010: 4c4a 513e a4a1 6c3f 1b01 823e 582b c43d
00000020: d02c 0cbf 6944 943d 635a a5bf cc29 e6bd
00000030: 936e cebd 06bf a4be 86db 3cbe 87ee 8abd
00000040: f43e bbbd 7566 af3e 486b c13e 7296 623e
00000050: 8534 213e 4087 7f3f e3b5 6ebd 2151 953e
00000060: 308c 743e 4657 9b3d 2e37 963e 9d64 973e
00000070: 19f8 8cbe 7554 f53d 5694 0abe 806f cc3c

arith.constant8 f4 [128]
0.042007305 0.06762744 -0.27098915 -0.0612442 -0.16785426 -0.017080385 0.051796425 -0.27645093
0.06342747 -0.31918713 0.2935611 -0.13932934 -0.26816332 -0.42929903 -0.19355337 0.17702831
0.16762416 0.11515328 -0.32835528 -0.23456463 -0.26745415 -0.25032073 -0.47118372 -0.017185846
-0.4181438 0.024841774 0.060258165 -0.14058423 -0.17038381 0.11612228 0.06386526 0.15731652
-0.43903 0.15765469 0.2760405 -0.3350261 0.044669375 0.20785856 -0.13056497 -0.32256392
-0.17815074 -0.16104034 -0.3438291 0.13519832 -0.24024715 -0.26524568 0.38611484 0.28615576
-0.010433742 0.19261897 -0.23655558 -0.08622915 0.052296802 0.11374574 0.04265796 0.07518483
-0.11486731 0.5786312 -0.2766834 -0.12670615 0.25122637 0.19227543 -0.09421136 -0.15422183
-0.0897801 -0.077993564 -0.0482676 0.04317185 0.3339439 -0.21368445 0.021831904 0.03585641
0.14107373 -0.10162878 0.0027526733 -0.026055885 -0.050644983 -0.06286232 0.08850774 -0.17277901
-0.14697032 -0.071274854 -0.20475739 -0.15122661 0.17527439 0.070524864 0.19376396 -0.058141615
-0.01864843 0.10569795 0.074531585 -0.16728948 -0.11497428 -0.05929033 -0.121512465 -0.012800794
-0.24862564 -0.3219149 0.076627344 -0.3348614 -0.25315148 -0.059063565 -0.22219908 -0.2000132
0.06969298 -0.15208131 -0.045473497 -0.11941123 -0.13869405 -0.34415278 -0.35194507 0.1532185
0.0021934437 0.20423296 -0.13844915 0.22750767 0.2668758 -0.038867872 -0.37519965 -0.17320472
-0.2793721 -0.05403698 -0.36359778 0.2542562 0.037025597 0.027104791 -0.27185464 -0.17992352
00000000: da0f 2c3d 4180 8a3d 17bf 8abe 33db 7abd
00000010: fde1 2bbe 2aec 8bbc 7d28 543d fa8a 8dbe
00000020: 43e6 813d 7f6c a3be a44d 963e 5aac 0ebe
00000030: b44c 89be 15cd dbbe db32 46be e946 353e
00000040: aba5 2b3e 7cd5 eb3d 2f1e a8be b631 70be
00000050: c0ef 88be 0a2a 80be fe3e f1be 55c9 8cbc
00000060: f216 d6be fa80 cb3c 44d1 763d 50f5 0fbe
00000070: 1879 2ebe 85d1 ed3d cacb 823d 9517 213e
00000080: 8ac8 e0be 3b70 213e 2e55 8d3e 8a88 abbe
00000090: 3cf7 363d e0d8 543e d3b2 05be 1927 a5be
000000a0: 266d 36be c2e7 24be 5e0a b0be 6e71 0a3e
000000b0: 5903 76be 48ce 87be d8b0 c53e 0283 923e
000000c0: 49f2 2abc e83d 453e a03b 72be e998 b0bd
000000d0: 2c35 563d 87f3 e83d 1dba 2e3d 81fa 993d
000000e0: 8d3f ebbd 2d21 143f 72a9 8dbe 42bf 01be
000000f0: bea0 803e dae3 443e e3f1 c0bd 54ec 1dbe
00000100: a1de b7bd 17bb 9fbd 3fb4 45bd f7d4 303d
00000110: b2fa aa3e 19d0 5abe d2d8 b23c 2cde 123d
00000120: a275 103e c022 d0bd 3266 343b 2773 d5bc
00000130: 1d71 4fbd f6bd 80bd 8c43 b53d fbec 30be
00000140: 637f 16be 8df8 91bd ecab 51be 26db 1abe
00000150: 217b 333e 576f 903d 0f6a 463e e725 6ebd
00000160: 98c4 98bc 2b78 d83d 04a4 983d ef4d 2bbe
00000170: a377 ebbd 6bda 72bd 87db f8bd 6cba 51bc
00000180: b897 7ebe 08d2 a4be ccee 9c3d f472 abbe
00000190: 129d 81be a3ec 71bd 2888 63be 43d0 4cbe
000001a0: 31bb 8e3d 34bb 1bbe 6b42 3abd e08d f4bd
000001b0: d005 0ebe cb34 b0be 2532 b4be 4fe5 1c3e
000001c0: e1bf 0f3b 7222 513e 9dc5 0dbe c5f7 683e
000001d0: f2a3 883e eb33 1fbd 2b1a c0be 945c 31be
000001e0: dc09 8fbe e155 5dbd 7d29 babe de2d 823e
000001f0: 27a8 173d de0a de3c 8830 8bbe df3d 38be

arith.constant9 f4 [8]
0.09353834 0.047316633 0.05089784 -0.11405665 0.086332224 0.29879975 0.068572566 0.16317968
00000000: 0791 bf3d 16cf 413d 417a 503d 8896 e9bd
00000010: f3ce b03d 48fc 983e c66f 8c3d 9318 273e

arith.constant10 f4 [128]
0.0092379935 0.72080606 -1.2884636 -0.13308038 -3.3506093 0.02901537 -0.82149506 -1.1263477
-0.3439444 -0.09756704 0.6755053 -1.832938 2.320351 -0.82409525 -0.019569658 -0.14540847
-2.2563267 0.81352216 -1.5767008 -0.4472791 0.558285 0.024610981 2.1255631 -0.8472475
-1.4878528 -1.3517041 -0.66944635 -1.1099949 0.031691015 -2.441359 0.9404646 -0.4578694
0.38912988 -1.9381859 -0.58110917 0.57729346 -0.47101256 0.9885391 -1.2110422 -0.88433754
2.0063481 -0.59383047 0.518137 -1.3986646 -0.8199541 2.6778178 5.496835 3.9511461
0.18655032 -2.4829717 -2.571721 -1.0989366 0.53836197 -1.0817139 -0.29376057 4.14216
-1.0510564 0.009922981 1.2069668 -1.0735255 2.6412547 -0.9850967 -0.08782575 -0.80823815
1.2058944 -1.9761349 -1.387657 0.80019563 2.1437209 0.15742026 -2.0845935 0.8605504
4.825135 0.31004566 -1.152241 0.09645446 1.8756398 -0.6921599 -1.6759481 -0.57240564
-2.4453075 0.15217184 -0.3154451 -0.41234028 1.4730295 3.4991384 1.7373724 2.7494104
-0.79826176 1.2187133 1.1408894 -2.3712645 -0.18458706 -1.8858542 -2.11204 -0.70646876
-0.8904807 -0.48252022 -0.46193308 -1.4872383 2.4088845 -0.15123856 0.23039228 -2.6364632
-0.5771777 2.0182254 0.22937669 -2.4121222 -0.20258957 -3.2500963 2.7009776 -0.7170018
0.2431216 5.881698 1.1290164 2.1830437 -0.72863936 -0.7093737 -2.4205987 -0.57648534
-2.8270535 1.2868663 0.5505101 0.9111871 0.5772598 -0.26278192 0.23374371 -0.51741827
00000000: f45a 173c bf86 383f 60ec a4bf 3946 08be
00000010: 6270 56c0 a4b1 ed3c 804d 52bf 292c 90bf
00000020: 7b19 b0be 3ad1 c7bd eaed 2c3f b69d eabf
00000030: a180 1440 e8f7 52bf 8c50 a0bc f5e5 14be
00000040: a867 10c0 fd42 503f 55d1 c9bf c401 e5be
00000050: c4eb 0e3f f89c c93c 3a09 0840 36e5 58bf
00000060: f671 bebf a404 adbf d660 2bbf 5014 8ebf
00000070: 70ce 013d 3a3f 1cc0 4ac2 703f dc6d eabe
00000080: 083c c73e 7a16 f8bf 92c3 14bf 81c9 133f
00000090: 8f28 f1be e610 7d3f 6e03 9bbf f263 62bf
000000a0: 0268 0040 4605 18bf a0a4 043f 7107 b3bf
000000b0: 83e8 51bf 5e61 2b40 13e6 af40 94df 7c40
000000c0: 0c07 3f3e 02e9 1ec0 1497 24c0 f4a9 8cbf
000000d0: 17d2 093f 9a75 8abf c967 96be 938c 8440
000000e0: 0489 86bf 0094 223c e37d 9a3f 4969 89bf
000000f0: 510a 2940 4c2f 7cbf fddd b3bd b2e8 4ebf
00000100: bf5a 9a3f fdf1 fcbf bf9e b1bf 9fd9 4c3f
00000110: b932 0940 c732 213e fb69 05c0 084d 5c3f
00000120: 8267 9a40 4ebe 9e3e a27c 93bf ea89 c53d
00000130: f714 f03f 6431 31bf 7885 d6bf 2d89 12bf
00000140: eb7f 1cc0 efd2 1b3e 0582 a1be 441e d3be
00000150: 3b8c bc3f e2f1 5f40 3862 de3f 57f6 2f40
00000160: e25a 4cbf ccfe 9b3f aa08 923f ccc2 17c0
00000170: 6404 3dbe ac63 f1bf aa2b 07c0 23db 34bf
00000180: 8bf6 63bf e40c f7be 7e82 ecbe d35d bebf
00000190: 2a2b 1a40 48de 1abe f4eb 6b3e d0bb 28c0
000001a0: ebc1 13bf 9b2a 0140 b9e1 6a3e 3660 1ac0
000001b0: a473 4fbe 9401 50c0 d1dc 2c40 6e8d 37bf
000001c0: def4 783e df36 bc40 9c83 903f fdb6 0b40
000001d0: 1c88 3abf 8499 35bf 17eb 1ac0 8b94 13bf
000001e0: 72ee 34c0 09b8 a43f 3bee 0c3f 8f43 693f
000001f0: 4cc7 133f 5a8b 86be 835a 6f3e 8675 04bf

arith.constant11 f4 [32]
-0.064274035 0.17961676 0.09800338 0.14401412 -0.0015376805 0.10697751 -0.16100533 0.30070344
0.098813765 -0.014739421 0.12144083 -0.026978934 0.05950158 0.05875034 -0.21450576 -0.11481037
-0.11218006 0.13345839 -0.16397353 -0.16255197 -0.07380192 0.040213842 0.20416142 -0.039577845
0.18757136 0.16661075 -0.09885439 0.08380167 -0.18842678 0.10393244 -0.026894657 -0.06560763
00000000: 1ba2 83bd 75ed 373e ffb5 c83d 7078 133e
00000010: ff8b c9ba 0617 db3d 95de 24be cdf5 993e
00000020: df5e ca3d 9d7d 71bc f8b5 f83d ed02 ddbc
00000030: eeb7 733d 32a4 703d 66a7 5bbe b321 ebbd
00000040: a9be e5bd 51a9 083e ade8 27be 0674 26be
00000050: 7625 97bd 45b7 243d b10f 513e 611c 22bd
00000060: b512 403e 029c 2a3e 2c74 cabd 36a0 ab3d
00000070: f3f2 40be 88da d43d 2f52 dcbc 4b5d 86bd

arith.constant12 f4 [16]
-0.13843673 -0.030692115 -0.05490487 0.05213602 -0.059868395 0.51618016 0.21487814 -0.33552113
0.5553211 -0.34287483 -0.11679119 -0.12943968 -0.43328327 0.04288812 -0.019445531 0.141895
00000000: 5cc2 0dbe 086e fbbc eee3 60bd 948c 553d
00000010: 9038 75bd 6224 043f 0409 5c3e 6dc9 abbe
00000020: 8629 0e3f 4a8d afbe 3830 efbd d68b 04be
00000030: 4ed7 ddbe 74ab 2f3d 3c4c 9fbc ec4c 113e

arith.constant13 f4 [64]
-0.43633002 -0.32607898 -0.19685169 0.30796292 -0.017148461 0.078413464 0.10441492 -0.48354208
-0.20893486 0.26724213 0.090663426 -0.112610236 -0.27756083 0.1085434 0.1344322 -0.051311374
-0.20899116 0.22950317 -0.07846912 0.08210993 0.036715098 -0.06216495 0.021747727 0.2631412
0.13318965 -0.11239386 -0.1482287 -0.013627467 0.1838998 -0.22231337 0.39136606 -0.25132808
0.0028331296 0.20764433 0.262505 0.28273237 0.088344865 -0.028373659 0.302651 -0.2786499
-0.017890198 -0.40469489 -0.32702613 -0.16788149 0.27111182 -0.043676145 -0.36421672 -0.25197363
-0.23512165 0.124292694 0.2404089 -0.0107041 -0.09228325 0.10418869 0.38957986 -0.5111978
-0.5033048 -0.33070523 -0.026150836 0.11489918 -0.030227974 -0.347705 0.44505596 0.061457098
00000000: a666 dfbe d3f3 a6be 7d93 49be 51ad 9d3e
00000010: ee7a 8cbc 3d97 a03d 7dd7 d53d d492 f7be
00000020: 05f3 55be f6d3 883e bfad b93d 32a0 e6bd
00000030: 741c 8ebe 014c de3d 98a8 093e e02b 52bd
00000040: c701 56be e102 6b3e 6bb4 a0bd 4029 a83d
00000050: 9262 163d ada0 7ebd 4a28 b23c 72ba 863e
00000060: de62 083e c12e e6bd 44c9 17be bd45 5fbc
00000070: 3b50 3c3e 1ea6 63be 2261 c83e 13ae 80be
00000080: 07ac 393b b7a0 543e 0e67 863e 4cc2 903e
00000090: 27ee b43d e06f e8bc 12f5 9a3e 33ab 8ebe
000000a0: 778e 92bc 2b34 cfbe f86f a7be 20e9 2bbe
000000b0: 2bcf 8a3e c2e5 32bd 9d7a babe b002 81be
000000c0: bbc3 70be 2b8d fe3d c02d 763e 4060 2fbc
000000d0: 00ff bcbd e160 d53d 0377 c73e dcdd 02bf
000000e0: 95d8 00bf 3252 a9be 473a d6bc 4350 eb3d
000000f0: a8a0 f7bc 6406 b2be 60de e33e 70ba 7b3d

arith.constant14 f4 [4]
0.29899848 0.3953985 0.3357435 0.12512745
00000000: 5416 993e ac71 ca3e 92e6 ab3e 6921 003e

arith.constant15 f4 [64]
-1.3484154 -1.7664504 5.3855534 2.7303627 1.9674656 -0.7316209 0.37213567 -1.8954993
-1.5216434 2.1633039 -1.5449564 1.7974422 5.0331764 -1.6024423 -2.7583055 6.266655
-0.9346411 -3.6987052 -0.9995734 -1.078573 -0.57022 -2.382279 0.7021067 -0.6558765
-1.0167259 -0.21466967 -0.6471466 -2.1908004 -1.1846019 -0.8348479 -2.8612387 -1.542841
-1.0325551 0.15338118 0.5870364 -1.0410738 1.0405102 -1.8524029 -0.71348643 -1.4203267
-0.9404267 -1.7758102 -1.4640446 -3.4898932 2.4640782 -1.2107377 -0.069035955 -0.006039068
-0.34503224 -0.6399463 -1.2887441 0.058929652 -1.8017687 -2.2785287 -1.94408 -3.1862411
-1.5062933 -1.9710077 2.86343 -0.7729787 -0.32583964 -1.8090863 4.9570017 -1.4730601
00000000: e098 acbf 0c1b e2bf 7456 ac40 43be 2e40
00000010: ead5 fb3f 824b 3bbf 9188 be3e b99f f2bf
00000020: 36c5 c2bf 9273 0a40 22c1 c5bf 9612 e63f
00000030: c80f a140 d41c cdbf 1488 30c0 7088 c840
00000040: a444 6fbf 96b7 6cc0 0be4 7fbf ae0e 8abf
00000050: f0f9 11bf 4277 18c0 44bd 333f 86e7 27bf
00000060: 1324 82bf 5ed2 5bbe 66ab 25bf 1336 0cc0
00000070: 09a1 97bf 98b8 55bf 891e 37c0 d07b c5bf
00000080: c42a 84bf f50f 1d3e 0448 163f e841 85bf
00000090: 702f 853f 8a1b edbf 0ca7 36bf 44cd b5bf
000000a0: cebf 70bf c04d e3bf d065 bbbf 695a 5fc0
000000b0: 75b3 1d40 74f9 9abf b962 8dbd 60e3 c5bb
000000c0: 11a8 b0be 85d3 23bf 91f5 a4bf 3860 713d
000000d0: 5ba0 e6bf 6ad3 11c0 9dd7 f8bf 60eb 4bc0
000000e0: 38ce c0bf fb49 fcbf 7042 3740 efe1 45bf
000000f0: 74d4 a6be 2490 e7bf c29f 9e40 3c8d bcbf

arith.constant16 f4 [16]
-0.27611983 0.11490933 -0.09171657 0.03927339 -0.08285187 0.14216219 -0.1808944 0.20762967
-0.056904674 0.16233711 0.009578899 -0.13604778 0.0716584 0.18129197 0.15868369 -0.045691215
00000000: 945f 8dbe 9555 eb3d e6d5 bbbd 22dd 203d
00000010: 3eae a9bd f792 113e 623c 39be df9c 543e
00000020: e014 69bd b33b 263e d0f0 1c3c 1c50 0bbe
00000030: a4c1 923d 9aa4 393e fa7d 223e b626 3bbd

arith.constant17 f4 [8, 2, 2, 32]
0.04171572 0.036346365 -0.045710668 -0.018244581 -0.11619349 -0.09911997 0.0074937046 -0.08356626
0.080050014 0.043324884 -0.0020398486 -0.090519354 -0.023482451 0.06111065 -0.071372576 -0.015469315
0.014815582 0.01635396 0.038150042 0.09571834 -0.10808329 -0.12297792 -0.011513026 0.12627201
-0.070608325 -0.06286763 0.004087249 -0.07330708 -0.0557433 -0.20207739 -0.1161929 -0.050139003
0.030380337 0.08200848 0.05123365 0.013821665 0.010555307 0.041156482 0.077775255 -0.06382142
0.13202244 -0.0013553089 -0.012680343 -0.15404311 0.084796704 0.117827564 -0.030088192 0.055473495
0.051977918 0.09418217 0.088133596 0.1438419 0.023449617 0.006743037 0.03331911 -0.014888619
-0.08316831 0.042059764 -0.09897753 -0.034817662 -0.05952907 0.023283085 -0.104248695 -0.08175198
0.0465755 -0.036917005 0.042426176 0.11651674 -0.018212128 0.017226575 -0.021212397 -0.03253655
-0.06859988 -0.11921601 -0.09310701 0.0016796599 0.10699904 -0.065888934 -0.007800762 0.022557823
0.09591903 0.12356306 0.05209528 0.10402929 0.10669313 -0.07676723 -0.025475077 -0.012081628
-0.025861437 -0.036583435 0.11220114 0.031353537 -0.1249676 -0.052685466 -0.059586965 0.018793665
0.06999451 0.033737395 0.08146312 0.078127004 0.123762146 0.08917055 0.1413371 0.090685174
-0.0660504 -0.031564772 -0.10025227 -0.032143965 -0.0016215914 0.012256305 0.04634852 0.16065276
0.06826687 0.022118254 -0.075255394 -0.037927218 -0.10197745 -0.21675462 -0.08166226 0.07026654
0.1044292 -0.041954357 -0.13321432 0.08874398 -0.0915018 -0.11818615 -0.12008033 -0.14225736
0.025728883 -0.024780316 -0.029272918 0.057440523 -0.06776905 -0.037120976 -0.107405074 -0.0023036853
-0.063768305 0.030524313 0.01535594 -0.033365265 -0.077993244 0.023000656 -0.050483704 -0.025200577
0.07425261 -0.036194824 0.034274265 -0.0512772 -0.03859773 0.02107794 0.106763825 -0.010259145
-0.0053488854 0.10695869 -0.08327426 -0.19575815 0.18412612 0.07972792 0.000989461 0.0927276
-0.032203883 -0.001507865 -0.059457693 -0.054908704 -0.026843254 0.03354353 -0.0058707115 -0.12367754
0.1055143 -0.02172986 0.09127782 -0.04905264 0.04240232 -0.039694667 -0.015667047 -0.016599154
0.029230002 0.015217971 0.124950126 0.0063219536 -0.10021514 0.022380449 0.036840223 0.011033398
-0.027249439 0.04596769 -0.05557026 -0.14839733 -0.07724649 0.099416606 0.14404795 0.0493976
0.09864339 0.04528161 -0.04998935 -0.09248933 -0.121042795 -0.04236837 -0.050522987 -0.030520214
-0.16760658 -0.16568063 -0.013606303 -0.0010761922 0.00011737501 -0.15950426 0.061967462 -0.10288295
-0.0185698 0.04364433 0.0454851 -0.16845101 -0.014890758 0.07841411 0.09015563 -0.027010875
-0.10328076 0.06856428 -0.12084788 0.06940098 0.028396567 -0.0701265 0.1099292 0.110907055
-0.0890268 -0.049019627 0.05531674 -0.037116718 -0.06800277 -0.04676116 -0.09891997 0.15059334
-0.050517414 -0.070071794 -0.104853995 -0.03005045 0.058807302 -0.17708467 -0.0845994 0.022591587
0.00023960035 0.024363628 -0.027378432 -0.049784414 -0.020243354 -0.08127245 0.058026057 0.020875499
-0.17904668 0.10744913 -0.0961015 0.019324254 -0.051626403 -0.06397151 0.001893985 0.038102612
00000000: 1ade 2a3d eddf 143d 1c3b 3bbd a975 95bc
00000010: daf6 edbd 69ff cabd c08d f53b ca24 abbd
00000020: 43f1 a33d 6f75 313d fbae 05bb 3662 b9bd
00000030: 455e c0bc 294f 7a3d c92b 92bd 0373 7dbc
00000040: 0ebd 723c bdf8 853c 3843 1c3d fa07 c43d
00000050: c65a ddbd d9db fbbd 22a1 3cbc 734d 013e
00000060: 199b 90bd bec0 80bd 54ee 853b 0622 96bd
00000070: 1653 64bd 60ed 4ebe 8bf6 edbd 8e5e 4dbd
00000080: 2fe0 f83c 10f4 a73d 60da 513d 4474 623c
00000090: 2bf0 2c3c b393 283d a248 9f3d ceb4 82bd
000000a0: e430 073e 9fa4 b1ba 37c1 4fbc 7abd 1dbe
000000b0: e5a9 ad3d 944f f13d 837b f6bc 2d38 633d
000000c0: cce6 543d 95e2 c03d 637f b43d 4b4b 133e
000000d0: 6919 c03c b2f4 dc3b 9e79 083d 65ef 73bc
000000e0: 2654 aabd dc46 2c3d bbb4 cabd f79c 0ebd
000000f0: c1d4 73bd 2bbc be3c 5780 d5bd 956d a7bd
00000100: f4c5 3e3d 4936 17bd 12c7 2d3d 54a0 ee3d
00000110: 9a31 95bc bf1e 8d3c 9fc5 adbc 0c45 05bd
00000120: 187e 8cbd 8627 f4bd e3ae bebd 0928 dc3a
00000130: 5022 db3d c7f0 86bd 899d ffbb 2fcb b83c
00000140: 3271 c43d a10e fd3d dc61 553d 4f0d d53d
00000150: ee81 da3d 2338 9dbd 1cb1 d0bc 05f2 45bc
00000160: 5ddb d3bc 83d8 15bd b6c9 e53d 916c 003d
00000170: 03ef ffbd b7cc 57bd 7611 74bd 2cf5 993c
00000180: 4859 8f3d 3930 0a3d 23d6 a63d 0d01 a03d
00000190: 0277 fd3d 0d9f b63d acba 103e 26b9 b93d
000001a0: 6f45 87bd 104a 01bd 1051 cdbd 64a9 03bd
000001b0: 948b d4ba abce 483c f2d7 3d3d 2882 243e
000001c0: 80cf 8b3d 5731 b53c 801f 9abd 9259 1bbd
000001d0: 8ed9 d0bd ecf4 5dbe 8b3e a7bd e7e7 8f3d
000001e0: fade d53d 55d8 2bbd 5669 08be 67bf b53d
000001f0: 4c65 bbbd 950b f2bd adec f5bd eaab 11be
00000200: 61c5 d23c 1700 cbbc c2cd efbc c146 6b3d
00000210: 80ca 8abd 2a0c 18bd 31f7 dbbd 6df9 16bb
00000220: f598 82bd 200e fa3c 7b97 7b3c 04aa 08bd
00000230: ecba 9fbd df6b bc3c 00c8 4ebd 7171 cebc
00000240: c111 983d 0641 14bd 2c63 0c3d 0b08 52bd
00000250: a718 1ebd a5ab ac3c fea6 da3d f915 28bc
00000260: b445 afbb 280d db3d b28b aabd d374 48be
00000270: 8f8b 3c3e 6448 a33d cdb0 813a f8e7 bd3d
00000280: 38e8 03bd 8ea3 c5ba e989 73bd f3e7 60bd
00000290: 62e6 dbbc f164 093d 195f c0bb a64a fdbd
000002a0: e217 d83d d202 b2bc deef ba3d 6ceb 48bd
000002b0: 0eae 2d3d e096 22bd 2e58 80bc f3fa 87bc
000002c0: c273 ef3c cc54 793c dae5 ff3d 6428 cf3b
000002d0: 983d cdbd 3457 b73c c6e5 163d 6dc5 343c
000002e0: 373a dfbc 9e48 3c3d a49d 63bd 78f5 17be
000002f0: 6833 9ebd ef9a cb3d 4e81 133e 2355 4a3d
00000300: 8c05 ca3d 3679 393d a2c1 4cbd 0c6b bdbd
00000310: 49e5 f7bd 758a 2dbd 31f1 4ebd 8705 fabc
00000320: 0fa1 2bbe 2fa8 29be f9ec 5ebc 050f 8dba
00000330: 3b27 f638 1655 23be 98d1 7d3d 4cb4 d2bd
00000340: b11f 98bc 66c4 323d 964e 3a3d 6c7e 2cbe
00000350: 5ef8 73bc 9497 a03d 84a3 b83d e945 ddbc
00000360: dd84 d3bd 6e6b 8c3d 187f f7bd 1a22 8e3d
00000370: eb9f e83c 7c9e 8fbd 8f22 e13d 3d23 e33d
00000380: af53 b6bd cec8 48bd ce93 623d b307 18bd
00000390: 0945 8bbd a188 3fbd 8e96 cabd 2435 1a3e
000003a0: 59eb 4ebd cd81 8fbd b1bd d6bd 5c2c f6bc
000003b0: eddf 703d af55 35be 7342 adbd fe11 b93c
000003c0: 3b3d 7b39 3b96 c73c bc48 e0bc beea 4bbd
000003d0: 64d5 a5bc 2c72 a6bd bbac 6d3d 1803 ab3c
000003e0: 0358 37be 4a0e dc3d ddd0 c4bd e64d 9e3c
000003f0: 3576 53bd 7f03 83bd 973f f83a 7c11 1c3d

arith.constant18 f4 [16, 2, 2, 64]
-0.08276001 0.24432576 0.1592905 -0.06934097 -0.11023826 0.09450398 0.055604402 0.17446414
0.0074586035 -0.040655695 0.05867894 -0.18948501 0.036596872 0.013646198 -0.12587123 0.02444929
-0.09922711 -0.039124 -0.0409716 -0.15504648 0.19034444 -0.011053858 -0.044753995 0.030191392
0.10881083 -0.027726263 0.09596641 0.113421865 0.03769552 0.14357196 0.057156377 -0.020069977
0.0092668235 0.0666321 0.035181537 -0.038336694 0.027462099 -0.12327505 0.035339706 0.08087346
0.03394834 -0.08760661 0.040238798 -0.053072605 0.10511183 -0.06373716 0.029502297 -0.0011107316
-0.059394196 0.12347306 0.07474987 -0.2521611 0.08417741 -0.006575017 0.030897891 -0.0663041
0.16409211 -0.016918678 0.07493582 -0.032168925 -0.10791193 0.065132536 -0.11829761 0.0723622
-0.05894383 0.1176699 0.066662334 -0.08934464 0.02204729 -0.04406068 -0.16684903 -0.09054447
0.12628348 -0.08992274 0.09390718 -0.085555516 -0.11510664 0.009203379 -0.07596452 0.0050136717
-0.089402 0.0778836 -0.116677076 -0.10551075 0.029125532 0.0033644172 0.1365234 -0.07796752
0.16651922 -0.073565274 -0.13750808 -0.04404684 -0.11090514 0.08574784 -0.108832195 -0.052806396
0.049545262 0.08674051 0.073240444 -0.047835633 -0.11977907 0.082124256 -0.06852557 -0.026984705
0.19183773 -0.067755334 0.045986176 0.009374839 -0.11624698 0.0074740225 -0.11739787 0.09126561
-0.033298954 0.18263108 0.06987576 -0.2092429 0.0009256199 0.113440506 0.17016065 0.01560132
0.21408288 -0.00794696 0.023126008 -0.02679649 -0.010155591 0.18228927 0.023979478 -0.09289249
-0.026350584 0.08415212 -0.050896946 -0.21501933 0.15860625 0.06644225 -0.17998536 0.03227966
0.04810626 -0.093056396 -0.028662752 -0.12313835 0.006988983 0.12024641 -0.020817455 0.02533525
0.057765756 0.096838914 -0.12876464 0.005402582 0.071553715 0.008146313 -0.113267586 -0.010728839
0.14497404 0.083576456 -0.08085495 0.03956972 -0.06407411 0.068647586 0.024322284 -0.17057005
-0.07259383 0.08804562 -0.014147172 -0.167921 0.1531946 -0.035169385 -0.15893336 -0.039037764
0.012389135 -0.1219942 -0.018984584 -0.15996677 0.057921935 0.0021855305 -0.0017280978 0.03569018
-0.048365716 0.06250899 -0.08290455 -0.08985089 0.04147729 0.03622339 -0.0024218203 -0.031312842
0.07661275 0.021007344 0.052572336 0.0495261 0.06128987 -0.059754085 0.033880312 0.0034708027
-0.111944996 0.15199393 0.059787672 -0.05108228 0.13086247 0.015640823 0.037719656 0.16232893
0.058920417 -0.012392833 -0.0440949 -0.16301192 0.0033654445 0.10188194 -0.024162102 -0.05695223
0.00214785 0.07455958 -0.16924012 -0.114114456 -0.052314464 -0.11036213 -0.009491219 -0.05402026
0.17673735 0.046668854 -0.053246297 -0.020730637 -0.041282844 0.02759208 -0.071518466 -0.0019819816
-0.12952156 0.11571909 -0.019816179 -0.11544067 0.062280975 0.09069568 -0.09384026 0.011943735
0.056957364 -0.0800436 -0.06025777 -0.106612906 0.049065232 0.14410092 0.12173279 -0.049878206
0.0026604028 0.01927871 0.008826715 -0.14419521 0.13933407 -0.064359516 0.06468272 0.0126055125
0.12627704 0.11911341 0.07894015 -0.02641016 -0.03438239 -0.13314366 0.10825995 -0.026397126
00000000: 157e a9bd 8830 7a3e 0d1d 233e a302 8ebd
00000010: 99c4 e1bd 4d8b c13d 71c1 633d baa6 323e
00000020: 4d67 f43b 9686 26bd 5459 703d 5c08 42be
00000030: 9ae6 153d 4e94 5f3c 63e4 00be e149 c83c
00000040: 9537 cbbd 7d40 20bd d6d1 27bd 81c4 1ebe
00000050: a7e9 423e 3e1b 35bc f74f 37bd f053 f73c
00000060: 36d8 de3d 3022 e3bc 0a8a c43d b949 e83d
00000070: 9e66 1a3d 8704 133e ce1c 6a3d cb69 a4bc
00000080: e0d3 173c 6976 883d 841a 103d f006 1dbd
00000090: 32f8 e03c a177 fcbd 5ec0 103d fca0 a53d
000000a0: 6a0d 0b3d 186b b3bd 70d1 243d a962 59bd
000000b0: df44 d73d a188 82bd cdae f13c f895 91ba
000000c0: 5447 73bd 72df fc3d 7616 993d 421b 81be
000000d0: 3565 ac3d 3d73 d7bb 931d fd3c 72ca 87bd
000000e0: c307 283e 0a99 8abc f477 993d 90c3 03bd
000000f0: ee00 ddbd 3564 853d 0446 f2bd a232 943d
00000100: 166f 71bd ebfc f03d 4386 883d 53fa b6bd
00000110: 859c b43c f978 34bd 79da 2abe 616f b9bd
00000120: 7550 013e 6a29 b8bd 6852 c03d bb37 afbd
00000130: 08bd ebbd c5c9 163c 4993 9bbd ba49 a43b
00000140: 6518 b7bd 7081 9f3d 64f4 eebd 0516 d8bd
00000150: ab98 ee3c 8e7d 5c3b cacc 0b3e 6fad 9fbd
00000160: 0484 2a3e 64a9 96bd ebce 0cbe 766a 34bd
00000170: 3c22 e3bd 909c af3d 6ae3 debd 854b 58bd
00000180: f9ef 4a3d 02a5 b13d 16ff 953d 4cef 43bd
00000190: bb4e f5bd c330 a83d 2257 8cbd 070f ddbc
000001a0: 1c71 443e 4fc3 8abd 005c 3c3d ed98 193c
000001b0: e612 eebd a5e8 f43b 4b6e f0bd 77e9 ba3d
000001c0: 7c64 08bd a403 3b3e 061b 8f3d c543 56be
000001d0: 4da5 723a 7f53 e83d 983e 2e3e ae9c 7f3c
000001e0: 8b38 5b3e f733 02bc c172 bd3c 5084 dbbc
000001f0: a363 26bc 0aaa 3a3e 9c70 c43c 6b3e bebd
00000200: 2edd d7bc f257 ac3d 5179 50bd 072e 5cbe
00000210: ad69 223e e012 883d 154e 38be ad37 043d
00000220: 120b 453d 5a94 bebd 26ce eabc f62f fcbd
00000230: d703 e53b c043 f63d 5e89 aabc df8b cf3c
00000240: c99b 6c3d 7b53 c63d e1da 03be 2508 b13b
00000250: c18a 923d 1d78 053c d6f8 e7bd 03c8 2fbc
00000260: 1374 143e 222a ab3d 4897 a5bd dc13 223d
00000270: 4939 83bd 1b97 8c3d 873f c73c eaa9 2ebe
00000280: 13ac 94bd 4351 b43d 8ac9 67bc 7cf3 2bbe
00000290: 0cdf 1c3e c60d 10bd 6dbf 22be 10e6 1fbd
000002a0: ccfb 4a3c 18d8 f9bd 8f85 9bbc 54ce 23be
000002b0: 8d3f 6d3d 1e3b 0f3b 5781 e2ba de2f 123d
000002c0: 211b 46bd b704 803d dcc9 a9bd be03 b8bd
000002d0: 17e4 293d fa5e 143d 67b7 1ebb e541 00bd
000002e0: 25e7 9c3d 9817 ac3c 1756 573d e1db 4a3d
000002f0: 160b 7b3d b3c0 74bd 15c6 0a3d 6876 633b
00000300: 6b43 e5bd 4ca4 1b3e ebe3 743d a73b 51bd
00000310: d000 063e 2f21 803c ed7f 1a3d 8e39 263e
00000320: 8956 713d 4f0b 4bbc db9c 34bd 99ec 26be
00000330: ca8e 5c3b 7ba7 d03d 9aef c5bc be46 69bd
00000340: f2c2 0c3b b1b2 983d 484d 2dbe d7b4 e9bd
00000350: b147 56bd 8a05 e2bd 0f81 1bbc 5944 5dbd
00000360: a3fa 343e d727 3f3d ca18 5abd 4cd3 a9bc
00000370: 3318 29bd c908 e23c 4678 92bd 22e4 01bb
00000380: 4da1 04be 21fe ec3d 8a55 a2bc 286c ecbd
00000390: 561a 7f3d a8be b93d 522f c0bd a8af 433c
000003a0: 204c 693d e6ed a3bd dad0 76bd de57 dabd
000003b0: a0f8 483d 318f 133e 0a4f f93d 174d 4cbd
000003c0: 275a 2e3b 63ee 9d3c ed9d 103c e9a7 13be
000003d0: 97ad 0e3e ecce 83bd 6078 843d 5a87 4e3c
000003e0: c54e 013e bbf1 f33d 60ab a13d 1f5a d8bc
000003f0: 8dd4 0cbd d056 08be 65b7 dd3d c93e d8bc

arith.constant22 f4 [3, 1, 1, 8]
-0.10081801 -0.057380192 -0.03221023 0.09894599 -0.0026752711 0.09814312 -0.2077459 -0.07995245
-0.12342497 0.04150775 0.08287129 -0.029158158 -0.009017939 0.004699676 -0.041608974 -0.11711395
-0.10816865 0.03435671 0.13237646 -0.10736321 0.013666811 -0.17906843 0.051157273 -0.15991051
00000000: ac79 cebd 7e07 6bbd e0ee 03bd 32a4 ca3d
00000010: 9a53 2fbb 43ff c83d 57bb 54be 1cbe a3bd
00000020: 3bc6 fcbd 0804 2a3d 6cb8 a93d 17dd eebc
00000030: fabf 13bc bdff 993b 2c6e 2abd 70d9 efbd
00000040: 8687 ddbd 9fb9 0c3d b28d 073e 3ee1 dbbd
00000050: c3ea 5f3c b75d 37be 4a8a 513d 95bf 23be

arith.constant23 f4 [32, 1, 1, 128]
0.10280105 0.14193656 -0.33908665 -0.21896364 0.32621717 0.29679403 -0.028822102 0.053281903
-0.015159254 0.0296012 -0.0009860572 0.32866013 -0.4822269 -0.019507201 -0.04028233 0.09910331
0.44496197 0.08000719 0.085169725 -0.090024486 0.37817258 -0.11163947 0.2940211 0.16900413
-0.40152243 -0.061722405 -0.024686284 0.06877486 0.38346526 -0.035352007 -0.1650606 0.27105013
0.2902117 -0.03654155 -0.21570787 0.31240478 -0.12581484 -0.16999832 0.21695833 -0.13778768
-0.24406283 0.37525144 0.17542076 0.09939134 0.041786246 0.25971654 0.34035188 -0.015277969
-0.08763483 0.30748776 0.13443093 -0.2694969 -0.2405244 0.3874107 0.080663145 -0.36402866
-0.21448077 0.044945285 0.0698804 0.23189917 0.27954546 -0.2316433 -0.046834737 -0.033861425
0.026017016 -0.024077132 -0.17113654 0.39545918 -0.35699683 0.023765856 -0.36608016 -0.019292673
-0.0672813 0.2128984 0.14637251 0.03499836 -0.36724237 0.13562822 -0.36991695 0.115503006
0.22880545 -0.47677428 -0.071749955 0.43510258 -0.007962253 0.17024738 -0.22378065 0.1133424
-0.081048146 0.17072174 -0.20686978 0.13511516 0.45352215 -0.13496259 -0.091975 0.18909721
0.050558165 -0.06783211 -0.38518772 0.06952337 0.07878241 0.27615508 0.044675365 0.14552075
-0.10447965 0.3810367 0.19302572 0.6040305 0.0937763 0.14693907 0.25329274 0.04051524
-0.023699844 0.3033668 0.2426239 -0.37157983 0.3160801 0.0564092 0.08875711 0.25884426
-0.25706592 -0.11128875 -0.27184054 0.19722943 -0.30597502 -0.2115366 0.1571418 0.33043906
-0.12322953 -0.36757395 0.21877216 0.10132363 -0.26260677 -0.25834778 -0.012510919 -0.1156242
-0.08489739 -0.22324929 -0.049562745 0.07775693 0.66162026 0.28440908 -0.1847387 0.060707226
-0.15090245 0.1919684 -0.038021903 -0.2832005 -0.3171124 -0.27945423 0.19290985 -0.2754393
-0.17839922 -0.11500877 0.52197576 -0.1560446 -0.044266235 0.15179554 0.059178926 0.23965807
0.005936282 -0.11516863 -0.059879508 0.41104496 0.07433229 0.25596055 -0.2416128 -0.29929656
-0.16355333 -0.23342796 -0.36391154 -0.33656704 -0.4402999 -0.04380719 0.018345674 -0.40927905
-0.37569392 -0.4463504 0.058319792 0.20546953 -0.2934261 -0.32494307 -0.2075344 0.122151606
-0.14060117 0.017388215 -0.4889571 -0.22466417 -0.16366597 -0.12831318 0.12760134 0.016273431
-0.051773757 -0.1550088 -0.18600857 -0.21660526 0.1298734 -0.15194948 0.6573174 -0.3237327
-0.20283134 0.039895885 0.21904215 0.08887404 0.09524345 -0.08537314 -0.09025234 -0.3609433
0.28383604 -0.1608378 -0.21311545 -0.3744402 0.19163965 0.0594928 0.2491222 -0.052865602
-0.099574775 0.017191965 0.078592524 -0.3761072 -0.30806425 0.016658513 0.21450852 -0.08784139
0.051818706 -0.028602354 0.12069519 -0.37980676 -0.32006705 -0.16369976 -0.2161145 -0.10531735
-0.32810485 -0.22401378 -0.6103092 -0.17391638 0.29697844 -0.37982044 0.024983086 0.05856431
-0.51173365 -0.5638705 0.1165901 0.13391896 -0.24693815 -0.027529737 -0.016765825 -0.32340142
0.30262405 0.13495617 0.13112251 -0.2460832 0.40596026 -0.09762549 -0.17240182 0.061610155
00000000: 5b89 d23d d157 113e c49c adbe 0138 60be
00000010: f005 a73e 63f5 973e 541c ecbc 203e 5a3d
00000020: 855e 78bc 377e f23c 973e 81ba 2446 a83e
00000030: 72e6 f6be 91cd 9fbc 16ff 24bd adf6 ca3d
00000040: 0ed2 e33e cfda a33d 776d ae3d c25e b8bd
00000050: d69f c13e 3ca3 e4bd ef89 963e 6b0f 2d3e
00000060: 5994 cdbe a2d0 7cbd e43a cabc d5d9 8c3d
00000070: 8f55 c43e 44cd 10bd a505 29be 15c7 8a3e
00000080: a196 943e 98ac 15bd 86e2 5cbe 85f3 9f3e
00000090: 9bd5 00be 0a14 2ebe 532a 5e3e 3718 0dbe
000000a0: 9beb 79be f520 c03e 80a1 333e b08d cb3d
000000b0: 0e28 2b3d 91f9 843e 9a42 ae3e 7250 7abc
000000c0: e479 b3bd 096f 9d3e 43a8 093e 7ffb 89be
000000d0: 074c 76be b25a c63e b832 a53d f761 babe
000000e0: d9a0 5bbe 8c18 383d 751d 8f3d fa76 6d3e
000000f0: 9520 8f3e e733 6dbe c8d5 3fbd 47b2 0abd
00000100: a321 d53c 683d c5bc 6b3e 2fbe a079 ca3e
00000110: 4ac8 b6be 9db0 c23c dc6e bbbe ab0b 9ebc
00000120: c7ca 89bd 0a02 5a3e ade2 153e 715a 0f3d
00000130: 3107 bcbe 20e2 0a3e c165 bdbe d78c ec3d
00000140: fa4b 6a3e c21b f4be a4f1 92bd c4c5 de3e
00000150: 1c74 02bc 5455 2e3e c126 65be 0f20 e83d
00000160: 92fc a5bd aed1 2e3e acd5 53be a15b 0a3e
00000170: 0e34 e83e a233 0abe 645d bcbd b3a2 413e
00000180: 1416 4f3d 90eb 8abd 5337 c5be 4562 8e3d
00000190: ac58 a13d 3364 8d3e 84fd 363d 6403 153e
000001a0: 6df9 d5bd 3e17 c33e 89a8 453e bea1 1a3f
000001b0: ca0d c03d 3277 163e 96af 813e 4ff3 253d
000001c0: 2d26 c2bc e552 9b3e 6672 783e b63f bebe
000001d0: 40d5 a13e 550d 673d 4ac6 b53d 3c87 843e
000001e0: 259e 83be 5beb e3bd af2e 8bbe 83f6 493e
000001f0: c2a8 9cbe 0d9d 58be c8e9 203e 4f2f a93e
00000200: c45f fcbd a732 bcbe cf05 603e c382 cf3d
00000210: 6574 86be 2946 84be 99fa 4cbc 61cc ecbd
00000220: afde adbd 769b 64be 4e02 4bbd 063f 9f3d
00000230: f25f 293f 119e 913e 242c 3dbe 24a8 783d
00000240: 2c86 1abe 5d93 443e dbbc 1bbd a8ff 90be
00000250: 8e5c a2be a014 8fbe 298a 453e 6106 8dbe
00000260: 49ae 36be b889 ebbd 34a0 053f 28ca 1fbe
00000270: 8350 35bd 4a70 1b3e 9a65 723d ed68 753e
00000280: 2585 c23b 88dd ebbd 3744 75bd 7c74 d23e
00000290: 873b 983d 430d 833e 5969 77be 663d 99be
000002a0: 867a 27be bd07 6fbe 9d52 babe 8452 acbe
000002b0: fd6e e1be 2b6f 33bd ab49 963c 068d d1be
000002c0: f45a c0be 0a88 e4be bce0 6e3d 9b66 523e
000002d0: f23b 96be f05e a6be e683 54be 9f2a fa3d
000002e0: c1f9 0fbe bb71 8e3c 9658 fabe 5d0e 66be
000002f0: 0d98 27be 8864 03be eda9 023e dc4f 853c
00000300: b810 54bd a0ba 1ebe 0879 3ebe c5cd 5dbe
00000310: 88fd 043e a598 1bbe f445 283f 4bc0 a5be
00000320: 05b3 4fbe de69 233d 964c 603e 9803 b63d
00000330: ff0e c33d 1dd8 aebd 38d6 b8bd 8fcd b8be
00000340: f552 913e aab2 24be f03a 5abe a0b6 bfbe
00000350: 2f3d 443e b9ae 733d e419 7f3e 9a89 58bd
00000360: dced cbbd 2ad6 8c3c 1ef5 a03d 1f91 c0be
00000370: 99ba 9dbe 6f77 883c 1fa8 5b3e 30e6 b3bd
00000380: da3f 543d 7c4f eabc 0a2f f73d 0876 c2be
00000390: d4df a3be e9a0 27be 1f4d 5dbe 9fb0 d7bd
000003a0: 5cfd a7be de63 65be 393d 1cbf 2317 32be
000003b0: 8f0d 983e d377 c2be 54a9 cc3c 21e1 6f3d
000003c0: fa00 03bf d159 10bf cac6 ee3d 0d22 093e
000003d0: 5bdd 7cbe 0b86 e1bc 7c58 89bc df94 a5be
000003e0: 8af1 9a3e f331 0a3e fb44 063e 3cfd 7bbe
000003f0: 06da cf3e dfef c7bd 1a8a 30be ee5a 7c3d

arith.constant24 f4 [128, 1, 1, 8]
-0.13591571 -0.4908201 -0.19032641 -0.39339152 0.052344467 -0.10578442 0.38345534 -0.06083504
-0.08346229 0.3464891 0.18644564 0.1204543 0.084603 -0.016672285 0.1293266 0.25167102
0.039791968 -0.016228877 -0.18430193 0.040310368 0.0035713739 -0.26351926 -0.18488656 0.44503394
0.120780304 -0.33961836 -0.3453947 -0.26829162 -0.15615545 -0.0006241509 0.2911544 -0.14027901
0.046104316 -0.20103264 -0.106681325 -0.30018005 -0.11234341 0.41500896 0.25857532 -0.31418684
0.29754543 -0.26395592 0.13108759 -0.44476178 0.1074419 0.24426265 0.30995944 -0.21093391
-0.206633 0.17454495 -0.30546844 -0.13835222 0.38099802 -0.5088625 0.13417113 0.6277324
0.6595434 -0.25358304 -0.07318709 -0.15696336 -0.21310341 0.15977561 -0.16041408 0.25602216
0.06456173 -0.2443584 0.09926853 -0.38540873 -0.080630094 -0.12988257 0.45568907 0.24253051
0.081488945 -0.2007316 -0.12258648 -0.39423126 0.07787197 0.21166836 0.4676598 0.24689808
-0.3290358 -0.22650726 -0.27682173 -0.29905304 0.039187733 -0.27410087 -0.487663 0.14367764
0.19268835 -0.24523045 -0.27827787 0.10320959 -0.1292005 -0.07875782 0.105889946 0.23160613
0.0749637 -0.1551804 -0.48314786 -0.38801056 -0.26988882 0.21391086 0.041445345 0.37461606
0.24362743 -0.10477671 0.05137861 -0.16486926 -0.08815084 -0.22720292 0.08774052 -0.03176662
-0.2108739 -0.31681165 0.19345672 0.07684042 0.024665678 0.061831377 -0.18094423 -0.26017314
-0.23465897 -0.3446051 -0.1808306 -0.010585903 0.31701535 -0.04996261 -0.14406615 -0.094471835
0.23422547 0.025316948 -0.21745783 -0.020937193 -0.22658138 0.09838535 -0.0009067696 0.053966522
-0.070477426 0.0054409187 -0.040216163 -0.20466734 0.033453595 -0.08899446 -0.43619365 0.27110422
-0.043137614 -0.25876746 0.12277486 -0.22574112 0.011030622 0.19645105 -0.048009302 -0.31642613
0.2283502 -0.4964797 -0.11880564 -0.059955668 -0.33431128 0.15230085 0.16451143 -0.43946013
0.19452532 0.067558005 0.013649927 -0.15087579 -0.001457348 -0.15141094 -0.00038882153 -0.24659546
0.2125145 -0.10058565 0.034113783 0.17539355 -0.26617435 -0.100971244 -0.024361245 0.17929964
0.26187983 -0.15671225 0.26435605 -0.018867033 0.08145935 -0.12286421 -0.30768272 0.15543747
0.1695703 -0.23902512 -0.26528585 -0.056659378 -0.325965 0.03924601 -0.047146093 -0.5068695
0.08254422 -0.1229634 -0.27928367 -0.47676644 -0.053635165 -0.011729674 -0.022578571 0.10037158
0.24492045 -0.2302229 -0.19768703 -0.5444365 -0.022815522 -0.16809551 -0.13275057 0.13249163
0.3603362 -0.48480582 -0.13208467 -0.2993066 -0.21998787 0.3182119 0.081235096 -0.5284149
-0.10878111 0.21470389 -0.3515799 -0.18558508 -0.20341246 0.078598924 0.03303724 -0.010742647
-0.054966997 -0.048305765 0.38422856 0.22894022 -0.7222909 -0.05672434 -0.30831468 0.20771642
-0.3243869 -0.18633913 -0.012820241 -0.12690476 -0.0643322 -0.0050295903 0.011439778 -0.2817708
0.00904629 -0.119880356 -0.20070843 -0.38805488 0.14410888 -0.09653145 0.23213713 -0.2551048
0.16117764 -0.06076348 0.18270954 -0.09930701 -0.45675918 0.34073138 0.40982857 -0.7143539
00000000: 7d2d 0bbe c64c fbbe ede4 42be 9d6a c9be
00000010: 2767 563d 81a5 d8bd 4254 c43e 2a2e 79bd
00000020: 47ee aabd 0567 b13e 9beb 3e3e beb0 f63d
00000030: 5644 ad3d 5194 88bc 316e 043e 06db 803e
00000040: e7fc 223d 6cf2 84bc a5b9 3cbe 7c1c 253d
00000050: b60d 6a3b ffeb 86be e752 3dbe 7ddb e33e
00000060: aa5b f73d 75e2 adbe 93d7 b0be 855d 89be
00000070: 37e7 1fbe 0f9e 23ba 3112 953e 4da5 0fbe
00000080: e1d7 3c3d 80db 4dbe bd7b dabd 33b1 99be
00000090: 4d14 e6bd 0e7c d43e fc63 843e 19dd a0be
000000a0: e057 983e 3b25 87be d33b 063e d1b7 e3be
000000b0: 800a dc3d fd1f 7a3e 01b3 9e3e 0fff 57be
000000c0: 9a97 53be e9bb 323e 5c66 9cbe 34ac 0dbe
000000d0: 2c12 c33e d044 02bf 2864 093e 12b3 203f
000000e0: d6d7 283f a3d5 81be 1de3 95bd 01bb 20be
000000f0: c837 5abe 389c 233e 9743 24be 5615 833e
00000100: f138 843d 1739 7abe 4d4d cb3d 4b54 c5be
00000110: 6421 a5bd f0ff 04be 1450 e93e eb59 783e
00000120: ade3 a63d 968c 4dbe 9f0e fbbd aed8 c9be
00000130: 577b 9f3d 97bf 583e 1b71 ef3e dad2 7c3e
00000140: 6177 a8be 85f1 67be 94bb 8dbe 7b1d 99be
00000150: 5183 203d f356 8cbe f7ae f9be 3b20 133e
00000160: 1850 453e b11d 7bbe 707a 8ebe 8d5f d33d
00000170: 234d 04be c84b a1bd d4dc d83d 282a 6d3e
00000180: 9186 993d 9ce7 1ebe 285f f7be 52a9 c6be
00000190: de2e 8abe 730b 5b3e 98c2 293d adcd bf3e
000001a0: 7879 793e 2c95 d6bd 6172 523d 7dd3 28be
000001b0: 6d88 b4bd e2a7 68be 4db1 b33d b71d 02bd
000001c0: 54ef 57be 2335 a2be 8519 463e 835e 9d3d
000001d0: ad0f ca3c e642 7d3d 7249 39be 6a35 85be
000001e0: 714a 70be 1470 b0be a82b 39be 7f70 2dbc
000001f0: d64f a23e 98a5 4cbd 1486 13be 737a c1bd
00000200: cdd8 6f3e 7d65 cf3c 44ad 5ebe 7a84 abbc
00000210: f304 68be 427e c93d 47b4 6dba 000c 5d3d
00000220: 7856 90bd bc49 b23b b4b9 24bd 5194 51be
00000230: a306 093d ba42 b6bd c654 dfbe 2cce 8a3e
00000240: 11b1 30bd 2b7d 84be 6371 fb3d ae28 67be
00000250: c8b9 343c 772a 493e 67a5 44bd 9b02 a2be
00000260: a3d4 693e 9632 febe 5f50 f3bd 1394 75bd
00000270: d92a abbe c1f4 1b3e af75 283e eb00 e1be
00000280: a531 473e da5b 8a3d f2a3 5f3c 2f7f 1abe
00000290: 7c04 bfba 780b 1bbe beda cbb9 8583 7cbe
000002a0: 679d 593e d9ff cdbd e5ba 0b3d 5e9a 333e
000002b0: 0148 88be 03ca cebd 3c91 c7bc 539a 373e
000002c0: 1d15 863e 2d79 20be ad59 873e 098f 9abc
000002d0: 29d4 a63d 3ba0 fbbd 9788 9dbe 002b 1f3e
000002e0: d6a3 2d3e 00c3 74be 8cd3 87be aa13 68bd
000002f0: e2e4 a6be 6dc0 203d 431c 41bd 33c2 01bf
00000300: f20c a93d 3cd4 fbbd 45fe 8ebe bb1a f4be
00000310: 8cb0 5bbd d22d 40bc b2f6 b8bc 9d8f cd3d
00000320: 6dcc 7a3e 8dbf 6bbe 786e 4abe 3160 0bbf
00000330: 9ee7 babc 3b21 2cbe c4ef 07be e3ab 073e
00000340: fd7d b83e 7838 f8be 3441 07be b73e 99be
00000350: 8044 61be acec a23e 965e a63d 3346 07bf
00000360: a1c8 debd 56db 5b3e 4802 b4be 040a 3ebe
00000370: 5b4b 50be 79f8 a03d 0f52 073d ed01 30bc
00000380: 1325 61bd 44dc 45bd 9bb9 c43e 4e6f 6a3e
00000390: 0ee8 38bf c857 68bd 6cdb 9dbe 9db3 543e
000003a0: 0a16 a6be afcf 3ebe fd0b 52bc 52f3 01be
000003b0: 9ac0 83bd 43cf a4bb e86d 3b3c 4344 90be
000003c0: e436 143c d583 f5bd 8386 4dbe 21af c6be
000003d0: 4791 133e 48b2 c5bd 5bb5 6d3e 199d 82be
000003e0: c00b 253e 20e3 78bd 3618 3b3e 7961 cbbd
000003f0: 57dc e9be 5874 ae3e 0dd5 d13e e6df 36bf
