tf_lite_inference/models/reseffnet_gan_div4_float16.tflite (tflite, 247352 bytes, 41 tensors)

arith.constant1 f2 [1, 1, 1, 32]
0	0x39b5	0.7134
1	0x3925	0.643
2	0x3990	0.6953
3	0x38ad	0.5845
4	0x383a	0.5283
5	0x3945	0.6587
6	0x39a7	0.7065
7	0x36fc	0.4365
8	0x38ec	0.615
9	0x3829	0.52
10	0x381e	0.5146
11	0x397b	0.685
12	0x39ea	0.7393
13	0x3a70	0.8047
14	0x3938	0.6523
15	0x3822	0.5166
16	0x3aca	0.8486
17	0x3a32	0.7744
18	0x3a00	0.75
19	0x39c8	0.7227
20	0x39ac	0.709
21	0x3a46	0.784
22	0x3a23	0.767
23	0x3942	0.657
24	0x3917	0.636
25	0x392a	0.6455
26	0x39d1	0.727
27	0x3a28	0.7695
28	0x3ab1	0.8364
29	0x3a6d	0.803
30	0x3ade	0.8584
31	0x3909	0.6294

arith.constant2 f2 [1, 1, 1, 64]
0	0x3bbd	0.9673
1	0x3c7f	1.124
2	0x3abd	0.8423
3	0x3b4b	0.9116
4	0x3c55	1.083
5	0x3a3f	0.781
6	0x3c15	1.0205
7	0x3b31	0.899
8	0x3b95	0.9478
9	0x3a47	0.7847
10	0x3a3e	0.7803
11	0x3c34	1.051
12	0x39af	0.7104
13	0x3c10	1.016
14	0x3c0e	1.014
15	0x3afe	0.874
16	0x3c05	1.005
17	0x3bea	0.9893
18	0x3a8b	0.818
19	0x3c02	1.002
20	0x3b43	0.9077
21	0x3913	0.6343
22	0x3b96	0.948
23	0x3b65	0.9243
24	0x3bb6	0.964
25	0x3a15	0.7603
26	0x3ab9	0.8403
27	0x3a4b	0.7866
28	0x3a9c	0.826
29	0x3b85	0.94
30	0x3b63	0.9233
31	0x3bbd	0.9673
32	0x3b94	0.9473
33	0x3c19	1.024
34	0x3afc	0.873
35	0x3af4	0.869
36	0x3c25	1.036
37	0x39ff	0.7495
38	0x3c4a	1.072
39	0x3b49	0.9106
40	0x3bd4	0.9785
41	0x3aad	0.8345
42	0x3a2a	0.7705
43	0x3bf1	0.9927
44	0x3a68	0.801
45	0x3bdc	0.9824
46	0x3bff	0.9995
47	0x3a1f	0.765
48	0x3b46	0.909
49	0x3c02	1.002
50	0x3a09	0.7544
51	0x3c30	1.047
52	0x3c1b	1.026
53	0x3a9f	0.8276
54	0x3bb8	0.965
55	0x3a8b	0.818
56	0x3b6c	0.9277
57	0x3a66	0.8
58	0x3ad2	0.8525
59	0x397e	0.6865
60	0x3ab0	0.836
61	0x3b96	0.948
62	0x3ba9	0.9575
63	0x3bdd	0.983

arith.constant3 f2 [1, 1, 1, 16]
0	0x3bb4	0.963
1	0x3b9d	0.9517
2	0x3b5c	0.92
3	0x3aab	0.8335
4	0x3afd	0.8735
5	0x3b5d	0.9204
6	0x3b8c	0.9434
7	0x3bfa	0.997
8	0x3c13	1.019
9	0x3a41	0.7817
10	0x3b7a	0.9346
11	0x3b26	0.8936
12	0x3c4e	1.076
13	0x3bb8	0.965
14	0x3bab	0.9585
15	0x3be2	0.9854

arith.constant4 f2 [1, 1, 1, 16]
0	0x3c1e	1.029
1	0x3c6a	1.104
2	0x3cdf	1.218
3	0x3ab4	0.838
4	0x3c65	1.099
5	0x3ceb	1.2295
6	0x3bdc	0.9824
7	0x3b56	0.917
8	0x3b4e	0.913
9	0x3c86	1.131
10	0x3ca6	1.162
11	0x3c39	1.056
12	0x3c18	1.023
13	0x3b5d	0.9204
14	0x3bc3	0.97
15	0x3c09	1.009

arith.constant9 f2 [1, 1, 1, 16]
0	0x31ac	0.1772
1	0x2753	0.02861
2	0x30cb	0.1498
3	0xa7df	-0.03075
4	0x3292	0.2053
5	0xb09f	-0.1444
6	0x2f3f	0.1132
7	0xad2e	-0.08093
8	0xae52	-0.09875
9	0xaf86	-0.11755
10	0x2805	0.0314
11	0x2664	0.02496
12	0xb0cd	-0.15
13	0xb144	-0.1646
14	0xae4e	-0.0985
15	0xaae5	-0.05386

arith.constant10 f2 [1, 1, 1, 64]
0	0xad71	-0.085
1	0x2c87	0.07074
2	0x2eea	0.10803
3	0x2d31	0.0811
4	0xad0e	-0.079
5	0x1b57	0.003584
6	0xaeb7	-0.1049
7	0x2714	0.02765
8	0x2f21	0.1114
9	0xa9e5	-0.04605
10	0x247c	0.01752
11	0x28dc	0.03796
12	0x3120	0.1602
13	0x2858	0.03394
14	0xadb2	-0.089
15	0x20a7	0.00909
16	0xae07	-0.0942
17	0x2e8e	0.1024
18	0xaef6	-0.10876
19	0xae30	-0.0967
20	0x2cb3	0.0734
21	0xb04b	-0.1342
22	0x2f5c	0.115
23	0xac90	-0.0713
24	0x2deb	0.09247
25	0x2811	0.03177
26	0xa8ca	-0.0374
27	0x23fd	0.0156
28	0x2694	0.0257
29	0x2e24	0.09595
30	0xae0e	-0.0946
31	0xad37	-0.0815
32	0x9bb8	-0.003769
33	0x28e4	0.0382
34	0x3012	0.1272
35	0x2eb9	0.10504
36	0xae1a	-0.09534
37	0x28f9	0.03885
38	0xaec6	-0.10583
39	0xb035	-0.1315
40	0x2cb8	0.0737
41	0xb018	-0.1279
42	0x261b	0.02385
43	0x2cbf	0.07416
44	0x2850	0.0337
45	0xabd2	-0.0611
46	0xaec3	-0.10565
47	0xb1ca	-0.1809
48	0xae8e	-0.1024
49	0x2fa8	0.1196
50	0xaafd	-0.0546
51	0xac5a	-0.068
52	0x1ce3	0.004772
53	0x2a51	0.04935
54	0x2d4c	0.08276
55	0xa805	-0.0314
56	0x2de3	0.092
57	0x2920	0.04004
58	0xa86c	-0.03455
59	0xad59	-0.08356
60	0xaac9	-0.053
61	0x2fa6	0.1195
62	0xaf20	-0.1113
63	0xadf9	-0.0933

arith.constant11 f2 [1, 1, 1, 32]
0	0x17ff	0.001952
1	0x261a	0.02383
2	0x25a1	0.02199
3	0xad62	-0.0841
4	0xaa8d	-0.05118
5	0x2558	0.02087
6	0x1a30	0.003021
7	0xa303	-0.013695
8	0xadb6	-0.08923
9	0x24bf	0.01854
10	0x1feb	0.007732
11	0xab26	-0.05585
12	0x1e30	0.006042
13	0x1ecb	0.006634
14	0x2d7c	0.0857
15	0x29b2	0.0445
16	0x2d22	0.0802
17	0x2f1c	0.1111
18	0x2d52	0.0831
19	0xa2e7	-0.01348
20	0x2ef0	0.1084
21	0xaefe	-0.10925
22	0x2c1f	0.0644
23	0x2b5e	0.05756
24	0x27f9	0.03114
25	0xa88b	-0.0355
26	0xaae2	-0.05377
27	0xa925	-0.0402
28	0xab69	-0.0579
29	0xab42	-0.0567
30	0xad1f	-0.08
31	0xa5aa	-0.02213

arith.constant12 f2 [1, 1, 1, 16]
0	0x3145	0.1647
1	0xb0a6	-0.1453
2	0x32c5	0.2115
3	0xad60	-0.084
4	0x34b1	0.2932
5	0x20e4	0.00955
6	0x2ee8	0.1079
7	0xb0cf	-0.1503
8	0xad2b	-0.08075
9	0xb0de	-0.1521
10	0x31a6	0.1765
11	0x2f8d	0.118
12	0x2cd0	0.0752
13	0xb2e2	-0.2151
14	0xb1c0	-0.1797
15	0xb2e9	-0.216

arith.constant17 f2 [16, 2, 2, 3]
0	0x286e	0.0346
1	0xb206	-0.1882
2	0x325a	0.1985
3	0x3431	0.262
4	0x2fbd	0.1209
5	0x2572	0.02127
6	0x3282	0.2034
7	0x2d5d	0.0838
8	0x3036	0.1316
9	0xae51	-0.0987
10	0xab67	-0.05783
11	0xb338	-0.2256
12	0xb413	-0.2546
13	0xafc5	-0.1214
14	0x2d75	0.08527
15	0xaa3d	-0.04874
16	0xac24	-0.0647
17	0x354b	0.3308
18	0xb4ee	-0.308
19	0xb29d	-0.2067
20	0x2e17	0.09515
21	0xb200	-0.1875
22	0x3262	0.1995
23	0x3387	0.2352
24	0x2925	0.0402
25	0x2f15	0.11066
26	0x348f	0.285
27	0xa81a	-0.03204
28	0x2c95	0.0716
29	0x341d	0.257
30	0xb5b4	-0.3564
31	0xac46	-0.0668
32	0xb4ef	-0.3083
33	0xab2c	-0.05603
34	0xb032	-0.1311
35	0x349f	0.2888
36	0x304f	0.1346
37	0x34bf	0.2966
38	0xac02	-0.0626
39	0xae8f	-0.1025
40	0xab93	-0.05917
41	0x26bf	0.02635
42	0x2ac9	0.053
43	0xb042	-0.133
44	0x2585	0.02156
45	0xae3c	-0.0974
46	0xa95e	-0.04193
47	0x2f2d	0.1121
48	0xacf2	-0.0773
49	0xa789	-0.02943
50	0x2a25	0.048
51	0x2c9c	0.072
52	0x3125	0.1608
53	0x2be6	0.0617
54	0x3312	0.221
55	0xa51a	-0.01993
56	0x1026	0.0005064
57	0x3119	0.1593
58	0xae03	-0.09393
59	0xb62c	-0.3857
60	0x2c1c	0.0642
61	0x26e9	0.027
62	0x2cb5	0.07355
63	0x31eb	0.1849
64	0xb44f	-0.2693
65	0x3193	0.1742
66	0x34bc	0.296
67	0xaf46	-0.11365
68	0x9ea4	-0.006485
69	0xa840	-0.0332
70	0xb16d	-0.1696
71	0x317d	0.1715
72	0xb2ea	-0.2161
73	0xb30d	-0.2203
74	0xa1ab	-0.01107
75	0x2d10	0.0791
76	0xad1f	-0.08
77	0xa2aa	-0.013016
78	0x3284	0.2036
79	0xaab3	-0.05234
80	0x2d57	0.08344
81	0x3527	0.322
82	0x2f5f	0.1152
83	0x3340	0.2266
84	0xb2e7	-0.2157
85	0x1c31	0.004093
86	0xb42c	-0.2607
87	0x2a14	0.0475
88	0xaddd	-0.0916
89	0xac4b	-0.0671
90	0x3299	0.2062
91	0xac0c	-0.06323
92	0xa9a8	-0.0442
93	0x310f	0.1581
94	0xae7a	-0.1012
95	0xb357	-0.2294
96	0x1d3c	0.00511
97	0x2cd3	0.0754
98	0xad57	-0.08344
99	0x30a5	0.1451
100	0x33d7	0.245
101	0xb07c	-0.1401
102	0x32c0	0.2109
103	0x3095	0.1432
104	0x9ee7	-0.00674
105	0x2a45	0.04898
106	0xb3ed	-0.2477
107	0xa851	-0.03372
108	0x2ea6	0.1039
109	0xad4a	-0.08264
110	0x1f0e	0.00689
111	0xb639	-0.389
112	0xafe4	-0.1233
113	0xafa2	-0.11926
114	0x33bc	0.2417
115	0x35a1	0.3518
116	0x28be	0.03705
117	0xb0c6	-0.1492
118	0xb130	-0.1621
119	0x2f20	0.1113
120	0x351c	0.3193
121	0x286b	0.03452
122	0xacce	-0.0751
123	0x2e56	0.099
124	0x318a	0.1731
125	0xb029	-0.13
126	0x2de6	0.09216
127	0xb3f4	-0.2485
128	0xb05e	-0.1365
129	0xaa38	-0.04858
130	0x32a3	0.2074
131	0xaf82	-0.1173
132	0xa2ce	-0.01329
133	0xad1f	-0.08
134	0xb0cb	-0.1498
135	0xae03	-0.09393
136	0x2813	0.03183
137	0x2ca4	0.0725
138	0x31ed	0.1852
139	0xb270	-0.2012
140	0x3298	0.206
141	0x359c	0.3506
142	0x33d2	0.2444
143	0x2c1d	0.0643
144	0xb0fe	-0.156
145	0x3379	0.2335
146	0x3412	0.2544
147	0xb033	-0.1312
148	0x312f	0.162
149	0x2ce3	0.07635
150	0xabe5	-0.06168
151	0x3273	0.2015
152	0xb166	-0.1687
153	0xb566	-0.3374
154	0xa118	-0.00995
155	0x32fa	0.218
156	0x2910	0.03955
157	0xb472	-0.2778
158	0xb385	-0.235
159	0x2bde	0.06146
160	0x33c2	0.2424
161	0x3239	0.1945
162	0xb25a	-0.1985
163	0x312f	0.162
164	0xa0db	-0.00948
165	0x33f6	0.2488
166	0xb0ae	-0.1462
167	0xad82	-0.08606
168	0x24c4	0.01862
169	0x9b6c	-0.003624
170	0xb2dc	-0.2144
171	0x3434	0.2627
172	0x312c	0.1616
173	0x3219	0.1906
174	0xae2f	-0.0966
175	0xaa97	-0.05148
176	0xb048	-0.1338
177	0x2fe3	0.1232
178	0x28ed	0.03848
179	0xb17c	-0.1714
180	0xb3db	-0.2455
181	0x2505	0.0196
182	0x2c4c	0.06714
183	0xb1b4	-0.1782
184	0x2f20	0.1113
185	0x354c	0.331
186	0xb401	-0.2502
187	0x3328	0.2236
188	0x344d	0.2688
189	0xb0e1	-0.1525
190	0x3239	0.1945
191	0xa9d3	-0.0455

arith.constant18 f2 [64, 3, 3, 16]
0	0x2902	0.03912
1	0x36a8	0.416
2	0x374a	0.4556
3	0xb45d	-0.2727
4	0xb44e	-0.269
5	0xaf25	-0.11163
6	0xb3b2	-0.2405
7	0xb208	-0.1885
8	0xb0d2	-0.1506
9	0x34a9	0.2913
10	0xb9f5	-0.7446
11	0xa435	-0.01643
12	0x34b5	0.2942
13	0xa98f	-0.04343
14	0xb4ea	-0.3071
15	0x3750	0.457
16	0x3172	0.1702
17	0xb133	-0.1625
18	0xa8cd	-0.0375
19	0xaff2	-0.12415
20	0xb1f6	-0.1863
21	0x2ebe	0.10535
22	0xb1c1	-0.1798
23	0xb109	-0.1573
24	0xb167	-0.1688
25	0xaba8	-0.0598
26	0x2c6c	0.0691
27	0xacc8	-0.0747
28	0xaf77	-0.11664
29	0x30dc	0.1519
30	0xb242	-0.1956
31	0x21ea	0.01155
32	0xa388	-0.01471
33	0xb644	-0.3916
34	0xb833	-0.525
35	0xb48d	-0.2844
36	0x3930	0.6484
37	0x2c70	0.06934
38	0x34bd	0.2961
39	0xac5c	-0.0681
40	0x2a45	0.04898
41	0xb1cf	-0.1815
42	0x3c2b	1.042
43	0x334e	0.2283
44	0xb4ea	-0.3071
45	0x3207	0.1884
46	0x38dc	0.6074
47	0xba4d	-0.7876
48	0xb3d7	-0.245
49	0x348d	0.2844
50	0x2ba2	0.05963
51	0x30d7	0.1512
52	0xb10d	-0.1578
53	0xa9ec	-0.04626
54	0xae39	-0.0972
55	0xb02e	-0.1306
56	0xb33d	-0.2262
57	0x20fd	0.00974
58	0xb8a1	-0.5786
59	0xadc6	-0.0902
60	0x3063	0.1371
61	0xb6bc	-0.421
62	0xb21b	-0.1908
63	0x365a	0.397
64	0xb465	-0.2747
65	0x340d	0.2532
66	0x3783	0.4695
67	0xb24d	-0.1969
68	0xb5ea	-0.3696
69	0x348f	0.285
70	0x2960	0.042
71	0x3303	0.2191
72	0xb35d	-0.2301
73	0xb465	-0.2747
74	0xb51b	-0.319
75	0xb1ea	-0.1848
76	0x20fa	0.00972
77	0x2fd5	0.1224
78	0xadee	-0.09265
79	0x3466	0.275
80	0x2b55	0.05728
81	0xb80b	-0.5054
82	0xb79a	-0.475
83	0xb0e0	-0.1523
84	0x397e	0.6865
85	0x35a0	0.3516
86	0x30bd	0.1481
87	0x2077	0.00872
88	0x34e5	0.306
89	0xab06	-0.05487
90	0x3bbc	0.967
91	0x34f8	0.3105
92	0xb857	-0.5425
93	0xa075	-0.008705
94	0x38be	0.593
95	0xb6da	-0.4282
96	0xb0e1	-0.1525
97	0x33be	0.242
98	0x367a	0.4048
99	0xa5ad	-0.02217
100	0xb1c4	-0.1802
101	0xacb6	-0.0736
102	0xa872	-0.03473
103	0x3087	0.1415
104	0xb497	-0.2869
105	0x9f4d	-0.00713
106	0xbbc1	-0.969
107	0xb4e3	-0.3054
108	0x352c	0.3232
109	0xb035	-0.1315
110	0xb929	-0.645
111	0x3921	0.641
112	0xa7d4	-0.03058
113	0x33a4	0.2388
114	0x315a	0.1672
115	0xb266	-0.2
116	0xb28d	-0.2047
117	0xa68d	-0.02559
118	0xa847	-0.03342
119	0x330f	0.2206
120	0x2db9	0.0894
121	0xb0d6	-0.1511
122	0xb761	-0.4612
123	0x3068	0.1377
124	0x300c	0.1265
125	0x34b8	0.295
126	0xade5	-0.0921
127	0x373b	0.452
128	0x30f5	0.1549
129	0xb64b	-0.3933
130	0xaf41	-0.11334
131	0x31f8	0.1865
132	0x3427	0.2595
133	0x326f	0.201
134	0x28a3	0.03622
135	0x31f5	0.1862
136	0x3452	0.27
137	0xb40d	-0.2532
138	0x36e0	0.4297
139	0x3491	0.2854
140	0xb3ff	-0.2499
141	0xa928	-0.04028
142	0x3730	0.4492
143	0xb891	-0.571
144	0x30eb	0.1537
145	0x2815	0.0319
146	0x9c44	-0.004166
147	0x2c18	0.06396
148	0x3014	0.1274
149	0x3137	0.163
150	0x2d4e	0.0829
151	0x2ae0	0.0537
152	0x2806	0.03143
153	0x2c41	0.06647
154	0x2e7a	0.1012
155	0xa97f	-0.04294
156	0x2e20	0.0957
157	0x2ee2	0.10754
158	0x2cf7	0.0776
159	0xb307	-0.2196
160	0xa555	-0.02083
161	0x2e09	0.0943
162	0x2137	0.010185
163	0x9afb	-0.003408
164	0xae66	-0.1
165	0x2ddf	0.09174
166	0x33be	0.242
167	0xaf39	-0.11285
168	0xa266	-0.0125
169	0xb30c	-0.2202
170	0x3233	0.1937
171	0x2fa9	0.1197
172	0x293f	0.041
173	0x2feb	0.1237
174	0x2efb	0.1091
175	0xaa5c	-0.04968
176	0xa997	-0.04367
177	0xb017	-0.1278
178	0x2d30	0.08105
179	0xa4f6	-0.01938
180	0x2792	0.02957
181	0x2fdb	0.12274
182	0xb020	-0.1289
183	0x2ac7	0.05295
184	0xa730	-0.02808
185	0x2cc5	0.0745
186	0xa92b	-0.04037
187	0xae4e	-0.0985
188	0x9b75	-0.003641
189	0xafaa	-0.11975
190	0xae5a	-0.09924
191	0x9f00	-0.006836
192	0x25ea	0.0231
193	0x2b6c	0.05798
194	0xaa7b	-0.05063
195	0x2b9b	0.05942
196	0xa629	-0.02406
197	0xa657	-0.02477
198	0xa364	-0.014435
199	0xa90b	-0.0394
200	0xa7ac	-0.02997
201	0x2bc9	0.06082
202	0xa4bc	-0.0185
203	0xaf16	-0.1107
204	0x2d54	0.08325
205	0xa95d	-0.0419
206	0x117a	0.0006685
207	0xb08b	-0.142
208	0xb3c2	-0.2424
209	0x34eb	0.3074
210	0x35ed	0.3704
211	0xbbc6	-0.9717
212	0xb85b	-0.5444
213	0x30aa	0.1458
214	0x374c	0.456
215	0xb152	-0.1663
216	0xb523	-0.321
217	0xb65a	-0.397
218	0xb085	-0.1412
219	0x36a7	0.4158
220	0xb338	-0.2256
221	0x362d	0.386
222	0x36be	0.4214
223	0x31b5	0.1783
224	0xac70	-0.06934
225	0xaca4	-0.0725
226	0x347c	0.2803
227	0x2f1d	0.11115
228	0xa917	-0.03976
229	0xb0fc	-0.1558
230	0xae91	-0.1026
231	0xa937	-0.04074
232	0x28db	0.03793
233	0xaa8b	-0.05112
234	0x30df	0.1522
235	0xae70	-0.1006
236	0xac1d	-0.0643
237	0x2db4	0.0891
238	0x2a6b	0.05014
239	0xae5d	-0.0994
240	0xaee2	-0.10754
241	0xaf2f	-0.11224
242	0x2949	0.0413
243	0x289f	0.0361
244	0xb25d	-0.1989
245	0xb0f5	-0.1549
246	0x2d65	0.0843
247	0xaef5	-0.1087
248	0xb052	-0.135
249	0x2f87	0.1176
250	0x3285	0.2037
251	0xad2f	-0.081
252	0x312d	0.1617
253	0xa9d2	-0.04547
254	0x3028	0.1299
255	0x26c9	0.0265

arith.constant19 f2 [4, 1, 1, 64]
0	0xbaae	-0.835
1	0xb902	-0.626
2	0x2151	0.01038
3	0x2923	0.04013
4	0x25dd	0.0229
5	0x2d65	0.0843
6	0x3020	0.1289
7	0x300d	0.1266
8	0x2946	0.0412
9	0x2e75	0.1009
10	0x2d86	0.0863
11	0x287a	0.03497
12	0x2358	0.01434
13	0xa8d7	-0.0378
14	0x2e71	0.10065
15	0x2c7b	0.07
16	0x3445	0.2668
17	0x3402	0.2505
18	0xb018	-0.1279
19	0xb1a6	-0.1765
20	0x2f95	0.11847
21	0xa28b	-0.01278
22	0x3261	0.1993
23	0xad1e	-0.07996
24	0xa30a	-0.01375
25	0x20ec	0.00961
26	0xb056	-0.1355
27	0xb786	-0.4702
28	0xa88a	-0.03546
29	0x2e15	0.09503
30	0xae7c	-0.1013
31	0xb7c1	-0.4846
32	0xad0d	-0.0789
33	0x2f9e	0.119
34	0x2ed2	0.10657
35	0x2b9c	0.05945
36	0xac82	-0.07043
37	0x2c47	0.06683
38	0x33f6	0.2488
39	0x3246	0.196
40	0xad4d	-0.0828
41	0xaec5	-0.1058
42	0xaf7e	-0.11707
43	0xafd1	-0.12213
44	0x2e28	0.0962
45	0xb7df	-0.492
46	0x34a1	0.2893
47	0x34fa	0.311
48	0xb044	-0.1333
49	0x2b91	0.0591
50	0x24fd	0.01949
51	0x2a03	0.04697
52	0x348a	0.2837
53	0x335a	0.2297
54	0xa203	-0.01174
55	0xa861	-0.0342
56	0xb2a5	-0.2076
57	0x3034	0.1313
58	0x29c8	0.04517
59	0x2eee	0.1083
60	0x2a49	0.0491
61	0x2db9	0.0894
62	0x28e1	0.03812
63	0xb24b	-0.1967
64	0xb063	-0.1371
65	0xb278	-0.2021
66	0xb3d8	-0.2451
67	0xa792	-0.02957
68	0xb2d1	-0.213
69	0x3357	0.2294
70	0x3050	0.1348
71	0x26e8	0.02698
72	0xa111	-0.009895
73	0x2f35	0.1126
74	0x337c	0.2339
75	0xb1cb	-0.181
76	0xac1a	-0.0641
77	0x2e5e	0.0995
78	0x25dc	0.02289
79	0xb0db	-0.1517
80	0x345b	0.2722
81	0x3656	0.396
82	0x26e3	0.0269
83	0x1c68	0.004303
84	0xa849	-0.03348
85	0x27fc	0.03119
86	0x2a86	0.05096
87	0x2ffc	0.12476
88	0xaa5b	-0.04965
89	0x2c9b	0.07196
90	0x31d3	0.182
91	0x2564	0.02106
92	0xabb8	-0.0603
93	0x193e	0.00256
94	0x309e	0.1443
95	0xaced	-0.07697
96	0x2c25	0.06476
97	0xac6f	-0.0693
98	0xabbf	-0.06052
99	0x3058	0.1357
100	0xac62	-0.0685
101	0x2a60	0.0498
102	0x2cbc	0.074
103	0x2f80	0.1172
104	0x3071	0.1388
105	0xa5ca	-0.02261
106	0xaae4	-0.05383
107	0xa6e0	-0.02686
108	0x2d40	0.08203
109	0xb043	-0.1332
110	0x31f4	0.186
111	0xa9c0	-0.04492
112	0x2be5	0.06168
113	0xb064	-0.1372
114	0x3214	0.19
115	0x28fb	0.0389
116	0x2db4	0.0891
117	0x30f4	0.1548
118	0x2af6	0.05438
119	0x3549	0.3303
120	0xab11	-0.0552
121	0x1874	0.002174
122	0xa28e	-0.0128
123	0x2461	0.0171
124	0xa047	-0.008354
125	0xae9b	-0.1032
126	0xb1d2	-0.1819
127	0x28f8	0.03882
128	0x3962	0.673
129	0x1d54	0.005203
130	0x3265	0.1998
131	0x2be7	0.06174
132	0x29ee	0.04633
133	0x38e8	0.6133
134	0x2ef7	0.1088
135	0x2f78	0.1167
136	0xb01a	-0.1282
137	0x3060	0.1367
138	0x1d65	0.00527
139	0x3123	0.1605
140	0x340c	0.253
141	0x2cdd	0.076
142	0x2df6	0.09314
143	0x3294	0.2056
144	0xa9fd	-0.04678
145	0xa082	-0.008804
146	0x2e99	0.1031
147	0x328c	0.2046
148	0x2796	0.02963
149	0xb130	-0.1621
150	0x2c64	0.0686
151	0x36ba	0.4204
152	0x3278	0.2021
153	0x2ce2	0.0763
154	0x30a0	0.1445
155	0x3120	0.1602
156	0xa60d	-0.02364
157	0xaac9	-0.053
158	0x2f5b	0.1149
159	0x2a45	0.04898
160	0xb073	-0.139
161	0x2d3b	0.0817
162	0x2aaa	0.05206
163	0x28c2	0.03717
164	0x34ff	0.3123
165	0x2a97	0.05148
166	0xab8d	-0.059
167	0xb12a	-0.1614
168	0xae55	-0.09894
169	0xafeb	-0.1237
170	0x27eb	0.03093
171	0x2c3c	0.06616
172	0x2637	0.02428
173	0x3807	0.5034
174	0xa91a	-0.03986
175	0x2f1f	0.11127
176	0x3608	0.377
177	0xaf55	-0.11456
178	0x333b	0.226
179	0x2c3b	0.0661
180	0x2eff	0.1093
181	0xb1cc	-0.1812
182	0x2254	0.01236
183	0x2a43	0.04892
184	0xac25	-0.06476
185	0x9c65	-0.00429
186	0x2e53	0.0988
187	0xaa1d	-0.04776
188	0x343b	0.2644
189	0x3370	0.2324
190	0x2ec7	0.1059
191	0x31d5	0.1823
192	0x380e	0.507
193	0x3008	0.126
194	0xb569	-0.3381
195	0xb45b	-0.2722
196	0xb56a	-0.3384
197	0x31b3	0.1781
198	0xada2	-0.088
199	0xadb5	-0.0892
200	0xaf88	-0.1177
201	0x2fe3	0.1232
202	0x3194	0.1743
203	0xb40a	-0.2524
204	0xb6eb	-0.4324
205	0x32cc	0.2124
206	0x308d	0.1422
207	0xb53b	-0.327
208	0x2ee4	0.10767
209	0x33dd	0.2457
210	0x32b5	0.2096
211	0x2786	0.02939
212	0x2f0b	0.11005
213	0x9b2f	-0.003508
214	0x307a	0.1399
215	0x2ef6	0.10876
216	0x3090	0.1426
217	0x323f	0.1952
218	0x3465	0.2747
219	0x2e61	0.0997
220	0x2c15	0.0638
221	0x3025	0.1295
222	0x31fd	0.1871
223	0x21ac	0.01108
224	0x34ee	0.308
225	0xb0c5	-0.149
226	0xaebc	-0.1052
227	0x2ae2	0.05377
228	0xb405	-0.2512
229	0x30aa	0.1458
230	0x2bc2	0.0606
231	0x2df6	0.09314
232	0x2690	0.02563
233	0x306c	0.1382
234	0x2d65	0.0843
235	0xb095	-0.1432
236	0x3053	0.1351
237	0x2fa4	0.1194
238	0xacf5	-0.07745
239	0x240e	0.01584
240	0x31c9	0.1808
241	0xa672	-0.02518
242	0xaf31	-0.11237
243	0xac23	-0.06464
244	0x2e7c	0.1013
245	0x346a	0.276
246	0x2943	0.0411
247	0x3015	0.1276
248	0x302e	0.1306
249	0xa929	-0.0403
250	0xb1ae	-0.1775
251	0x2d5a	0.0836
252	0x28f1	0.0386
253	0x1949	0.00258
254	0xb1d2	-0.1819
255	0x30e8	0.1533

arith.constant20 f2 [64, 1, 1, 4]
0	0xae74	-0.1008
1	0xb49c	-0.288
2	0xb088	-0.1416
3	0x31e8	0.1846
4	0xb46c	-0.2764
5	0xa5b5	-0.0223
6	0x32c2	0.2112
7	0xa165	-0.01054
8	0xac31	-0.0655
9	0x3854	0.541
10	0x31dc	0.1831
11	0xb5ad	-0.3547
12	0xb75d	-0.4602
13	0xb4eb	-0.3074
14	0x3794	0.4736
15	0xb4b4	-0.294
16	0xb34d	-0.2281
17	0x34d8	0.3027
18	0x2abf	0.0527
19	0x3455	0.2708
20	0x36bc	0.421
21	0xb366	-0.2312
22	0xb981	-0.688
23	0xab85	-0.05875
24	0x2810	0.03174
25	0x371b	0.444
26	0xada1	-0.08795
27	0x39f6	0.745
28	0x359a	0.35
29	0x3836	0.5264
30	0xb4e6	-0.3062
31	0x36c6	0.4233
32	0x2f7c	0.11694
33	0x2efe	0.10925
34	0xb10d	-0.1578
35	0x3862	0.548
36	0xb81f	-0.515
37	0x342b	0.2605
38	0x355a	0.3345
39	0xaf7c	-0.11694
40	0x2adc	0.0536
41	0xa1ff	-0.01171
42	0xb778	-0.4668
43	0x38b0	0.586
44	0xb4cd	-0.3
45	0xa8a3	-0.03622
46	0x348f	0.285
47	0x31a4	0.1763
48	0xb695	-0.4114
49	0x3261	0.1993
50	0xb3ac	-0.2397
51	0xb1ea	-0.1848
52	0xb59c	-0.3506
53	0x382a	0.5205
54	0xb13e	-0.1638
55	0x33c5	0.2428
56	0xa499	-0.01796
57	0x3677	0.404
58	0xb730	-0.4492
59	0x2747	0.02843
60	0xb282	-0.2034
61	0xb223	-0.1918
62	0xb1c1	-0.1798
63	0x3536	0.3257
64	0x3345	0.2272
65	0x306a	0.138
66	0xb76a	-0.4634
67	0x38f1	0.6177
68	0xb09b	-0.1439
69	0xb22c	-0.1929
70	0xb1a6	-0.1765
71	0x36b5	0.4192
72	0x3449	0.2678
73	0xb4a6	-0.2905
74	0xb6d7	-0.4275
75	0xa30b	-0.013756
76	0x3591	0.348
77	0x3718	0.4434
78	0xb7fe	-0.4995
79	0xb08d	-0.1422
80	0x24e5	0.01912
81	0x3645	0.3918
82	0xa5f9	-0.02333
83	0x3a5e	0.796
84	0xb9ba	-0.716
85	0xb7c1	-0.4846
86	0x36d6	0.4272
87	0x30df	0.1522
88	0x31f5	0.1862
89	0x3905	0.6274
90	0xb3c8	-0.2432
91	0x35fe	0.3745
92	0x3675	0.4036
93	0xb60c	-0.378
94	0xb536	-0.3257
95	0xb866	-0.55
96	0x3548	0.33
97	0x349c	0.288
98	0x2e60	0.0996
99	0xb03d	-0.1324
100	0xbb89	-0.942
101	0xb4a4	-0.29
102	0x361d	0.382
103	0x32dc	0.2144
104	0xad52	-0.0831
105	0xb8ec	-0.615
106	0x1e74	0.0063
107	0xb709	-0.4397
108	0x366d	0.4016
109	0x3569	0.3381
110	0xb1d9	-0.1827
111	0x2b50	0.05713
112	0xb37a	-0.2336
113	0x2d77	0.0854
114	0xb15f	-0.1678
115	0xafba	-0.1207
116	0x33a1	0.2384
117	0x32e2	0.2151
118	0x31dc	0.1831
119	0xadcd	-0.09064
120	0xac2b	-0.0651
121	0xb0f4	-0.1548
122	0xb509	-0.3147
123	0x2e18	0.0952
124	0xa8dc	-0.03796
125	0x1a25	0.003
126	0xae5d	-0.0994
127	0xb6a1	-0.4143
128	0x2b23	0.05576
129	0x2759	0.0287
130	0xb6b8	-0.42
131	0x3134	0.1626
132	0x25ac	0.02216
133	0x341b	0.2566
134	0xb440	-0.2656
135	0x2ea1	0.1036
136	0xb2f9	-0.2179
137	0x3231	0.1935
138	0xb16e	-0.1697
139	0x36f5	0.4348
140	0xac2b	-0.0651
141	0x380f	0.5073
142	0xa850	-0.0337
143	0x3981	0.688
144	0xb608	-0.377
145	0x2e4a	0.09827
146	0xb20d	-0.1891
147	0x3638	0.3887
148	0xb9f9	-0.7466
149	0xb50c	-0.3154
150	0x2d3e	0.0819
151	0xb6b2	-0.4185
152	0xb69e	-0.4136
153	0xb31b	-0.222
154	0x3353	0.2289
155	0x2d98	0.0874
156	0x30b2	0.1467
157	0x377a	0.4673
158	0xb66b	-0.4011
159	0x36d0	0.4258
160	0x3814	0.51
161	0x3828	0.5195
162	0xb61a	-0.3813
163	0x3821	0.516
164	0x3328	0.2236
165	0xb265	-0.1998
166	0xb56a	-0.3384
167	0x2d4a	0.08264
168	0x33eb	0.2474
169	0x35ae	0.355
170	0x327d	0.2028
171	0xb0f8	-0.1553
172	0xb23f	-0.1952
173	0x3802	0.501
174	0xb05d	-0.1364
175	0x3774	0.4658
176	0xb8b2	-0.587
177	0x32cf	0.2128
178	0xb536	-0.3257
179	0x2cc0	0.0742
180	0x2f8f	0.1181
181	0x30bd	0.1481
182	0xa896	-0.03583
183	0x2d88	0.0864
184	0xa905	-0.0392
185	0x3067	0.1376
186	0x27a9	0.02992
187	0x3a27	0.769
188	0xb2bd	-0.2106
189	0xb90c	-0.631
190	0x3148	0.165
191	0xadb5	-0.0892
192	0x33d2	0.2444
193	0x3856	0.542
194	0xb314	-0.2212
195	0xa37d	-0.014626
196	0xb0fd	-0.1559
197	0x355c	0.335
198	0x308b	0.142
199	0x381e	0.5146
200	0xa44c	-0.01678
201	0xb586	-0.3452
202	0xb761	-0.4612
203	0x3401	0.2502
204	0x30ce	0.1501
205	0x26d3	0.02666
206	0x9c93	-0.004467
207	0x3613	0.3796
208	0xb66a	-0.401
209	0xb4f6	-0.31
210	0xb834	-0.5254
211	0xb3c6	-0.2429
212	0x395c	0.67
213	0xaebb	-0.10516
214	0xb822	-0.5166
215	0x3229	0.1925
216	0xb70a	-0.44
217	0x30d3	0.1508
218	0x3233	0.1937
219	0x252a	0.02017
220	0x3c10	1.016
221	0xa443	-0.01665
222	0xba42	-0.782
223	0x26eb	0.02702
224	0x3a79	0.809
225	0x38dc	0.6074
226	0xb61f	-0.3826
227	0xb884	-0.5645
228	0xb4cb	-0.2996
229	0x2fa9	0.1197
230	0x3445	0.2668
231	0x38fc	0.623
232	0x30eb	0.1537
233	0x35c5	0.3606
234	0xb79b	-0.4753
235	0x312b	0.1615
236	0x35bb	0.3582
237	0x2e1d	0.0955
238	0xae64	-0.09985
239	0x3961	0.6724
240	0xb065	-0.1373
241	0xaeb7	-0.1049
242	0xb8ab	-0.5835
243	0x3325	0.2233
244	0x39e1	0.735
245	0x381d	0.514
246	0xb9f2	-0.743
247	0x3687	0.408
248	0x3329	0.2238
249	0xb144	-0.1646
250	0xa074	-0.0087
251	0x3708	0.4395
252	0xb4e9	-0.307
253	0x2d23	0.08026
254	0xb221	-0.1915
255	0xb529	-0.3225

arith.constant21 f2 [16, 1, 1, 64]
0	0xace1	-0.07623
1	0x34f4	0.3096
2	0x37dd	0.4915
3	0xabfe	-0.06244
4	0xaeb1	-0.10455
5	0xa314	-0.013824
6	0xafa7	-0.11957
7	0xb283	-0.2035
8	0x26d2	0.02664
9	0x382f	0.523
10	0xb35f	-0.2303
11	0xb066	-0.1375
12	0x3510	0.3164
13	0xb196	-0.1746
14	0x320d	0.1891
15	0x31fc	0.187
16	0xb174	-0.1704
17	0xaec5	-0.1058
18	0xb43c	-0.2646
19	0xae88	-0.10205
20	0xac03	-0.0627
21	0x2ab8	0.0525
22	0x9e68	-0.006256
23	0x2d48	0.0825
24	0x3600	0.375
25	0xa675	-0.02522
26	0xa60a	-0.02359
27	0xaba4	-0.0597
28	0x2029	0.008125
29	0x25d6	0.0228
30	0x327e	0.2029
31	0x187b	0.002188
32	0xaa58	-0.04956
33	0x2e7f	0.1015
34	0x2aeb	0.05405
35	0x2a7d	0.0507
36	0x203a	0.008255
37	0x2ef4	0.10864
38	0xaa53	-0.0494
39	0x28dc	0.03796
40	0xb293	-0.2054
41	0xa6f3	-0.02715
42	0x1c93	0.004467
43	0x3168	0.169
44	0x3970	0.6797
45	0xa09b	-0.008995
46	0xaf5a	-0.11487
47	0xaf48	-0.1138
48	0xb058	-0.1357
49	0xad1f	-0.08
50	0xae12	-0.09485
51	0x2807	0.03146
52	0xb00a	-0.1262
53	0xa88f	-0.0356
54	0xada9	-0.08844
55	0xb3c6	-0.2429
56	0x31e7	0.1844
57	0x3194	0.1743
58	0xac5a	-0.068
59	0x2a9a	0.05157
60	0x3375	0.233
61	0xa35f	-0.0144
62	0x349d	0.2883
63	0x2757	0.02867
64	0xb5c7	-0.361
65	0xb07d	-0.1403
66	0xaf30	-0.1123
67	0xb45e	-0.273
68	0xb600	-0.375
69	0xb19e	-0.1755
70	0x34a4	0.29
71	0x9b62	-0.003605
72	0xb840	-0.5312
73	0xb32f	-0.2245
74	0xb380	-0.2344
75	0xb011	-0.1271
76	0x340f	0.2537
77	0x2d01	0.0782
78	0xb6de	-0.4292
79	0x2e12	0.09485
80	0x2ab5	0.0524
81	0xad50	-0.083
82	0x2a84	0.0509
83	0x3044	0.1333
84	0xb28b	-0.2045
85	0xb924	-0.6426
86	0x3ac1	0.844
87	0xaf88	-0.1177
88	0xb809	-0.5044
89	0xb3b0	-0.2402
90	0xa8da	-0.0379
91	0xb28c	-0.2046
92	0x31a7	0.1766
93	0x364a	0.393
94	0x3a51	0.7896
95	0x37ef	0.4958
96	0x213c	0.01022
97	0xb1a0	-0.1758
98	0x318b	0.1732
99	0x2e32	0.0968
100	0x2b0b	0.05502
101	0x3418	0.2559
102	0x2396	0.01482
103	0xb4be	-0.2964
104	0x2ecb	0.10614
105	0xb25f	-0.1991
106	0xb496	-0.2866
107	0xb472	-0.2778
108	0x2657	0.02477
109	0xb47e	-0.2808
110	0x305c	0.1362
111	0x36cd	0.425
112	0xaca8	-0.07275
113	0x36fd	0.4368
114	0x37be	0.484
115	0x313f	0.164
116	0x3a35	0.776
117	0xae37	-0.0971
118	0x3892	0.5713
119	0xad85	-0.08624
120	0xb7d1	-0.4885
121	0xb8f4	-0.619
122	0x3664	0.3994
123	0x35fe	0.3745
124	0x35d0	0.3633
125	0xaa41	-0.04886
126	0x290c	0.03943
127	0x3846	0.534
128	0xb056	-0.1355
129	0xa0e1	-0.00953
130	0x3284	0.2036
131	0x330c	0.2202
132	0x349b	0.2878
133	0x315a	0.1672
134	0xae97	-0.10297
135	0xb185	-0.1725
136	0xb33b	-0.226
137	0x358a	0.3462
138	0x33e3	0.2465
139	0x2d20	0.0801
140	0x34ef	0.3083
141	0x2873	0.03476
142	0xb037	-0.1317
143	0x372c	0.4482
144	0x3735	0.4504
145	0x27f7	0.03111
146	0x3179	0.171
147	0xaf45	-0.1136
148	0xa53d	-0.02046
149	0x34d1	0.301
150	0x2ebb	0.10516
151	0xb1fd	-0.1871
152	0x3465	0.2747
153	0x1054	0.0005283
154	0xac91	-0.07135
155	0x32c1	0.211
156	0x3716	0.4429
157	0x2da0	0.0879
158	0xb3ac	-0.2397
159	0xb0eb	-0.1537
160	0x20ea	0.0096
161	0xb267	-0.2001
162	0xa45c	-0.01703
163	0xb319	-0.2218
164	0x2c20	0.06445
165	0x3105	0.1569
166	0xb105	-0.1569
167	0x2fc1	0.12115
168	0xb19b	-0.1752
169	0x2ea3	0.1037
170	0xb788	-0.4707
171	0xb412	-0.2544
172	0x34da	0.3032
173	0xa82e	-0.03265
174	0x2e8a	0.1022
175	0xa9c6	-0.0451
176	0x25e3	0.023
177	0x3434	0.2627
178	0x344c	0.2686
179	0x33cc	0.2437
180	0x33bb	0.2416
181	0xb518	-0.3184
182	0xa537	-0.02037
183	0xb3ac	-0.2397
184	0xb8c0	-0.5938
185	0x2fef	0.12396
186	0x2d99	0.08746
187	0x34cf	0.3005
188	0x3151	0.1661
189	0xb846	-0.534
190	0x351f	0.32
191	0xafc9	-0.12164
192	0x29af	0.0444
193	0x3553	0.3328
194	0x34f9	0.3108
195	0x32fc	0.2183
196	0xb2be	-0.2107
197	0x31f2	0.1858
198	0x9eee	-0.006767
199	0xb4b0	-0.293
200	0xb41f	-0.2576
201	0x349d	0.2883
202	0x383c	0.5293
203	0xb462	-0.274
204	0xacca	-0.0748
205	0x1d06	0.004906
206	0xb454	-0.2705
207	0x349b	0.2878
208	0x3621	0.383
209	0x347e	0.2808
210	0xb20e	-0.1892
211	0x379f	0.4763
212	0xad6b	-0.08466
213	0x2e16	0.0951
214	0x2b64	0.05774
215	0xb560	-0.336
216	0xb4a7	-0.2908
217	0xb112	-0.1584
218	0x28e9	0.03836
219	0xb232	-0.1936
220	0xab98	-0.05933
221	0xb735	-0.4504
222	0x1f4b	0.007122
223	0xa87b	-0.035
224	0x3941	0.6567
225	0x339d	0.2379
226	0xae7a	-0.1012
227	0x323a	0.1946
228	0xb224	-0.1919
229	0xb407	-0.2517
230	0x3692	0.4106
231	0xb887	-0.566
232	0xb1ef	-0.1854
233	0xb652	-0.395
234	0x38f7	0.6206
235	0xa5ac	-0.02216
236	0x3a26	0.7686
237	0x2fcf	0.122
238	0xb415	-0.2551
239	0x302b	0.1302
240	0x3883	0.564
241	0x3474	0.2783
242	0xb616	-0.3804
243	0xa478	-0.01746
244	0x2c93	0.0715
245	0x3561	0.3362
246	0xb1dc	-0.1831
247	0x31e5	0.1842
248	0x2fa0	0.11914
249	0xb728	-0.4473
250	0xad80	-0.08594
251	0xb868	-0.551
252	0xacdd	-0.076
253	0xb429	-0.26
254	0x3489	0.2834
255	0xaf3e	-0.11316

arith.constant22 f2 [32, 2, 2, 16]
0	0xb071	-0.1388
1	0x288b	0.0355
2	0x2e0d	0.09454
3	0x205c	0.008514
4	0xab6d	-0.058
5	0x2bb4	0.06018
6	0x2e5b	0.0993
7	0xa21a	-0.01192
8	0xaf44	-0.1135
9	0x2598	0.02185
10	0xb1f3	-0.1859
11	0xad3f	-0.082
12	0x303a	0.1321
13	0x3152	0.1663
14	0x266c	0.02509
15	0x2d96	0.0873
16	0xb2e0	-0.2148
17	0x30e9	0.1534
18	0xad38	-0.08154
19	0x9c4b	-0.004192
20	0xa148	-0.010315
21	0xa985	-0.04312
22	0xaafe	-0.05463
23	0x2df5	0.0931
24	0xb214	-0.19
25	0x3174	0.1704
26	0xb21a	-0.1907
27	0xaf5e	-0.1151
28	0x30c9	0.1495
29	0x3198	0.1748
30	0x2c69	0.0689
31	0x2eba	0.1051
32	0xa966	-0.04218
33	0x2228	0.012024
34	0x2efc	0.10913
35	0x2855	0.03384
36	0xaa54	-0.04944
37	0x3086	0.1414
38	0x15d6	0.001425
39	0x2c04	0.06274
40	0xad81	-0.086
41	0xae54	-0.0989
42	0xa2b5	-0.0131
43	0x2ef6	0.10876
44	0x2c78	0.0698
45	0x3022	0.1292
46	0x1591	0.001359
47	0x2adf	0.05368
48	0xae63	-0.0998
49	0x2c33	0.0656
50	0x29d9	0.0457
51	0x2827	0.03244
52	0xad91	-0.087
53	0x30d5	0.151
54	0x9de5	-0.005756
55	0xb131	-0.1622
56	0xb1e0	-0.1836
57	0xa656	-0.02475
58	0xb02b	-0.1302
59	0x2c82	0.07043
60	0x9e36	-0.006065
61	0xa4b0	-0.01831
62	0x8a13	-0.0001854
63	0x29c0	0.04492
64	0x2eaa	0.1041
65	0xb0bf	-0.1483
66	0xb144	-0.1646
67	0x186c	0.00216
68	0x3180	0.1719
69	0xaf6a	-0.11584
70	0x2d02	0.07825
71	0x2805	0.0314
72	0x3108	0.1572
73	0xa8a6	-0.03632
74	0x28a2	0.0362
75	0x299c	0.04382
76	0xad98	-0.0874
77	0x2b4b	0.05698
78	0x9fb8	-0.007538
79	0xb068	-0.1377
80	0x31b1	0.1779
81	0xb14f	-0.1659
82	0xb084	-0.1411
83	0xab4a	-0.05695
84	0x3164	0.1685
85	0x2205	0.01176
86	0x3250	0.1973
87	0x30d2	0.1506
88	0x2c25	0.06476
89	0xa840	-0.0332
90	0x2f8f	0.1181
91	0x3081	0.1407
92	0xb253	-0.1976
93	0xaaa6	-0.05194
94	0x25dd	0.0229
95	0xaf6e	-0.1161
96	0x302e	0.1306
97	0xb21b	-0.1908
98	0xac65	-0.06866
99	0xae37	-0.0971
100	0x2ca8	0.07275
101	0xa529	-0.02016
102	0x3349	0.2277
103	0xad90	-0.0869
104	0x25ce	0.02267
105	0xaf2b	-0.112
106	0x314f	0.1659
107	0x2add	0.05362
108	0xab73	-0.0582
109	0xa341	-0.01417
110	0x3032	0.1311
111	0xa11c	-0.00998
112	0x2ebb	0.10516
113	0xb0f4	-0.1548
114	0xb18d	-0.1735
115	0xb1b4	-0.1782
116	0x3193	0.1742
117	0x2cb7	0.07367
118	0x317e	0.1716
119	0x2cc5	0.0745
120	0x31d0	0.1816
121	0xa168	-0.01056
122	0x2f98	0.11865
123	0x2f30	0.1123
124	0xb144	-0.1646
125	0x26df	0.02684
126	0x2c8b	0.071
127	0x1fb1	0.00751
128	0x304c	0.1343
129	0xa5a9	-0.02211
130	0xaba7	-0.05978
131	0x1eb8	0.00656
132	0xaa81	-0.0508
133	0xaebc	-0.1052
134	0xae69	-0.10016
135	0xab97	-0.0593
136	0xae05	-0.09406
137	0xa724	-0.0279
138	0xaef4	-0.10864
139	0x307d	0.1403
140	0xaad4	-0.05334
141	0xb0a6	-0.1453
142	0x9bf4	-0.003883
143	0x306a	0.138
144	0x3258	0.1982
145	0x2ba7	0.05978
146	0x29f2	0.04645
147	0x2a3d	0.04874
148	0x2981	0.043
149	0x9f47	-0.007107
150	0xaa7a	-0.0506
151	0xb201	-0.1876
152	0xaf30	-0.1123
153	0xac1f	-0.0644
154	0xb013	-0.1273
155	0x2c32	0.06555
156	0x2f60	0.11523
157	0xa71e	-0.0278
158	0x1797	0.001853
159	0x31ee	0.1853
160	0x315d	0.1676
161	0x307b	0.14
162	0xabc0	-0.06055
163	0xaa23	-0.04794
164	0xa7b2	-0.03006
165	0xaf46	-0.11365
166	0xa635	-0.02425
167	0xa202	-0.011734
168	0xae56	-0.099
169	0x2c46	0.0668
170	0x2e2f	0.0966
171	0x29d1	0.04544
172	0x2f09	0.1099
173	0xabf5	-0.06216
174	0xaac4	-0.05286
175	0x2ba4	0.0597
176	0x2fb8	0.1206
177	0xa8f4	-0.0387
178	0x2c04	0.06274
179	0x2c53	0.06757
180	0x2f62	0.11536
181	0xa3fa	-0.01558
182	0x2ce3	0.07635
183	0xac30	-0.0654
184	0xafb9	-0.12067
185	0xa892	-0.0357
186	0xb0cb	-0.1498
187	0x32e3	0.2152
188	0x2c71	0.0694
189	0xb16c	-0.1694
190	0x2ca1	0.0723
191	0x2e4c	0.0984
192	0x2966	0.04218
193	0xa0c6	-0.00932
194	0xa46b	-0.01726
195	0x281a	0.03204
196	0xa92d	-0.04044
197	0xae3c	-0.0974
198	0xad31	-0.0811
199	0xaeb8	-0.105
200	0xaff6	-0.1244
201	0xac9c	-0.072
202	0x2f85	0.1175
203	0x2cb2	0.07336
204	0x2f69	0.1158
205	0xad8d	-0.08673
206	0x2f76	0.1166
207	0x2bd4	0.06116
208	0x2d54	0.08325
209	0xb079	-0.1398
210	0xb0e4	-0.1528
211	0x195f	0.002623
212	0x28c0	0.0371
213	0x2067	0.0086
214	0xaafc	-0.05457
215	0xaf2c	-0.11206
216	0x1a20	0.00299
217	0x2c10	0.0635
218	0x2c72	0.06946
219	0x297e	0.0429
220	0x2f44	0.1135
221	0xac15	-0.0638
222	0x2d7f	0.0859
223	0x24bd	0.01851
224	0x3133	0.1625
225	0xacbe	-0.0741
226	0xa8fd	-0.03897
227	0xad9e	-0.08777
228	0x2a6f	0.05026
229	0xab8b	-0.05893
230	0x2cf4	0.0774
231	0xa040	-0.0083
232	0x269a	0.02579
233	0x2e9f	0.10345
234	0x1c94	0.00447
235	0x3008	0.126
236	0x2acb	0.05307
237	0xb351	-0.2286
238	0x2139	0.0102
239	0x30c3	0.1488
240	0x28d7	0.0378
241	0x2c55	0.0677
242	0xabe4	-0.06165
243	0x27aa	0.02994
244	0xb048	-0.1338
245	0xac87	-0.07074
246	0x2c20	0.06445
247	0x1e6e	0.00628
248	0x9f49	-0.007114
249	0x3049	0.1339
250	0x3087	0.1415
251	0x26b6	0.02621
252	0x3191	0.174
253	0xb131	-0.1622
254	0xa61f	-0.02391
255	0x2eec	0.10815

arith.constant23 f2 [128, 3, 3, 32]
0	0x27ec	0.03094
1	0x139a	0.000928
2	0x2746	0.02841
3	0x2771	0.02907
4	0xaadf	-0.05368
5	0x184e	0.002102
6	0x26ce	0.02658
7	0x1a20	0.00299
8	0xa7d5	-0.0306
9	0x295c	0.04187
10	0x2abf	0.0527
11	0x2960	0.042
12	0xa4f8	-0.01941
13	0x1a3a	0.00304
14	0xa841	-0.03323
15	0x2a14	0.0475
16	0xa753	-0.02861
17	0x2710	0.02759
18	0x2eea	0.10803
19	0xa069	-0.00861
20	0x9b90	-0.003693
21	0x2b74	0.05823
22	0x2c7d	0.0701
23	0x955e	-0.00131
24	0xad51	-0.08307
25	0xad7c	-0.0857
26	0xaa54	-0.04944
27	0x2c4f	0.0673
28	0xa679	-0.02528
29	0x28cc	0.03748
30	0x1d3e	0.00512
31	0x2766	0.0289
32	0x20b6	0.0092
33	0xa1a0	-0.01099
34	0x2873	0.03476
35	0x298d	0.04337
36	0x2623	0.02397
37	0xa44c	-0.01678
38	0x2643	0.02446
39	0xa502	-0.01956
40	0x2a5f	0.04977
41	0x26f2	0.02713
42	0x282e	0.03265
43	0x2838	0.03296
44	0x252b	0.02019
45	0xa6d7	-0.02672
46	0x211c	0.00998
47	0x2a59	0.0496
48	0x2e44	0.0979
49	0x290b	0.0394
50	0x2734	0.02814
51	0xa9cb	-0.04526
52	0x93b3	-0.00094
53	0xa8c1	-0.03714
54	0x2a0e	0.0473
55	0x27bc	0.03021
56	0xa5a5	-0.02205
57	0x2049	0.00837
58	0x9cbf	-0.004635
59	0x2cdd	0.076
60	0x9e64	-0.00624
61	0x2065	0.00858
62	0x2612	0.02371
63	0xa23e	-0.01219
64	0x233c	0.01413
65	0xa769	-0.02895
66	0xa513	-0.01982
67	0x250f	0.01976
68	0xa08b	-0.00887
69	0x25b0	0.02222
70	0x198d	0.00271
71	0x25fe	0.0234
72	0x2979	0.04276
73	0x28eb	0.03842
74	0x1858	0.002121
75	0xaa15	-0.04752
76	0xa3ed	-0.01548
77	0x2722	0.02786
78	0xa477	-0.01744
79	0xa4d8	-0.01892
80	0xab3e	-0.05658
81	0x272a	0.02798
82	0xa0f3	-0.00967
83	0x2742	0.02835
84	0x2bba	0.06036
85	0x9dc8	-0.005646
86	0x202e	0.00816
87	0xa3d6	-0.015305
88	0x1f88	0.007355
89	0x0d88	0.0003376
90	0xa404	-0.01569
91	0x21c8	0.01129
92	0x9555	-0.001302
93	0x2061	0.00855
94	0xa820	-0.03223
95	0xa849	-0.03348
96	0x1bec	0.003868
97	0xa0bc	-0.00925
98	0x1f48	0.00711
99	0x2097	0.008965
100	0xa084	-0.00882
101	0xa4e2	-0.01907
102	0x27e5	0.03084
103	0x23ea	0.01546
104	0xaa4e	-0.04926
105	0x21e5	0.01151
106	0x29d9	0.0457
107	0xa3a5	-0.01493
108	0x23e0	0.01538
109	0x26a2	0.02591
110	0xa8ad	-0.03653
111	0x29ca	0.04523
112	0x283a	0.03302
113	0x28f2	0.03864
114	0x2c9f	0.0722
115	0x1c27	0.004055
116	0x9980	-0.002686
117	0x9e87	-0.006374
118	0x21e0	0.011475
119	0xa50d	-0.01973
120	0xa820	-0.03223
121	0xabd6	-0.06122
122	0x9dd4	-0.00569
123	0x27f3	0.03105
124	0x986b	-0.002157
125	0x2604	0.0235
126	0x24a3	0.01811
127	0x2545	0.02058
128	0xa9eb	-0.04623
129	0x23f8	0.015564
130	0x1286	0.0007963
131	0xa56f	-0.02122
132	0x2ea0	0.1035
133	0x2a87	0.051
134	0xad5e	-0.08386
135	0x1c19	0.004
136	0x2d8d	0.08673
137	0xac83	-0.0705
138	0xac31	-0.0655
139	0xaa18	-0.0476
140	0x2923	0.04013
141	0x1e2a	0.00602
142	0x27c6	0.03036
143	0xa200	-0.01172
144	0x2e67	0.10004
145	0x24d5	0.01888
146	0xaa3b	-0.04868
147	0x1cd4	0.004715
148	0xa882	-0.03522
149	0xafeb	-0.1237
150	0x1dbe	0.005608
151	0x24e4	0.0191
152	0x2978	0.04272
153	0x2a5e	0.04974
154	0x9035	-0.0005136
155	0xaa9a	-0.05157
156	0x275e	0.02878
157	0x9fc4	-0.007584
158	0xa6af	-0.02611
159	0x2283	0.01272
160	0x264c	0.0246
161	0xa5d7	-0.02281
162	0xa934	-0.04065
163	0x2480	0.01758
164	0x27b4	0.03009
165	0x267f	0.02538
166	0xaa79	-0.05057
167	0x2907	0.03928
168	0x2aff	0.05466
169	0x25f0	0.0232
170	0xaa62	-0.04987
171	0xad49	-0.0826
172	0x27ff	0.03123
173	0x2873	0.03476
174	0x1a66	0.003124
175	0xa946	-0.0412
176	0xa4b7	-0.01842
177	0xa5af	-0.0222
178	0xa7f6	-0.0311
179	0x2a06	0.04706
180	0x2134	0.01016
181	0xad54	-0.08325
182	0xa97a	-0.0428
183	0xa008	-0.00787
184	0x29bc	0.0448
185	0x29bd	0.04483
186	0x2474	0.0174
187	0xa73c	-0.02826
188	0x1583	0.001346
189	0xa26f	-0.012566
190	0xad15	-0.0794
191	0xa931	-0.04056
192	0x28df	0.03806
193	0xa793	-0.02959
194	0x2191	0.01087
195	0xa8a3	-0.03622
196	0xa6c4	-0.02643
197	0x296c	0.04236
198	0x9015	-0.0004983
199	0x14a8	0.001137
200	0x260e	0.02365
201	0x26cb	0.02654
202	0x9a9a	-0.003223
203	0x21a6	0.01103
204	0xa6e7	-0.02696
205	0x20e5	0.00956
206	0x22da	0.01338
207	0x146b	0.001079
208	0x16ca	0.0016575
209	0x133c	0.000883
210	0x2862	0.03424
211	0x278c	0.02948
212	0x9902	-0.002445
213	0x1ef6	0.006798
214	0x9b40	-0.00354
215	0xa603	-0.02348
216	0xa17e	-0.01073
217	0xa711	-0.0276
218	0x9faa	-0.007484
219	0x1c33	0.0041
220	0x1f22	0.006966
221	0x1c6d	0.004322
222	0x27ed	0.03096
223	0x9b1d	-0.003473
224	0x2062	0.00856
225	0x8d6a	-0.0003304
226	0xa2df	-0.01342
227	0x2473	0.01738
228	0x239e	0.01488
229	0x296e	0.04242
230	0xa387	-0.0147
231	0xa31d	-0.01389
232	0x26ab	0.02605
233	0x258b	0.02165
234	0xa251	-0.01234
235	0x28ba	0.03693
236	0xa021	-0.008064
237	0x1bc7	0.003798
238	0x284e	0.03363
239	0xa74f	-0.02855
240	0x28c2	0.03717
241	0x24cc	0.01874
242	0xa734	-0.02814
243	0x278c	0.02948
244	0xac4c	-0.06714
245	0xaaab	-0.0521
246	0xa1c7	-0.011284
247	0x2303	0.013695
248	0x201e	0.00804
249	0x22df	0.01342
250	0x264a	0.02457
251	0x24f3	0.01933
252	0x10cb	0.000585
253	0xa589	-0.02162
254	0x24aa	0.01822
255	0x24c8	0.01868

arith.constant24 f2 [8, 1, 1, 128]
0	0x2e87	0.102
1	0x2932	0.0406
2	0x2c97	0.0717
3	0xabdd	-0.06143
4	0xad78	-0.08545
5	0xb7fb	-0.4988
6	0x2ea5	0.1038
7	0x3154	0.1665
8	0x2e83	0.10175
9	0x2e14	0.095
10	0x29b8	0.04468
11	0xaca5	-0.0726
12	0x33f8	0.249
13	0xa936	-0.0407
14	0x2d90	0.0869
15	0x2aaa	0.05206
16	0x2e54	0.0989
17	0x2c62	0.0685
18	0xade3	-0.092
19	0x1667	0.001563
20	0x2db9	0.0894
21	0xb69f	-0.4138
22	0xa4b3	-0.01836
23	0x2e2d	0.0965
24	0x3246	0.196
25	0xb7ed	-0.4954
26	0xa999	-0.04373
27	0xad3b	-0.0817
28	0xb81a	-0.5127
29	0x30db	0.1517
30	0x2f6b	0.1159
31	0x2dcc	0.0906
32	0x2df4	0.093
33	0x28ed	0.03848
34	0xb49f	-0.2888
35	0x3116	0.1589
36	0x3288	0.2041
37	0x329e	0.2068
38	0xaa30	-0.04834
39	0x25a5	0.02205
40	0x9528	-0.001259
41	0x25f0	0.0232
42	0x2954	0.04163
43	0x298f	0.04343
44	0xabad	-0.05997
45	0x31d0	0.1816
46	0x9cf1	-0.004826
47	0xaba2	-0.05963
48	0xaf84	-0.11743
49	0xaa3c	-0.0487
50	0xab68	-0.05786
51	0xb94c	-0.662
52	0xab08	-0.05493
53	0x3083	0.141
54	0x22a7	0.01299
55	0x3130	0.1621
56	0x2afe	0.05463
57	0xb966	-0.675
58	0xabde	-0.06146
59	0x1ec7	0.00662
60	0x2f19	0.1109
61	0x262e	0.02414
62	0x2010	0.007935
63	0x26d7	0.02672
64	0x2c5d	0.0682
65	0x2d9e	0.08777
66	0xa878	-0.0349
67	0x2c53	0.06757
68	0x2749	0.02846
69	0xb803	-0.5015
70	0xaa03	-0.04697
71	0x302a	0.1301
72	0x329b	0.2064
73	0xa3d9	-0.01533
74	0xa142	-0.01027
75	0x1bbe	0.00378
76	0x27f5	0.03108
77	0xb76c	-0.4639
78	0xb417	-0.2556
79	0xa943	-0.0411
80	0x2ca8	0.07275
81	0xb92f	-0.648
82	0x302d	0.1305
83	0xac1c	-0.0642
84	0x2b7a	0.0584
85	0x2b35	0.0563
86	0x2bde	0.06146
87	0x2c40	0.0664
88	0x1d0e	0.004936
89	0x1dd0	0.005676
90	0x2bb9	0.06033
91	0x2c2b	0.0651
92	0x2080	0.00879
93	0x27ba	0.03018
94	0x2a22	0.0479
95	0x2237	0.01214
96	0x2111	0.009895
97	0xb5f7	-0.3728
98	0xa02f	-0.00817
99	0xa67d	-0.02534
100	0x2a19	0.04764
101	0x2ddf	0.09174
102	0x30d0	0.1504
103	0x2cd1	0.07526
104	0x24bd	0.01851
105	0x2902	0.03912
106	0xa8f5	-0.03873
107	0xb0d5	-0.151
108	0xa1db	-0.01144
109	0xadfb	-0.09344
110	0x2a7c	0.05066
111	0xa96a	-0.0423
112	0x2a53	0.0494
113	0x299a	0.04376
114	0x3097	0.1434
115	0xae47	-0.0981
116	0x2dc2	0.08997
117	0x272f	0.02806
118	0xa3cb	-0.01522
119	0x2d31	0.0811
120	0xaf37	-0.11273
121	0x33cf	0.244
122	0x2dc5	0.09015
123	0x2e3c	0.0974
124	0x3031	0.131
125	0x30c5	0.149
126	0xb88e	-0.5693
127	0x2db9	0.0894
128	0x2662	0.02493
129	0x2e7e	0.10144
130	0x2bed	0.06192
131	0xaa49	-0.0491
132	0xb19f	-0.1757
133	0x334a	0.2278
134	0x294d	0.0414
135	0xac0f	-0.0634
136	0x1a7b	0.003164
137	0xaea1	-0.1036
138	0x2d79	0.0855
139	0x29c2	0.04498
140	0x304f	0.1346
141	0xb14c	-0.1655
142	0x2c42	0.0665
143	0x2de8	0.0923
144	0x27d4	0.03058
145	0xac9e	-0.07214
146	0xb00d	-0.1266
147	0xb219	-0.1906
148	0xb29d	-0.2067
149	0x32b7	0.2098
150	0x2a09	0.04715
151	0x311e	0.1599
152	0xb0cc	-0.1499
153	0x2f5b	0.1149
154	0x2b83	0.0587
155	0xb197	-0.1747
156	0x2f7f	0.1171
157	0x30a0	0.1445
158	0x2e4c	0.0984
159	0xa5a5	-0.02205
160	0xa88d	-0.03555
161	0x3129	0.1613
162	0x32e0	0.2148
163	0x3236	0.1941
164	0x2d43	0.0822
165	0x3217	0.1903
166	0x3037	0.1317
167	0x2acb	0.05307
168	0xad25	-0.0804
169	0xb118	-0.1592
170	0xab9b	-0.05942
171	0xb092	-0.1428
172	0x2d05	0.0784
173	0x28d6	0.03778
174	0x327f	0.203
175	0x3141	0.1642
176	0x334d	0.2281
177	0xb51d	-0.3196
178	0x9988	-0.0027
179	0x35f7	0.3728
180	0xb04a	-0.134
181	0x30d4	0.1509
182	0xb1f3	-0.1859
183	0x307f	0.1405
184	0x27b3	0.03008
185	0x3875	0.557
186	0x2bd0	0.06104
187	0xb372	-0.2327
188	0x2ed0	0.10645
189	0x3104	0.1567
190	0xb4d6	-0.3022
191	0xa549	-0.02065
192	0xb1a4	-0.1763
193	0xae45	-0.09796
194	0x1f2e	0.00701
195	0xacf9	-0.0777
196	0x2dbb	0.08954
197	0x34b5	0.2942
198	0xb0fe	-0.156
199	0x2e13	0.0949
200	0x31fa	0.1868
201	0xade6	-0.09216
202	0xb43c	-0.2646
203	0x2fce	0.12195
204	0xaeee	-0.1083
205	0x2f41	0.11334
206	0xa2b3	-0.013084
207	0x2385	0.01469
208	0x2b53	0.05722
209	0x3239	0.1945
210	0x23e8	0.01544
211	0xa62b	-0.0241
212	0x2f2a	0.11194
213	0x28f9	0.03885
214	0x24f7	0.0194
215	0x2c85	0.0706
216	0xb035	-0.1315
217	0xb167	-0.1688
218	0xb419	-0.256
219	0xb41b	-0.2566
220	0xb5ef	-0.3708
221	0xace7	-0.0766
222	0xb45e	-0.273
223	0xb124	-0.1606
224	0x2e19	0.0953
225	0x2d12	0.0792
226	0x2b12	0.05524
227	0x28d1	0.03763
228	0x2e44	0.0979
229	0x2c58	0.0679
230	0xaf5f	-0.1152
231	0x2b19	0.05545
232	0x3048	0.1338
233	0x28f9	0.03885
234	0x2ef0	0.1084
235	0xb08a	-0.1418
236	0x3033	0.1312
237	0xb0ac	-0.146
238	0x3095	0.1432
239	0x2a72	0.05035
240	0xb241	-0.1954
241	0x2816	0.03192
242	0xb4ea	-0.3071
243	0x29f8	0.04663
244	0x3057	0.1356
245	0xab91	-0.0591
246	0xa13c	-0.01022
247	0xafc5	-0.1214
248	0xb0ed	-0.1539
249	0x2863	0.03427
250	0x2099	0.00898
251	0x1e97	0.006435
252	0xa863	-0.03427
253	0x29ac	0.0443
254	0x335b	0.2299
255	0xac1e	-0.06433

arith.constant25 f2 [128, 1, 1, 8]
0	0x2cee	0.077
1	0xb465	-0.2747
2	0x229c	0.01291
3	0x319c	0.1753
4	0x327e	0.2029
5	0xaa48	-0.04907
6	0x372f	0.449
7	0x3465	0.2747
8	0x2cb9	0.0738
9	0xb674	-0.4033
10	0x2ae6	0.0539
11	0x9f36	-0.007042
12	0x34b1	0.2932
13	0xb396	-0.237
14	0x3458	0.2715
15	0xb66c	-0.4014
16	0x32bd	0.2106
17	0x2c67	0.0688
18	0xb61e	-0.3823
19	0xaf3c	-0.11304
20	0xb4fd	-0.3118
21	0x338d	0.236
22	0xa263	-0.012474
23	0x33bb	0.2416
24	0x2f13	0.11053
25	0xb43b	-0.2644
26	0xa901	-0.0391
27	0x2d50	0.083
28	0xb295	-0.2057
29	0xaa98	-0.0515
30	0xb02f	-0.1307
31	0x2d7c	0.0857
32	0xb75d	-0.4602
33	0x353e	0.3276
34	0xb12a	-0.1614
35	0x2a1a	0.04767
36	0xb778	-0.4668
37	0xac8b	-0.071
38	0xb707	-0.4392
39	0xad72	-0.0851
40	0x32bd	0.2106
41	0xb0f0	-0.1543
42	0x3438	0.2637
43	0xb29d	-0.2067
44	0xaa69	-0.05008
45	0xb151	-0.1661
46	0x3853	0.5405
47	0x36c9	0.424
48	0xb5c7	-0.361
49	0xb2a7	-0.2079
50	0x3840	0.5312
51	0x3847	0.5347
52	0xb1a0	-0.1758
53	0xaefc	-0.10913
54	0xb0a1	-0.1447
55	0xb055	-0.1354
56	0xb050	-0.1348
57	0xa622	-0.02396
58	0x328c	0.2046
59	0x337b	0.2338
60	0x2c09	0.06305
61	0x25fa	0.02335
62	0x30aa	0.1458
63	0xb113	-0.1586
64	0xa993	-0.04355
65	0x2fb2	0.12024
66	0xa913	-0.03964
67	0xb1ca	-0.1809
68	0xb05d	-0.1364
69	0x19c4	0.002815
70	0xb41f	-0.2576
71	0xb071	-0.1388
72	0x35b0	0.3555
73	0x226a	0.01253
74	0x32fb	0.2181
75	0xb409	-0.2522
76	0xb0c9	-0.1495
77	0xb424	-0.2588
78	0xa4e4	-0.0191
79	0xb7a0	-0.4766
80	0xb3be	-0.242
81	0xb65d	-0.3977
82	0x3758	0.459
83	0x3184	0.1724
84	0x3489	0.2834
85	0x3417	0.2556
86	0xa82b	-0.03256
87	0xb59f	-0.3513
88	0x298c	0.04333
89	0xb35a	-0.2297
90	0xb816	-0.5107
91	0xada7	-0.0883
92	0xb5ac	-0.3545
93	0x2b24	0.0558
94	0xaa83	-0.05087
95	0x2886	0.03534
96	0x2dd2	0.09094
97	0x35e3	0.368
98	0xa590	-0.02173
99	0xb789	-0.471
100	0xb51e	-0.3198
101	0x3116	0.1589
102	0xb620	-0.3828
103	0xacb8	-0.0737
104	0x2ecd	0.10626
105	0xb060	-0.1367
106	0x34aa	0.2915
107	0x34ec	0.3076
108	0x32b8	0.21
109	0xb9c9	-0.723
110	0x2efe	0.10925
111	0x2f98	0.11865
112	0x34a5	0.2903
113	0x3566	0.3374
114	0xa9dc	-0.04578
115	0x2e39	0.0972
116	0xaa3b	-0.04868
117	0x3344	0.227
118	0x341f	0.2576
119	0xb678	-0.4043
120	0x332c	0.2241
121	0x31b2	0.178
122	0x2542	0.02054
123	0xb7e1	-0.4924
124	0xb161	-0.1681
125	0xb59e	-0.351
126	0xb89b	-0.5757
127	0x2c11	0.06354
128	0x3554	0.333
129	0xaabb	-0.05258
130	0x3838	0.5273
131	0xb0a4	-0.145
132	0x37a1	0.4768
133	0xb478	-0.2793
134	0x3681	0.4065
135	0xaf0f	-0.1103
136	0xb54c	-0.331
137	0x33e2	0.2463
138	0xb4b6	-0.2944
139	0xb842	-0.532
140	0xb467	-0.2751
141	0x2fbf	0.12103
142	0x2912	0.0396
143	0xb4b5	-0.2942
144	0x35e9	0.3694
145	0xb634	-0.3877
146	0x360a	0.3774
147	0x317d	0.1715
148	0xa9b4	-0.04456
149	0xb8ec	-0.615
150	0x3132	0.1624
151	0xb160	-0.168
152	0x30bc	0.148
153	0xb12f	-0.162
154	0x349a	0.2876
155	0x3604	0.376
156	0x322b	0.1927
157	0xb4eb	-0.3074
158	0xb4fa	-0.311
159	0x34b9	0.2952
160	0xadcb	-0.0905
161	0xb755	-0.4583
162	0x2ced	0.07697
163	0x3495	0.2864
164	0xb50c	-0.3154
165	0x301e	0.1287
166	0xb32e	-0.2244
167	0xb197	-0.1747
168	0x3646	0.392
169	0x2db4	0.0891
170	0xb0ae	-0.1462
171	0xace6	-0.07654
172	0x382a	0.5205
173	0xa409	-0.01576
174	0x29da	0.04572
175	0x31d5	0.1823
176	0x384b	0.5366
177	0xb85b	-0.5444
178	0x34db	0.3035
179	0x327c	0.2026
180	0x3481	0.2815
181	0xb384	-0.2349
182	0x210b	0.00985
183	0x2e17	0.09515
184	0x30fb	0.1556
185	0x2b9b	0.05942
186	0x327c	0.2026
187	0xac6d	-0.06915
188	0x3694	0.4111
189	0x9ad8	-0.003342
190	0x37af	0.4802
191	0x340b	0.2527
192	0xaa32	-0.0484
193	0x3836	0.5264
194	0xb65c	-0.3975
195	0x259f	0.02196
196	0xb8f1	-0.6177
197	0x2ec7	0.1059
198	0xb2a8	-0.208
199	0xb6d2	-0.4263
200	0xaf62	-0.11536
201	0xadcf	-0.09076
202	0xb520	-0.3203
203	0x33e5	0.2467
204	0x356f	0.3396
205	0x987e	-0.002193
206	0xae47	-0.0981
207	0xb53e	-0.3276
208	0x32af	0.2089
209	0xb659	-0.3967
210	0x3409	0.2522
211	0x353f	0.328
212	0x38d8	0.6055
213	0xb531	-0.3245
214	0x3716	0.4429
215	0x3198	0.1748
216	0xab0d	-0.05508
217	0xb870	-0.5547
218	0xa811	-0.03177
219	0x2b7b	0.05844
220	0xb494	-0.2861
221	0x33cc	0.2437
222	0xb0c4	-0.1489
223	0x3345	0.2272
224	0xaeb2	-0.1046
225	0xb518	-0.3184
226	0x3728	0.4473
227	0x3090	0.1426
228	0x32c6	0.2117
229	0xadb9	-0.0894
230	0x3516	0.3179
231	0xb6a3	-0.4148
232	0xa7fe	-0.03122
233	0xaf29	-0.1119
234	0x9b92	-0.003696
235	0xac17	-0.0639
236	0xb2c3	-0.2113
237	0xb0ec	-0.1538
238	0x999d	-0.00274
239	0x34d4	0.3018
240	0xb7aa	-0.479
241	0xb5cc	-0.3623
242	0x343b	0.2644
243	0x367e	0.4058
244	0x344c	0.2686
245	0xaeb9	-0.10504
246	0x35d9	0.3655
247	0x2b3f	0.0566
248	0x33c7	0.243
249	0x35a8	0.3535
250	0x3447	0.2673
251	0xb2dc	-0.2144
252	0xb2fc	-0.2183
253	0x2c08	0.063
254	0xb044	-0.1333
255	0xb4b9	-0.2952

arith.constant26 f2 [32, 1, 1, 128]
0	0xb6a1	-0.4143
1	0x24b3	0.01836
2	0x35f8	0.373
3	0xb180	-0.1719
4	0xa12a	-0.010086
5	0x322f	0.1932
6	0x3525	0.3215
7	0x3471	0.2776
8	0xa50b	-0.0197
9	0x3414	0.255
10	0xb147	-0.1649
11	0x3117	0.159
12	0xb7e2	-0.4927
13	0xa7cd	-0.03047
14	0xa994	-0.04358
15	0xb124	-0.1606
16	0x30bd	0.1481
17	0x32eb	0.2162
18	0x26f6	0.02719
19	0x26b8	0.02625
20	0xae08	-0.09424
21	0x34fe	0.312
22	0x30cd	0.15
23	0x324a	0.1965
24	0x2620	0.02393
25	0x35c1	0.3596
26	0xb516	-0.3179
27	0xa819	-0.032
28	0xadb7	-0.0893
29	0x37da	0.4907
30	0x2bb4	0.06018
31	0xb4ad	-0.2922
32	0x34b9	0.2952
33	0x2786	0.02939
34	0x9f52	-0.00715
35	0x248e	0.01779
36	0x3370	0.2324
37	0xa9ce	-0.04535
38	0xaf78	-0.1167
39	0x2e9b	0.1032
40	0x301f	0.1288
41	0xb3d1	-0.2443
42	0xaf7e	-0.11707
43	0xb589	-0.346
44	0xb684	-0.4072
45	0xb467	-0.2751
46	0x352b	0.323
47	0xb23a	-0.1946
48	0x2940	0.04102
49	0xaec3	-0.10565
50	0xae61	-0.0997
51	0x38f6	0.62
52	0x32e9	0.216
53	0xb398	-0.2373
54	0x2d1f	0.08
55	0xaae8	-0.05396
56	0x30a4	0.145
57	0x359e	0.351
58	0xadc0	-0.08984
59	0x1cf7	0.00485
60	0xb0ff	-0.1561
61	0x37f9	0.4983
62	0xb40d	-0.2532
63	0xae75	-0.1009
64	0x360f	0.3787
65	0x3175	0.1705
66	0xa7cf	-0.0305
67	0x34b0	0.293
68	0xaf20	-0.1113
69	0xa248	-0.01227
70	0xa699	-0.02577
71	0x3089	0.1417
72	0xb33e	-0.2263
73	0x2ca6	0.07263
74	0x2392	0.014786
75	0x3388	0.2354
76	0xac79	-0.0699
77	0xabd5	-0.0612
78	0x2f3b	0.113
79	0x34bb	0.2957
80	0x37cc	0.4873
81	0x3523	0.321
82	0x3503	0.3132
83	0xb018	-0.1279
84	0xac8f	-0.0712
85	0xa779	-0.02919
86	0x323d	0.195
87	0x34cb	0.2996
88	0xb19a	-0.175
89	0x3359	0.2296
90	0xa8ec	-0.03845
91	0xb619	-0.381
92	0x3384	0.2349
93	0xafd5	-0.1224
94	0xb5af	-0.3552
95	0xb3f9	-0.2491
96	0x35a2	0.352
97	0xae90	-0.10254
98	0x304b	0.1342
99	0xb0a9	-0.1456
100	0x3715	0.4426
101	0xb3a8	-0.2393
102	0xb0b7	-0.1473
103	0xacf4	-0.0774
104	0x2ac1	0.05276
105	0x3198	0.1748
106	0xa651	-0.02467
107	0xb6ec	-0.4326
108	0x2f38	0.1128
109	0x3192	0.1741
110	0xb267	-0.2001
111	0xb066	-0.1375
112	0x2931	0.04056
113	0x2169	0.01057
114	0x28ca	0.0374
115	0x2644	0.02448
116	0x3566	0.3374
117	0x32d4	0.2134
118	0xa310	-0.013794
119	0xab49	-0.05692
120	0xb31b	-0.222
121	0x28a8	0.03638
122	0x281c	0.0321
123	0x2f57	0.1147
124	0x2cb1	0.0733
125	0x2ea4	0.10376
126	0xb4ef	-0.3083
127	0xb06f	-0.1385
128	0xb29f	-0.2069
129	0xb2a4	-0.2075
130	0xb308	-0.2197
131	0xb512	-0.317
132	0x2ca1	0.0723
133	0xaeed	-0.1082
134	0x3311	0.2208
135	0x30c2	0.1487
136	0x273e	0.02829
137	0x3164	0.1685
138	0xac49	-0.06696
139	0xb448	-0.2676
140	0x3573	0.3406
141	0xaee5	-0.1077
142	0x24cc	0.01874
143	0x3091	0.1427
144	0xb1f5	-0.1862
145	0x32ac	0.2085
146	0x3412	0.2544
147	0x2e15	0.09503
148	0xa9f6	-0.04657
149	0x2afb	0.05453
150	0xb0fd	-0.1559
151	0xb105	-0.1569
152	0xacbc	-0.074
153	0xabb1	-0.0601
154	0xb5bb	-0.3582
155	0xb09d	-0.1442
156	0xaa9d	-0.05167
157	0x28df	0.03806
158	0xa7ed	-0.03096
159	0xb249	-0.1964
160	0x3046	0.1335
161	0xb73b	-0.452
162	0xa29d	-0.01292
163	0x33e8	0.2471
164	0xa6e1	-0.02687
165	0xb48d	-0.2844
166	0xae94	-0.1028
167	0xb6c2	-0.4224
168	0xb347	-0.2274
169	0xaaf7	-0.0544
170	0xb0f0	-0.1543
171	0xac06	-0.06287
172	0xa378	-0.01459
173	0xaea3	-0.1037
174	0x2c91	0.07135
175	0xac78	-0.0698
176	0xb655	-0.3958
177	0x35b7	0.3572
178	0xa59c	-0.02191
179	0x38f8	0.621
180	0x3070	0.1387
181	0x298d	0.04337
182	0xabee	-0.06195
183	0x2a27	0.04807
184	0xb60b	-0.3777
185	0x359f	0.3513
186	0x2ecb	0.10614
187	0xaebf	-0.1054
188	0x29e2	0.04596
189	0xb55f	-0.3357
190	0x3368	0.2314
191	0x2f7f	0.1171
192	0xa0cb	-0.00936
193	0x2dcc	0.0906
194	0x3276	0.2019
195	0x29b0	0.04443
196	0xa3ed	-0.01548
197	0x3250	0.1973
198	0x3263	0.1996
199	0xb004	-0.1255
200	0xafd6	-0.12244
201	0xaaf4	-0.05432
202	0x33f0	0.248
203	0xb6b4	-0.419
204	0xb31c	-0.2222
205	0xaff0	-0.124
206	0xad42	-0.08215
207	0xb144	-0.1646
208	0xb587	-0.3455
209	0x36cc	0.4248
210	0x1e0a	0.005898
211	0x2f94	0.1184
212	0x2b1b	0.0555
213	0x30d0	0.1504
214	0xb1e0	-0.1836
215	0xab12	-0.05524
216	0x372c	0.4482
217	0xb23f	-0.1952
218	0xb472	-0.2778
219	0xb1fd	-0.1871
220	0xb499	-0.2874
221	0xb440	-0.2656
222	0x2eb0	0.1045
223	0xb0af	-0.1464
224	0x2929	0.0403
225	0xaf00	-0.1094
226	0x2a8e	0.0512
227	0xb533	-0.325
228	0x3477	0.279
229	0x2ce3	0.07635
230	0xb1e8	-0.1846
231	0xadda	-0.09143
232	0xa8c6	-0.0373
233	0xb42f	-0.2615
234	0x38c3	0.595
235	0x3335	0.2252
236	0xa001	-0.00782
237	0x20f6	0.00969
238	0x3164	0.1685
239	0xb5bc	-0.3584
240	0xb45e	-0.273
241	0x2d24	0.0803
242	0xb363	-0.2308
243	0x32ab	0.2084
244	0x2ffe	0.1249
245	0x3690	0.4102
246	0xa9f2	-0.04645
247	0x2b32	0.0562
248	0x354b	0.3308
249	0x33db	0.2455
250	0x2d6f	0.0849
251	0xad6d	-0.0848
252	0x2d5e	0.08386
253	0xa5d0	-0.0227
254	0x3190	0.1738
255	0x326f	0.201
