tf_lite_inference/models/residual-efficientunet-enlight_float32.tflite (tflite, 453152 bytes, 42 tensors)

arith.constant f4 [3]
000000 e5 dc 7f 3c d4 99 28 3c 7f 73 8a bd
       0.01561663 0.010290582 -0.067603104

arith.constant1 f4 [8]
000000 5c cc 70 bc d9 64 ff 3b 5f 56 b1 bd 4f 20 bb 3d
       -0.014697161 0.0077940044 -0.08659052 0.09137022
000010 c6 54 fc bb a5 8b be bd d3 94 d0 3d 96 0c 5c 3d
       -0.0077005355 -0.09303979 0.10184636 0.05372294

arith.constant2 f4 [16]
000000 fb 84 5a 3c 16 3e c6 3c d0 14 94 bd df b3 75 bd
       0.013337369 0.024199527 -0.07230532 -0.05998599
000010 05 f1 2b bd b2 f0 84 bd 27 de 11 3e f8 94 1c 3d
       -0.0419779 -0.064912215 0.142449 0.038228005
000020 ec 40 4e 3d 3e 5d 67 bd 44 8b 94 bd f9 67 33 bd
       0.050354883 -0.056485407 -0.07253125 -0.043800328
000030 fc 4e df 3d fd b2 b2 3d 60 09 a8 bd 1b 98 63 3d
       0.10903737 0.087255456 -0.08204913 0.05556498

arith.constant3 f4 [32]
000000 08 67 a5 3d 14 82 72 be 82 6e 4c be 0f 67 2a 3e
       0.08076292 -0.23682433 -0.1996403 0.16640876
000010 5d 06 bc bd c2 17 11 3e 6e c8 dd bd a5 bd 11 be
       -0.09180901 0.14169219 -0.108292446 -0.142325
000020 bd 81 d0 3e 92 1c fb bd f6 43 8d 3e 8f ac 4b 3e
       0.40723982 -0.12261309 0.27590913 0.19890045
000030 35 c7 e5 be c0 89 fc bd bc e6 9e be 56 64 8b 3e
       -0.44878545 -0.12330961 -0.3103541 0.27224988
000040 30 6f 6f be 16 06 c9 3e de 75 91 3e f1 a5 a4 3e
       -0.23382258 0.39262456 0.28410238 0.32157853
000050 8d be a6 3c 32 f5 3f 3e 25 1f 0b be b9 54 0d 3e
       0.020354534 0.18745878 -0.135861 0.1380185
000060 d4 55 1d bd 46 32 cc be e7 b3 c2 be 58 55 0c 3e
       -0.03841193 -0.39882106 -0.3802788 0.13704431
000070 f8 06 64 be 59 b9 bc 3d 05 80 68 be b1 43 ea be
       -0.22268283 0.0921504 -0.22705086 -0.4575477

arith.constant4 f4 [128]
000000 51 eb 8a be 5a 22 65 3e 5e c0 0a 3e ee 0b 3b be
       -0.27132657 0.22376385 0.13549945 -0.1826627
000010 d0 73 bc 3d b7 57 3a 3e 0e 6f 04 be 30 e1 a0 3e
       0.09201777 0.18197523 -0.12932989 0.31421804
000020 d6 24 aa be 68 be a6 bc 57 65 69 be 27 ef 4f be
       -0.3323123 -0.020354465 -0.22792564 -0.20306073
000030 f2 03 e7 3d bb 1e ef ba 8e 2a 45 3e 5f 74 8e 3e
       0.112800494 -0.0018243411 0.19254515 0.2782316
000040 47 d1 3f be 69 01 b3 3d 36 48 52 be b6 ed 8c bc
       -0.18732177 0.08740503 -0.20535359 -0.017203193
000050 f0 83 fd bd df ba 9d be 32 ec 1f 3e 7b b7 f1 3c
       -0.12378681 -0.30806634 0.15617445 0.029506436
000060 9e 3c 35 3d 18 72 00 3e 85 1c 73 3e f8 fe 73 bc
       0.044247262 0.12543523 0.23741348 -0.014892332
000070 f0 c2 9c be 4f 62 31 3e ef 43 a8 be 7e d7 c5 3d
       -0.30617476 0.17322658 -0.3286433 0.096602425
000080 f7 ef a7 be 29 e4 52 bd 56 aa 02 3e 7b 15 3c be
       -0.32800266 -0.05148712 0.1276029 -0.18367569
000090 d5 7e ad be 2f 4f 5e 3e b4 9a f7 bd 6d 05 ac bd
       -0.33885828 0.21709894 -0.12090054 -0.083994724
0000a0 d7 8d a4 3e cd e0 9d 3e 02 ce d4 bd 15 67 00 be
       0.32139465 0.30835572 -0.10390855 -0.12539323
0000b0 b9 6e 82 be 03 be 9d 3d 7b 90 af be 0b 94 0b 3e
       -0.254751 0.077022575 -0.34289917 0.13630693
0000c0 25 53 87 be da 8e 92 be 25 33 b2 be a5 f5 51 3e
       -0.26430622 -0.28624612 -0.34804645 0.20503862
0000d0 c9 1e 75 bd 10 4d 33 3e 73 ef 50 be 85 76 66 bb
       -0.059843812 0.17509866 -0.20403843 -0.0035165858
0000e0 0b 86 cd bb 5b 5b 99 be b9 a3 87 be 85 c3 c4 bd
       -0.0062720827 -0.2995251 -0.26492098 -0.09607605
0000f0 7e 17 64 3d e4 e3 7c bd 24 3f 8b 3c c0 51 74 3e
       0.055686466 -0.06174077 0.016997881 0.2385931
000100 09 70 14 be e3 ab 97 be 1e 6a 51 be 3c 88 12 3e
       -0.14495863 -0.29623327 -0.20450637 0.14309782
000110 19 d9 95 be 28 6e 9c be 47 67 06 be 4e f3 0d bc
       -0.29267195 -0.30552793 -0.13125335 -0.008663965
000120 4e 8a 2c 3e b5 fc 38 be 2e 95 c2 3e ed b5 42 3c
       0.16849634 -0.1806515 0.3800444 0.011884195
000130 fa 98 76 3e 47 76 5c 3d 48 3a 4c 3e 1c 82 49 bd
       0.24081793 0.053823736 0.19944108 -0.049196348
000140 62 99 2a 3e a5 7a 19 be 8f 0c 20 be 4b 17 b6 be
       0.16660073 -0.14988191 -0.1562979 -0.35564646
000150 cd 00 3e 3e ff 31 2d be f6 ae 8f 3e 30 57 af be
       0.18554993 -0.16913603 0.28063172 -0.34246206
000160 1c 07 14 3e b4 b4 d7 3d 4c 7b 76 3d 95 c8 34 bc
       0.14455837 0.10532513 0.06017618 -0.011034151
000170 51 8d 9b be 88 7a 2e 3e 74 59 3e 3d f8 1d bf bd
       -0.30381253 0.1703893 0.046472028 -0.09331888
000180 77 35 d5 bd f8 2a ef bd 3c ef 0f 3e 5c 5a ad be
       -0.10410588 -0.116781175 0.14056104 -0.33858
000190 66 0b 44 be 09 8d 12 3c ed ac b8 be 76 61 b6 be
       -0.19144973 0.008944758 -0.36069432 -0.35621232
0001a0 fa 90 15 3d ce 27 03 bd f9 f7 a1 be 33 2d d4 3a
       0.036515214 -0.032020383 -0.316345 0.0016187787
0001b0 da 0c 92 3d b2 b7 9a be 43 5f 86 3e 46 91 00 3e
       0.071313575 -0.30218273 0.26244554 0.12555417
0001c0 41 03 70 3d 32 0d 4b be f8 30 00 3d 01 a6 a0 be
       0.058596853 -0.19829252 0.0312967 -0.3137665
0001d0 a2 ee fd 3d 94 6c d7 bb c3 cf bc be 0b e2 da 3d
       0.12399031 -0.006574223 -0.3687726 0.106876455
0001e0 5f 90 d8 3d 86 cb 34 be f0 77 a1 3e 0b 48 53 bc
       0.105744116 -0.17655763 0.31536818 -0.012895594
0001f0 c7 e3 c8 bd 1c 2a 40 be 59 0c 7b 3e 8c 39 90 be
       -0.0980907 -0.18766063 0.24516429 -0.28168905

arith.constant5 f4 [8]
000000 88 f9 02 ba e4 0a 98 bc cf 6e 48 bc f3 aa 5a 3d
       -0.00049962895 -0.01855988 -0.01223345 0.053385686
000010 51 03 5c 3e 42 10 4e 3d 7b f7 7d bb 3d 49 b4 3d
       0.2148564 0.050308473 -0.0038752246 0.088030316

arith.constant6 f4 [128]
000000 b3 54 77 3e 43 6f c3 3f 04 8e 48 bd 68 27 53 3f
       0.24153404 1.5268329 -0.04896356 0.82482004
000010 04 62 a5 bf c0 8c f2 ba b8 7d 07 bf 4d bb e0 3e
       -1.2920537 -0.0018505082 -0.52926207 0.438929
000020 0d b9 33 3e 75 13 f4 be 89 08 56 3e 2a fe 9a be
       0.1755106 -0.47671095 0.20901693 -0.30272037
000030 29 91 df be 74 02 ae 3f 6b ea 62 3e 17 48 93 3f
       -0.43665436 1.3594499 0.22159736 1.1506375
000040 5d d6 ad bf 8b 8f 90 bf 4a 05 81 3f 4d 7b 1a bf
       -1.3581043 -1.1293806 1.0079739 -0.6034439
000050 a9 a4 89 3e da fa 33 3d 24 fd 56 bf 57 04 9d 3f
       0.26883438 0.043940403 -0.8398001 1.226695
000060 1e 4f 0b 3d 31 0c 98 3f dd e8 d8 be 21 cf c8 3e
       0.034011 1.187872 -0.4236516 0.39220527
000070 8a 2c 2a bd 4f e4 d6 3e 0c cf a8 3f 0c bc 8a 3f
       -0.041546382 0.4197106 1.3188186 1.0838637
000080 11 15 7a 3f a7 b2 a2 bf dc db db bd 89 7a 3b 3f
       0.97688395 -1.271077 -0.10735294 0.7323385
000090 d1 fd 6d 3f b6 2a b8 bd 93 60 66 3f 46 ac 40 bf
       0.9296542 -0.089925215 0.8999111 -0.7526287
0000a0 df 49 a1 3f 6a 4e 08 bf 58 80 44 3f a7 17 30 3f
       1.2600669 -0.5324465 0.7675834 0.6878609
0000b0 ad 14 b6 bd a8 f1 3c 3e b5 78 c7 3e 04 18 0a 3f
       -0.08890662 0.1845156 0.3895928 0.53942895
0000c0 1b 12 0a 3f 23 88 86 bf 39 6f 0b 3f 72 af 95 3f
       0.53933877 -1.0510296 0.5446659 1.1694167
0000d0 e8 ac 54 3f 37 d4 32 bf b2 94 d6 3e 5c ce ed be
       0.83076334 -0.69855064 0.4191032 -0.46446502
0000e0 66 94 be bf e4 3b 73 bc c8 45 8f bf 1c 5a 0e bf
       -1.4889038 -0.014845822 -1.119317 -0.55606246
0000f0 56 e9 2a 3e c8 bc 9f 3f c6 f8 03 3f b4 86 99 3f
       0.16690573 1.2479486 0.51551473 1.1994233
000100 0c b8 f6 3e d8 64 dc be d7 d1 17 bf ca 5c b4 bf
       0.48187292 -0.43045688 -0.59304565 -1.4090817
000110 3a a2 3b be 40 f2 16 3e 11 a4 4e be 3a c8 30 3f
       -0.18323603 0.14740849 -0.20179774 0.6905552
000120 8f ab 54 3f f9 55 58 3f 26 f3 f5 bd 62 80 95 3f
       0.8307428 0.84506184 -0.120092675 1.1679804
000130 a7 34 72 3f ba 46 91 be e5 b3 c5 bd 4d f4 92 be
       0.9461159 -0.28374273 -0.09653453 -0.28702012
000140 7b b8 dc be 87 a1 d1 3e 56 ae e6 bd fa d6 d7 bd
       -0.43109497 0.40943548 -0.11263721 -0.105390504
000150 1a e2 b3 3f ba 1b ca be df 72 88 3f 58 89 86 bc
       1.4053376 -0.3947428 1.0660056 -0.016422912
000160 cb 74 41 3f 1a 02 17 3f c0 6c 90 3e a8 06 b5 bf
       0.75568837 0.5898758 0.2820797 -1.4142656
000170 8b f8 cd bf a3 fc 0a bf a9 a2 e8 3e 48 ad a0 3e
       -1.6091474 -0.54291743 0.454366 0.31382203
000180 d1 a1 3d 3f af 1e 6f 3f dc bc 15 3f 53 db c6 be
       0.7407504 0.93406194 0.584913 -0.38839206
000190 00 bd e2 3f 9a 8e bc bf d0 cf 90 3f 20 b1 0c 3f
       1.7713928 -1.4731019 1.1313419 0.5495777
0001a0 2d 66 ca 3d 5c dd bc 3e 6c 05 8c bd 0b a8 20 bf
       0.0988277 0.36887634 -0.06836972 -0.62756413
0001b0 0c 38 86 3f 5e e3 d9 3f 20 38 d4 3f 3e c3 70 bd
       1.0485854 1.7022512 1.6579628 -0.058779947
0001c0 97 7d 5f bf 0c f4 d9 bf 4c 17 27 c0 11 cb 4a 3f
       -0.8730101 -1.7027602 -2.610797 0.79216105
0001d0 9a a6 34 bf 9d 57 5b 3f 35 84 da bf f9 94 9e 3e
       -0.70566714 0.8568056 -1.7071596 0.30973032
0001e0 86 dd 22 3e 68 d0 3a 3d ce 75 9e 3f 4c 55 b0 3f
       0.15904817 0.045608908 1.2379701 1.377603
0001f0 d8 a5 c3 3c 8e 63 fe be 2f 88 88 3f 47 72 ac be
       0.023882791 -0.4968533 1.066656 -0.33680937

arith.constant7 f4 [32]
000000 15 30 a7 3e 9d c1 86 be 10 89 58 be 02 a1 34 be
       0.3265387 -0.2631959 -0.21146035 -0.17639545
000010 52 7f d7 be a6 38 f7 3e e1 33 41 3d 28 2e 21 3e
       -0.42089325 0.48285407 0.047168616 0.15740263
000020 7f 54 7a 3d 18 39 2e be e2 a9 f8 3c 7b ec 04 3f
       0.061115738 -0.17013967 0.030354444 0.5192334
000030 62 b0 61 be 46 bb 73 be 9a 55 32 bf 46 cf ac 3e
       -0.22039941 -0.23801908 -0.6966187 0.33751887
000040 35 81 42 be 9c 17 fb 3e c5 f3 9e 3e bd b7 1b 3e
       -0.18994601 0.4904145 0.31045356 0.1520681
000050 87 d5 21 be 7d f6 24 3f e4 5b 0e bd 0e 88 ef 3d
       -0.1580411 0.6443861 -0.034755602 0.11695872
000060 d1 cd 9a 3e 1c 21 a4 3d 14 bb 8c bc ae ba df 3d
       0.3023515 0.080141276 -0.01717905 0.10924278
000070 76 57 4d be 48 b5 83 3c 75 f8 c1 3c ce 76 6a be
       -0.20052895 0.016077653 0.023678044 -0.22896883

arith.constant8 f4 [128]
000000 ef d7 8c 3d 7f 5d ff 3d 50 58 99 be 60 03 46 bd
       0.068771236 0.12469005 -0.2995019 -0.048343062
000010 f5 af bd bd d1 e7 89 3d 72 eb 00 3e 70 7f af be
       -0.09262077 0.067336686 0.12589815 -0.34276915
000020 45 18 03 3e cf d1 9e be 7e c8 a4 3e a1 3d 38 bd
       0.12802227 -0.31019446 0.32184213 -0.04498065
000030 5b 3c fa bd 8c 8c c3 be 96 e7 19 be 3c 1f 96 3e
       -0.12218543 -0.38193166 -0.1502975 0.29320705
000040 3d 9f 7f 3e 72 69 69 3e 8a e7 9a be a4 8d da bd
       0.24963088 0.2279413 -0.30254775 -0.10671547
000050 5f bc 30 be a3 66 11 be c2 f3 d5 be 6a f6 a5 3d
       -0.17259358 -0.14199309 -0.41787535 0.081036404
000060 cd 51 b0 be 39 01 69 bd 07 63 a0 3d 06 5c f0 bc
       -0.3443741 -0.05688593 0.07831388 -0.029340755
000070 a6 de 75 bd 04 2a 05 3e b1 c9 39 3e 0d 4a 87 3e
       -0.060026787 0.13004309 0.18143345 0.26423684
000080 a8 3e ba be 69 54 34 3e 3e 5a c1 3e b5 a7 82 be
       -0.36375928 0.17610325 0.37764162 -0.25518575
000090 32 b4 37 3d 3e fb 75 3e 03 de 29 be c3 12 b5 be
       0.044849582 0.24021623 -0.16588597 -0.35365877
0000a0 b5 5d 4f bd fe e7 43 bd cb 49 47 be 83 0b 34 3e
       -0.050626475 -0.047828667 -0.19461744 0.17582516
0000b0 84 e2 88 be f4 69 29 be bf a3 8d 3e 63 f6 ae 3e
       -0.26735318 -0.16544324 0.2766399 0.34172353
0000c0 85 19 d6 3d 37 3b 6c 3e 9f b9 ff bd ce 9c 6a be
       0.10454086 0.23069464 -0.12486576 -0.22911379
0000d0 64 be 31 3e bf 3a 5c 3e df 77 83 3e 8d 3a 4d 3c
       0.17357785 0.21506785 0.25677392 0.012526167
0000e0 f5 8e 4d bd 23 06 99 3e 13 cb 48 be 5d 2a 83 bd
       -0.050185163 0.29887494 -0.19608717 -0.064045645
0000f0 72 ed 98 3e a1 12 80 3e fe 06 54 bd 58 08 1f be
       0.29868656 0.25014213 -0.05176448 -0.15530527
000100 e3 ad 44 bd 8a 6a 50 bd 46 11 aa bd 83 a8 44 3d
       -0.048017394 -0.050882854 -0.08304076 0.048012268
000110 ec d2 b5 3e 50 dd 2b be b0 3e 7a 3d a7 4c 48 3d
       0.35512483 -0.16783643 0.06109494 0.048901226
000120 3e d6 8f 3e ad 64 a4 bd a6 54 c9 3b 5e 60 05 be
       0.2809314 -0.08027015 0.006144124 -0.13025042
000130 fe be 91 bd 40 91 02 3d 94 d1 e7 3d 7c 2d e5 bd
       -0.07116507 0.031876802 0.11319271 -0.11190316
000140 ee 93 fd bc 3b f0 b7 bd 61 0d 31 be eb d5 6f be
       -0.030954327 -0.08981367 -0.1729026 -0.23421447
000150 03 cf 4b 3e 6e 0e 07 3e 1b dd 73 3e b4 7b b7 bc
       0.19903187 0.13189098 0.23814814 -0.022397853
000160 14 d0 35 be 00 01 40 3e bc 27 f3 3d 1b 06 12 be
       -0.17755157 0.18750381 0.11872813 -0.14260142
000170 ec 86 e6 bd fd d0 d9 3b 61 77 e4 bd 16 8b 95 3d
       -0.11256203 0.006647228 -0.11155582 0.07301919
000180 dd e4 70 be e7 f8 9b be 56 f5 12 3e 06 6a b6 be
       -0.23524804 -0.30463335 0.143514 -0.35627764
000190 1f 3e a0 be af 23 49 bd 82 38 7f be 97 a1 5a be
       -0.31297395 -0.049106296 -0.249239 -0.21350704
0001a0 6d 10 03 3e 8c 71 07 be e5 75 0b be 7f ee 9c 3c
       0.12799235 -0.13226908 -0.13619192 0.019156693
0001b0 bf 1e 24 be ff db 95 be b6 a1 aa be 49 6d 34 3e
       -0.16027354 -0.29269406 -0.333265 0.17619814
0001c0 eb 63 14 3e c4 5f 2b 3e 0f 68 f4 bd d1 56 69 3e
       0.1449124 0.1673575 -0.1193391 0.22787024
0001d0 44 8d a8 3e 33 70 8a bd b0 98 95 be cb b3 df bd
       0.32920277 -0.067596816 -0.29218054 -0.10922965
0001e0 b8 17 65 be 73 b6 26 bc 72 46 92 be 6d d9 6b 3e
       -0.22372329 -0.010175335 -0.2856937 0.2303216
0001f0 ab ed 45 3e d1 8d 28 bd be bc 20 be 25 06 15 bd
       0.19328944 -0.04115087 -0.15697 -0.036382813

arith.constant9 f4 [8]
000000 e8 8a b0 3c 93 1e 8a 3b ba 52 96 3d f5 2b 9a bd
       0.02155061 0.0042150705 0.073399976 -0.075279154
000010 14 88 84 3d 4d a3 5a 3e 3b 7a 5f 3d 47 37 6c 3d
       0.06471267 0.21351357 0.054559927 0.057669904

arith.constant10 f4 [128]
000000 95 69 a3 be e7 c2 16 40 95 ba 0a c0 11 fa 08 3f
       -0.3191649 2.355646 -2.167638 0.5350657
000010 43 c7 05 c0 1a 45 50 3e 13 e8 90 bf 89 43 e9 bf
       -2.090287 0.2033886 -1.1320823 -1.8223735
000020 50 aa 2a c0 fe f2 a1 3e d7 fc af 3f 97 91 e8 3d
       -2.666645 0.316307 1.3749036 0.11355894
000030 84 ef 1a 40 15 8d 93 bf d1 c5 0f bf b4 fd 11 3f
       2.4208689 -1.152743 -0.5616122 0.57027745
000040 78 ae ae bf e9 bf 96 3d d8 17 c9 bf d7 b9 5e bf
       -1.3646994 0.07360823 -1.5710402 -0.8700232
000050 29 98 44 3f 6b 04 5d 3f e2 25 20 40 d5 5d 47 bf
       0.7679468 0.86334866 2.5023122 -0.7787755
000060 36 e2 0e c0 93 77 e4 be f6 8e 48 c0 42 30 3b 3e
       -2.2325568 -0.44622478 -3.1337256 0.18280128
000070 72 85 74 3e 38 f5 a5 bf 7a 71 b2 3f bd 97 05 bf
       0.2387903 -1.296546 1.394088 -0.5218466
000080 6b a1 18 c0 67 11 1a c0 ee 24 81 be 39 b2 81 bf
       -2.3848522 -2.4073122 -0.25223488 -1.0132514
000090 8a ef 1c c0 d8 71 18 3f ca 05 e1 be a5 29 91 bf
       -2.4521203 0.5954871 -0.4394973 -1.1340834
0000a0 11 5e 3d 3f c6 34 0d bf 8d 68 a1 be 7c 4c 24 bf
       0.7397166 -0.5515865 -0.31525078 -0.64179206
0000b0 a1 dc 52 c0 2e 31 b1 3f 08 b4 87 3f 20 df 3c 3f
       -3.2947161 1.3843133 1.0601816 0.7377796
0000c0 08 f3 73 3d 1a 7d d7 bf 34 e3 45 c0 3a 7e 05 bd
       0.059557945 -1.6835053 -3.0919924 -0.032591082
0000d0 87 9a 20 40 7d c3 dc 3e bb 76 3d 3e 16 95 5f 40
       2.5094316 0.43117896 0.18502323 3.4934745
0000e0 59 11 32 c0 39 0c b6 3f 8b 1f 29 bf d2 03 4e c0
       -2.7823088 1.422248 -0.66063756 -3.2189832
0000f0 f9 8b bf 3f 42 35 c5 3e d6 0b 45 3e 64 df 18 bf
       1.4964591 0.38517195 0.19242796 -0.5971587
000100 da aa c8 3c 9a ba 8a bf c3 3d 5d bf 7a 2c fd 3e
       0.02449553 -1.0838196 -0.86422366 0.49447995
000110 d2 d8 b0 3e 90 dd dc 3d 43 c3 19 bf ad 94 d9 3e
       0.3454042 0.10784447 -0.6006357 0.42496243
000120 e1 a6 ed 3f e1 dc 08 bf 1c ee 8a be b1 b2 0b 3f
       1.8566552 -0.53462034 -0.27134788 0.54569536
000130 43 ec 05 3f 5a 79 dc 3e fa e7 08 bf e1 6c a6 3f
       0.5231363 0.43061334 -0.5347897 1.3001977
000140 26 44 55 c0 7c 52 3a be 0a 76 99 3f f2 7e d6 3e
       -3.3322845 -0.18195528 1.1989148 0.41893727
000150 23 f6 b2 3f c6 10 b2 3f 03 33 ef 3f de d9 4d 3f
       1.3981365 1.3911369 1.8687443 0.80410564
000160 8f d4 99 bf ae bd f7 3f a2 50 42 3f c7 cd 0a c0
       -1.2017993 1.9354761 0.75904286 -2.1688097
000170 fc 0d 0e 3f 62 64 25 c0 b1 e3 e6 bf 2f 82 81 bf
       0.5549009 -2.5842519 -1.8038236 -1.0117854
000180 a7 74 96 3f ac 59 f8 bd 32 41 ce 3e a4 94 15 3e
       1.175435 -0.121264786 0.40284115 0.14607483
000190 9f bc e9 3e ba 2b 77 3f 54 db 93 3f 5b fd 00 c0
       0.4565172 0.96551096 1.1551309 -2.0154636
0001a0 e2 80 8e 3f 1f cd 21 40 f9 a1 f3 3f 70 ab 37 bf
       1.1133082 2.5281446 1.9033805 -0.7174597
0001b0 05 1a 93 bd a3 a9 99 bf 5f d6 62 40 f3 b7 3a bf
       -0.07182697 -1.2004894 3.5443342 -0.72936934
0001c0 13 1c 26 40 42 06 a4 3e 7a 58 90 3f bb f3 62 bd
       2.5954635 0.32036024 1.1277001 -0.05540822
0001d0 bc 19 b4 bf d3 37 b6 3e c8 17 67 c0 ce 8d 10 3e
       -1.4070354 0.35589465 -3.6108265 0.14116594
0001e0 b5 23 99 bf b1 15 2a 40 5d a2 6b 3f 93 40 06 3f
       -1.1964022 2.657574 0.9204462 0.5244228
0001f0 b0 f7 a9 3f cb ec 5a bf 4b 41 d5 3e e0 87 cc bf
       1.3278713 -0.8551757 0.41651377 -1.5978966

arith.constant11 f4 [32]
000000 c9 0b cf 3d e7 1d 8a 3d e8 f2 1e bd 9d db 99 3d
       0.1010967 0.06743985 -0.038805872 0.07512591
000010 58 5f d1 3c ac 06 69 3d db 99 19 bb 79 99 a2 3d
       0.025558159 0.05689113 -0.0023437652 0.07939429
000020 e5 e4 61 bd 6f c2 e7 3d 51 35 dc 3d 1b 09 cb 3b
       -0.05514993 0.11316382 0.10752357 0.006196154
000030 90 96 49 3c fd cf c8 bd 90 1e be bd b9 63 59 bd
       0.012303963 -0.098052956 -0.09283173 -0.05307362
000040 01 60 03 bd 51 71 c6 ba fa f6 81 bd d0 40 51 bd
       -0.03207398 -0.0015139972 -0.06345935 -0.0510872
000050 de ce 41 bd cf 53 7e bd 43 ca c2 3d 7c d8 99 3b
       -0.047316425 -0.062091645 0.095112346 0.0046949964
000060 d0 7f 5e 3c 42 61 5e bd b4 6e 1f 3c 0e bc 93 bd
       0.013580278 -0.05429197 0.0097309835 -0.07213603
000070 71 bc da bd 81 d0 42 bc d9 63 ca bb 29 9e bb 3d
       -0.106804736 -0.0118905315 -0.0061764535 0.09161026

arith.constant12 f4 [16]
000000 21 16 47 be a1 93 71 be 11 df dd be 3c 3d 22 be
       -0.19442035 -0.23591472 -0.4333425 -0.15843672
000010 84 2f 91 be 39 c4 ba 3d 49 c5 74 3e a0 7a e9 bd
       -0.28356564 0.09119458 0.23903383 -0.11400342
000020 12 e9 04 3c 43 78 33 3e a0 1d 3d be d9 3f 24 3e
       0.008112209 0.17526345 -0.18468332 0.16039981
000030 8a 2d 88 be ae 48 0a be e9 8b 04 be c6 ef 9c 3d
       -0.26597244 -0.13504288 -0.12943996 0.07662921

arith.constant13 f4 [64]
000000 c0 62 a9 be d4 17 a1 be 26 1d ce be fc 61 d5 3e
       -0.33083153 -0.31463492 -0.40256613 0.4167632
000010 63 f5 cf bc 5e bb 2f 3e 86 42 b0 3e 7e 64 e7 be
       -0.025385564 0.17161319 0.34425753 -0.45193857
000020 f1 d1 56 be 26 3c 51 3e 8e 24 bd 3d 4a c0 2f bd
       -0.20978524 0.20433101 0.09235488 -0.04290799
000030 a5 26 d2 be 36 be 28 3e 2d 35 78 3e 63 30 89 be
       -0.41045108 0.1647881 0.24239035 -0.2679473
000040 f5 89 5d be a9 5a 84 3e 2d d9 13 bd 95 e3 1c 3e
       -0.21634658 0.25850418 -0.036095787 0.1532119
000050 6f e8 41 3d c6 6d 29 3d a2 29 c6 3d 58 ea c3 3e
       0.047340807 0.041364454 0.096759096 0.38264728
000060 56 43 fe bc 81 6c 36 3e 67 1c ae bd 96 fa 67 bd
       -0.031037968 0.17814828 -0.08501511 -0.05663546
000070 05 1c 4f 3e e1 15 53 be 35 fa c2 3e d8 aa 2f be
       0.20225532 -0.20613815 0.38081518 -0.17155015
000080 e0 d9 a4 bd 3f 63 b6 3e 56 c1 92 3e 29 1e bc 3e
       -0.08049369 0.35622594 0.2866313 0.3674176
000090 de 2b 2c 3e 15 7a d1 3d d6 2d b4 3e ae 73 d1 be
       0.16813609 0.102283634 0.3519122 -0.4090857
0000a0 9f 6e a1 3d eb 6c 07 bf 59 3a 03 bf 66 13 0e be
       0.078824274 -0.5290057 -0.51260906 -0.13874587
0000b0 39 25 48 3e 33 76 14 3e d9 9b bc be 75 96 68 be
       0.1954545 0.14498214 -0.36837652 -0.22713645
0000c0 c8 bc 64 be fa 1e f1 3d 2b d4 98 3e 23 3e 9b 3d
       -0.2233764 0.117734864 0.2984937 0.07580211
0000d0 73 76 c8 bc 9a db 9f 3e ba eb e1 3e 30 9b 25 be
       -0.024470543 0.3122223 0.44125158 -0.1617248
0000e0 c9 87 cd be aa 17 b8 be 74 89 1d 3e 93 f7 ef 3d
       -0.40142658 -0.35955554 0.15384465 0.11717143
0000f0 09 03 36 bd 3f 97 c0 be 48 dc c7 3e f9 98 13 3e
       -0.04443649 -0.37615392 0.3903525 0.14413823

arith.constant14 f4 [4]
000000 92 d1 35 3e fa 5c 91 3e a1 15 18 3e 3a 86 7b 3d
       0.17755726 0.28391248 0.14852001 0.061407305

arith.constant15 f4 [64]
000000 5a df d4 3e 1e 4e 70 40 35 93 05 41 2b 22 32 40
       0.41576654 3.754768 8.348439 2.7833354
000010 5a 52 0e 40 13 78 4d c0 c5 b9 d4 3f 70 dd b4 be
       2.2237763 -3.2104537 1.6619192 -0.35325193
000020 f6 c8 6d bf c3 a6 91 40 ff 40 25 c0 31 9f 76 3f
       -0.9288477 4.5516067 -2.582092 0.96336657
000030 85 e3 f1 40 bc 22 98 bd d4 87 de 3e 9e 02 f6 40
       7.5590234 -0.074285 0.43463004 7.6878195
000040 1a 53 53 c0 c8 b9 b0 c0 c2 01 cd bf 7a ca d4 be
       -3.301947 -5.5226784 -1.6016161 -0.41560727
000050 22 3d 20 c0 a8 fd 3c c0 d2 40 40 3f c8 5a a2 bf
       -2.5037313 -2.952982 0.7509891 -1.2683954
000060 5b 64 6b 40 61 d6 ea bf 12 41 c5 3f 9f 0e f7 3f
       3.6780002 -1.8346673 1.5410483 1.9301337
000070 36 3f 6e 3f 38 ba 0c c0 c7 2a d1 3f d3 69 bf 3f
       0.930652 -2.198866 1.634118 1.495417
000080 dc 96 14 40 9f 4e e3 3f 29 7f 40 3f 5e 93 16 c0
       2.3217077 1.7758368 0.7519403 -2.3527446
000090 83 2a 39 40 ad af ba 3f e6 eb 97 3f 63 67 80 c0
       2.8932197 1.4584862 1.1868865 -4.0126204
0000a0 2f 0c 02 c0 b3 1c 71 c0 45 47 df 3e 06 81 78 bf
       -2.0319936 -3.7673767 0.43609062 -0.97071874
0000b0 22 ff 8a 40 ba 06 c0 3f 36 cf 2d bf 8a 3c 8e 3f
       4.343644 1.5002053 -0.67894304 1.1112225
0000c0 a5 e9 26 3f ab bf 99 3f 2f 95 34 3f 36 fd 3d 3f
       0.65200263 1.2011617 0.70540136 0.74214494
0000d0 dd ff 85 bf b5 c6 45 c0 bb 67 8d 3e 3a e2 9a c0
       -1.0468708 -3.090253 0.27618203 -4.8401155
0000e0 21 39 a1 bf 7e f3 92 bd de 60 19 40 54 4f 2d bf
       -1.2595559 -0.07175349 2.3965373 -0.6769917
0000f0 7b 3d 8e bd 8a 7a 98 c0 48 03 bf 40 9b 03 e6 bf
       -0.0694532 -4.7649584 5.9691505 -1.796985

arith.constant16 f4 [16]
000000 18 9d 9e be f2 b9 84 3d 94 3b 66 bd 44 92 4a 3d
       -0.30979228 0.06480779 -0.056209162 0.049455896
000010 92 d0 8f bd 7c c9 4b 3e d0 3e 85 be ea b7 76 3e
       -0.070222035 0.19901079 -0.26024485 0.24093595
000020 8e 6d f9 bd 13 c0 45 3e 1c 42 7a 3d 60 88 2a be
       -0.12179099 0.19311552 0.061098203 -0.16653585
000030 b7 97 05 3e 7c f4 83 3e ee 48 1f 3e 27 d9 d8 bd
       0.13046156 0.25772464 0.15555164 -0.105882935

arith.constant17 f4 [8, 2, 2, 32]
000000 a3 87 d4 3c e6 c6 4a 3d f9 e3 0e bd 9f bc 07 bb
       0.025943583 0.04950609 -0.03488538 -0.0020711792
000010 05 4f 07 be 7e 52 ca bd 48 be 74 bc 07 29 a9 bd
       -0.13213737 -0.098790154 -0.014937945 -0.082597785
000020 8f 1f d4 3d 99 ae 4b 3d ec 6e 3b bc 9a 58 f9 bd
       0.10357582 0.049727056 -0.01144002 -0.121751025
000030 29 e9 82 bd b9 91 10 3d d7 cf 9c bd cf 83 90 bd
       -0.06392128 0.035295222 -0.0765683 -0.070563905
000040 f3 71 0b bd 32 d2 9f bb 6f 33 81 bc c9 97 0e 3e
       -0.034044217 -0.004877352 -0.015771596 0.13925089
000050 c2 6c 14 be f0 db 9b bd d1 8e fb ba 82 bc 0c 3e
       -0.14494613 -0.07610309 -0.0019192343 0.13743785
000060 c4 93 04 be 89 f4 6c bd a3 a0 06 bd 4c 89 d9 bd
       -0.12946993 -0.057850394 -0.03286804 -0.106218904
000070 82 03 ba 3c f9 26 34 be 93 c5 d4 bd d6 86 65 bd
       0.02270675 -0.17592992 -0.10389247 -0.056036793
000080 fe cb 39 3c cd cc bc 3d d7 df b1 3d 1f a3 87 3d
       0.011340139 0.0921875 0.08685272 0.0662291
000090 03 c3 c6 bb 83 a0 a3 3c 59 f6 85 3d de 13 88 bd
       -0.0060657277 0.019973999 0.06541128 -0.06644414
0000a0 19 3f 15 3e c4 d4 de bb b6 72 49 bd a8 b5 2b be
       0.14574851 -0.006800266 -0.049181662 -0.16768515
0000b0 c3 1e a4 3d 3e f5 bd 3d 0c 27 05 bd 50 71 a5 3b
       0.0801368 0.09275292 -0.03250794 0.0050489083
0000c0 de f2 f3 3c 93 7f d3 3d ec d0 a7 3d f7 d0 1d 3e
       0.029778894 0.10327067 0.081941456 0.15411745
0000d0 b3 28 54 3c 1e 81 8b 3d e5 a6 00 3d 8b ef a9 bd
       0.012949157 0.068117365 0.031409163 -0.08297642
0000e0 26 7b d4 bd 7c 9b c0 3d af 8b 0a be 11 21 5f bd
       -0.10375051 0.09404656 -0.13529848 -0.054474894
0000f0 16 b3 99 3c 93 d9 81 3d 09 4d b7 bd c0 6c 06 be
       0.018762153 0.06340327 -0.0895024 -0.13127422
000100 59 50 6b 3d ce 16 35 bd aa ea 7b 3d ba ef fa 3d
       0.057449672 -0.0442112 0.06150309 0.122527555
000110 71 31 56 bc 19 a8 57 3c ec 48 30 bd 98 cd 08 bd
       -0.013073311 0.013162636 -0.043038294 -0.033399194
000120 44 d6 c0 bd f2 6f e6 bd 0d be f7 bd 7b ad 4f 3c
       -0.09415868 -0.112518206 -0.12096796 0.012675638
000130 a3 37 f5 3d 41 9f d7 bd 3d 25 8c bc 5a bd 1d 3d
       0.119735025 -0.10528422 -0.0171076 0.038510658
000140 c6 ee b3 3d ec 9b 05 3e 56 f0 2c 3d 30 c6 04 3e
       0.08785777 0.1304776 0.04222139 0.12966228
000150 7d 9f 9d 3d 38 0f 74 bd 97 fd da bd 21 5c 88 bc
       0.076964356 -0.059584826 -0.106929 -0.016645493
000160 d3 31 73 bd 16 d6 63 bb 2a ae 1b 3e 80 27 c4 3d
       -0.059373688 -0.0034765056 0.15203157 0.095778465
000170 bc 6d 21 be 14 40 48 bd 2c c9 6d bc 83 c8 9f 3d
       -0.15764517 -0.048889235 -0.014513295 0.078019165
000180 08 ca da 3d 9c 60 c3 3c d0 fe 93 3d ab ce 11 3d
       0.10683066 0.023849778 0.07226336 0.035597485
000190 93 cb 20 3e 20 b0 e9 3d 68 5f 16 3e 58 5d 1f 3e
       0.15702657 0.11410546 0.14684832 0.15562952
0001a0 89 c6 be bd 5d 9a 8e bc 7d 35 03 be b6 51 e3 bc
       -0.09315211 -0.01740759 -0.12813373 -0.027748924
0001b0 4d 7d f3 bb c7 94 24 bc 01 dd 80 3d cc 50 33 3e
       -0.0074307085 -0.010045237 0.06292153 0.1751129
0001c0 08 95 2c 3d ee 64 08 3d bc 75 c1 bd 19 01 9f bd
       0.042134315 0.03329938 -0.09446284 -0.07763881
0001d0 77 a9 1a be ad 1a 41 be ea 3b e5 bd fd 30 94 3d
       -0.15103708 -0.18857832 -0.11193068 0.07235906
0001e0 d1 1a fc 3d ee 0a de bc a7 b0 31 be 6e 6a ce 3d
       0.12309802 -0.027104821 -0.17352544 0.100788936
0001f0 e7 d4 ae bd 70 da e8 bd f2 b0 05 be 67 83 05 be
       -0.08536702 -0.11369789 -0.1305578 -0.13038407
000200 28 36 1b 3e d5 ee b0 bb cb 40 f6 bd 9e 53 a0 3d
       0.15157378 -0.0053995647 -0.12024077 0.07828449
000210 8f b7 b5 bc f6 58 65 bd d3 0e 08 be 98 12 53 3d
       -0.022182254 -0.055993043 -0.13286905 0.051531404
000220 9d 26 f1 bd d6 7f 86 3d 21 33 ab bd 5f 3c 1c 3d
       -0.11774943 0.065673515 -0.083593614 0.03814351
000230 21 53 ae bd d5 8f 73 3c 58 64 78 bd 6b 02 e4 bc
       -0.08511949 0.014865835 -0.06064257 -0.027833184
000240 bd aa 1e 3d a8 a8 63 bd a3 4a 22 bc bd 07 7f bc
       0.038737047 -0.055580765 -0.00990549 -0.01556581
000250 d6 4b b6 bb 43 d8 2e 3c f6 97 fc 3d 3f f0 80 bd
       -0.0055632396 0.010671678 0.12333672 -0.06295823
000260 b0 80 94 3d 0e 65 00 3e c8 8f 04 be e8 23 28 be
       0.07251108 0.1253855 -0.12945473 -0.16419947
000270 6b f4 3f 3e 97 e3 13 3e 68 8e 63 3b 7d 7f 13 3d
       0.18745582 0.14442287 0.0034722332 0.036010254
000280 84 07 17 3d 8c 03 43 bd f4 9f fa bd fa 95 1e bd
       0.0368724 -0.047610804 -0.1223754 -0.038717248
000290 c5 f7 11 bb 53 8b ec bc 46 47 aa bd ff 1a 0d be
       -0.0022272926 -0.028875029 -0.083143756 -0.1377983
0002a0 c1 9b 2e 3e 50 4d 45 bd 3f 58 18 3e 3a 4d 46 bd
       0.17051603 -0.048169434 0.14877413 -0.048413493
0002b0 0d f1 03 3d 4a 85 ef bd 26 dc b2 bd 5a c4 b8 bd
       0.032212306 -0.11695345 -0.08733396 -0.09021826
0002c0 86 55 ac 3c ac 9e cb 3c 8c 9f b8 3d 08 fc 0d 3e
       0.021036875 0.024855934 0.09014806 0.13865674
0002d0 63 be 1b be c5 d5 10 3c c7 28 87 3d 10 1b 84 3d
       -0.15209346 0.008840029 0.065995745 0.06450474
0002e0 e9 e3 dd 3c cf 55 2b 3d c7 0c cb bd 9b 05 15 be
       0.027086215 0.04182988 -0.099145465 -0.1455292
0002f0 ab 5a 85 bd 5e ea f2 3d 58 74 29 3e 98 10 74 3d
       -0.06511434 0.11861108 0.16548288 0.059586138
000300 07 90 f7 3d 21 e8 2f 3b 5e 4b c1 bd ff c0 2c be
       0.12088018 0.002684124 -0.09438203 -0.16870497
000310 13 90 ab bd 8c ea 8d bd 2a da 91 bd ba 5e 10 be
       -0.08377089 -0.06929502 -0.071216896 -0.14098635
000320 34 25 04 be 0e e1 5a be d6 0d 2a 3d 05 b0 b6 3d
       -0.12904817 -0.21374914 0.0415171 0.08920292
000330 7c d7 34 3c 21 58 07 be f0 15 2a 3e 79 8a b7 bd
       0.011037704 -0.13217212 0.16609931 -0.089619584
000340 09 96 37 bd a2 38 93 3d 53 49 ca bb d7 07 c3 bd
       -0.04482082 0.07188536 -0.0061732917 -0.0952298
000350 d7 ef 26 bc f2 af d0 3d 26 14 d3 3d d7 75 85 bd
       -0.010189018 0.10189809 0.103065774 -0.06516617
000360 fc 7e 1f bd 4b d9 c1 3c eb 43 07 be 1e 3a 52 3e
       -0.03893946 0.023663184 -0.13209502 0.20529982
000370 bb 78 ff 3a c5 36 07 be 4b 76 ac 3d 74 4a 00 3e
       0.0019490937 -0.13204487 0.08421 0.12528402
000380 2c 85 47 3b 38 91 90 bd 09 f8 09 3e e9 3b 83 bd
       0.0030444367 -0.07058948 0.13473524 -0.06407911
000390 10 22 d9 3c d0 a2 e6 bd 14 c6 b8 bd ae c4 36 3e
       0.0265055 -0.11261523 -0.090221554 0.17848465
0003a0 fa d4 02 bc ab 3c c6 bd 22 e3 1b be 53 69 4d bd
       -0.007985348 -0.0967954 -0.15223363 -0.050149273
0003b0 ab c8 ac 3d 2f a9 2c be db 5b 80 bd f0 64 05 3d
       0.08436712 -0.16861413 -0.0626752 0.032566965
0003c0 de 6d 51 bd f1 13 29 3c 97 7c 47 bd 30 e1 88 bd
       -0.05113017 0.010319696 -0.048702803 -0.06683576
0003d0 08 07 a0 bd bd f7 27 bd 22 a3 89 3d 3a 31 21 bc
       -0.07813841 -0.041007746 0.06720568 -0.009838397
0003e0 61 29 18 be ca 23 f7 3d e6 7d ee 3c fb 94 28 3d
       -0.14859535 0.12067373 0.029112767 0.041157704
0003f0 73 f9 1b be f5 40 ab bd 0c bd 26 bd 36 04 90 3d
       -0.15231876 -0.08361999 -0.040707633 0.07032053

arith.constant18 f4 [16, 2, 2, 64]
000000 15 c8 2b bd ee e1 f1 3d 75 7f ce 3d 1c 78 22 bd
       -0.04193886 0.11810671 0.10082904 -0.039665326
000010 9e bb 07 be f1 a6 f7 3d fe 0b 2d 3d c6 61 e2 3d
       -0.13255164 0.120923884 0.042247765 0.11053805
000020 8e 92 3f 3d 9c d1 49 bd 4e 02 53 3d 27 df fb bc
       0.046770625 -0.049272165 0.05151587 -0.030746056
000030 d8 a5 3a 3d 0a 28 d9 3c 17 1c c6 bd 2b f5 5a 3d
       0.045568317 0.02650835 -0.096733265 0.053456467
000040 5d 15 05 be 71 5b b1 bd 75 f2 9b bc 9f c8 f9 3c
       -0.1299643 -0.08660019 -0.019036511 0.030491171
000050 c6 59 07 3e e0 d6 a7 bd 69 f9 eb bd 7a fb 8f 3d
       0.1321784 -0.08195281 -0.115221806 0.07030387
000060 bf f2 91 3d 3f 89 26 bd 02 05 ec 3d a4 f7 88 3d
       0.07126378 -0.04065823 0.11524393 0.06687859
000070 e1 6b 47 3d 74 58 f6 3d da b3 9e 3d 9f c7 14 bc
       0.048686866 0.1202859 0.07749148 -0.0090807965
000080 54 cf 4d 3d 2e 43 88 bd 3b 8f 1a bd 9f e9 00 bc
       0.05024655 -0.066534385 -0.03773425 -0.0078682
000090 be 43 a9 3c 16 f6 e8 bd 8d 2a 9d 3c fe 4b 9e 3c
       0.020662185 -0.11375062 0.019185329 0.019323345
0000a0 c4 be a7 3d 81 34 b5 bd 9b 2a f8 3c 35 35 d5 3d
       0.081906825 -0.08847905 0.030293753 0.10410539
0000b0 5e e0 fd 3d b5 fd 61 bd 53 43 98 3d f8 7e 30 3d
       0.1239631 -0.055173595 0.07434716 0.043089837
0000c0 c0 13 ad bd 2c 18 b9 3d 44 70 df 3d 17 e9 98 bd
       -0.08451033 0.090378135 0.10910085 -0.07466333
0000d0 10 fb 88 3c e4 13 a7 bd 07 91 ff bc d0 7c 18 bd
       0.016721278 -0.08158091 -0.031197084 -0.037228405
0000e0 d3 e7 05 3e 6d 3c 0a bd 99 cc bc 3d 64 1b b0 bd
       0.13076715 -0.033749033 0.092187114 -0.08598974
0000f0 07 0f dd bd 0e 15 02 3d 3f bb ea bd a5 14 c1 3d
       -0.10793882 0.03175836 -0.114614956 0.09427766
000100 43 85 8d bd 1e 87 9e 3d c0 c0 10 3d 75 86 b5 bd
       -0.06910183 0.07740615 0.03534007 -0.08863536
000110 a6 2d 4d 3d a6 e3 83 bd a1 bb 1a be 92 35 e6 bd
       0.050092362 -0.06439905 -0.15110637 -0.112406865
000120 40 46 b7 3d 6b 48 f0 bc 1a 2f b2 3d 58 70 6d bd
       0.08948946 -0.029331407 0.0870039 -0.057968467
000130 c6 ef 00 be 10 77 bc 3c 53 8f 67 bd c0 f5 a9 3c
       -0.12591466 0.023005992 -0.05653317 0.020747066
000140 2c 47 56 bb cc d1 5a bc 15 30 d7 bd b8 96 95 bc
       -0.003269623 -0.013355684 -0.10507218 -0.018260345
000150 d2 25 3b bd 15 ea c6 3c d5 dd a9 3d 8e eb 57 bd
       -0.045690365 0.02428154 0.08294264 -0.052714877
000160 20 57 e3 3d 00 18 bc bd e9 87 1a be b0 84 39 bd
       0.11100602 -0.09184265 -0.15090908 -0.045292556
000170 c3 10 d6 bd 91 ba b4 3c 01 0f 9f bc 9a cf c3 bc
       -0.10452416 0.022061618 -0.019416334 -0.023902703
000180 e2 53 39 3d 49 6b 47 3d a9 69 28 3d 91 e5 36 bd
       0.045246013 0.0486863 0.04111639 -0.044652525
000190 1e e7 d4 bd 66 0c a0 3d b0 9e 35 bd ec f0 09 bd
       -0.103956446 0.07814865 -0.04434079 -0.033677027
0001a0 9e cf 27 3e 34 62 53 3c 47 3c 07 3d 19 0d 25 3d
       0.16387793 0.012901831 0.03301647 0.040295694
0001b0 e4 b9 00 be 26 cf c1 3c ae a4 cc bd 06 16 06 3e
       -0.12570912 0.023658346 -0.09992348 0.13094339
0001c0 9e 44 68 3d 98 a3 cf 3d 2c e6 cd 3d fd 86 0b be
       0.056706063 0.10138625 0.100536674 -0.13625713
0001d0 79 1d 95 bd 52 24 0b 3e 96 15 fa 3d 14 71 44 3d
       -0.07281012 0.13588074 0.122111484 0.047959402
0001e0 9c 0b 26 3e 0b 56 bb bc c9 cb cc 3c f6 4d 95 bc
       0.16215366 -0.022868177 0.024999516 -0.018225651
0001f0 14 a8 0a 3c 87 a1 fe 3d 74 51 03 3e ee 0f 86 bd
       0.0084629245 0.12433153 0.1282404 -0.06546007
000200 2c d5 af 3c 73 a9 26 3d b3 a2 87 bd 87 da 14 be
       0.021463953 0.040688943 -0.06622829 -0.14536487
000210 0f e7 c5 3d e4 27 8a 3d 10 23 f2 bd 85 3a 22 3b
       0.096632116 0.0674589 -0.11823094 0.0024754119
000220 0a 7a 2d 3b ac ce 76 bd 86 27 98 bc d0 ab 39 bd
       0.0026470446 -0.06025569 -0.018573534 -0.04532987
000230 11 97 9f bc f5 a2 c1 3d 8b 0a 3d bd c2 db 66 3d
       -0.019481214 0.0945491 -0.046152633 0.05636192
000240 8f 79 59 3c 90 ea ef 3d c0 98 bb bd d1 21 2d 3d
       0.013273611 0.11714661 -0.09159994 0.042268578
000250 78 25 99 3c 56 c1 9f 3d b5 c6 a3 bd a7 f8 74 bd
       0.018694624 0.07800548 -0.07996885 -0.059807446
000260 8c b8 90 3d b8 28 c4 3c 58 86 c7 bd 23 f6 84 3c
       0.070664495 0.023945197 -0.09742421 0.016230648
000270 4b 2a e7 bd 02 88 dc 3d 99 d6 02 3d cc 7c 34 be
       -0.112873636 0.10768129 0.031942938 -0.17625731
000280 35 a1 01 bd dd ad 3d 3d 83 06 e7 bc e7 e9 bc bd
       -0.03164788 0.046308387 -0.028201347 -0.09224301
000290 c0 1c bd 3d 72 03 25 bd bd ac c0 bd 43 0d a4 bd
       0.09233999 -0.04028649 -0.09407947 -0.08010342
0002a0 10 8e 1d bd 78 5d b0 bd 0c db 09 bc e3 02 b8 bd
       -0.03846556 -0.08611578 -0.008414041 -0.089849256
0002b0 50 f0 13 3d 79 12 23 bd e0 b0 c9 bc c5 d8 91 3d
       0.03611785 -0.03981254 -0.024620473 0.07121424
0002c0 3f c8 d2 bd 90 e8 a1 3d 0c 80 22 bd 5e 0f 7f bd
       -0.102921 0.07905686 -0.039672896 -0.062270515
0002d0 74 92 84 bc 1e d2 d5 3d f4 d1 30 3d 25 0a aa bd
       -0.016183116 0.10440467 0.043168977 -0.08302716
0002e0 a9 b2 73 bb 21 66 47 bd 20 d9 47 3d 9c 55 d8 3c
       -0.0037185347 -0.048681382 0.04879105 0.02640801
0002f0 2d 5d d9 3c c8 d6 07 bd 5b ef 2b 3d cb 89 79 3c
       0.026533687 -0.033163816 0.041976314 0.015230606
000300 f9 46 ac bd 1a 52 a7 bb 0e e2 a3 3d bf 43 b5 bb
       -0.084119745 -0.005106223 0.08002101 -0.0055317576
000310 6b db 90 3d 1e 92 f6 3b c2 18 69 3d 6b 3e 13 3e
       0.07073101 0.0075247427 0.056908377 0.1437928
000320 6c 76 14 3d 43 5c 15 3a 83 61 8e bd e8 e5 1d bd
       0.03624575 0.0005697647 -0.06952193 -0.038549334
000330 eb 20 04 bd 11 82 c2 3d 41 8b ae bd 5d 65 f0 bc
       -0.032257956 0.094974644 -0.08522654 -0.029345209
000340 80 85 c6 3d 47 a5 82 3d 4d b4 f1 bd fc 02 88 bd
       0.09693432 0.063791804 -0.11801968 -0.06641194
000350 73 b5 ee bd 35 c7 9f bd ef a7 89 3c ca 21 b9 bd
       -0.116557024 -0.078016676 0.01680371 -0.09039648
000360 b9 6e 07 3e 7b 20 c0 3c ff a2 51 bd 76 c1 28 bd
       0.13225831 0.023452988 -0.051180836 -0.041200124
000370 2e 33 65 bd 67 51 4e 3d cb 3d bd bd da f6 8d bd
       -0.055957012 0.0503706 -0.09240302 -0.06931849
000380 49 7d db bd 01 fe 19 bd 8b 09 21 bc c7 0b 9a bd
       -0.107172556 -0.037595753 -0.009828935 -0.075217776
000390 b6 3c 14 bb f5 81 c1 3d 86 3b b3 bd 85 b5 c2 bc
       -0.0022619194 0.094486155 -0.087515876 -0.023768196
0003a0 96 f0 0c 3d 45 d0 82 bd e2 99 b3 bd 81 fd 73 3c
       0.034409128 -0.063873805 -0.08769585 0.014891983
0003b0 cf a2 9c 3c 25 a7 0d 3e 54 64 9c 3d 17 c5 59 bc
       0.019120602 0.13833292 0.076363236 -0.013291619
0003c0 73 9b c3 3d 27 7b 35 3b 87 cd 9e 3d e7 c1 cc bd
       0.09551134 0.0027691813 0.07754045 -0.099979214
0003d0 37 ed bd 3d 28 83 06 bd 45 cb cd 3d f6 64 9a bc
       0.09273761 -0.032839924 0.10048536 -0.01884697
0003e0 0d d0 9d 3d b0 00 cb 3d e9 61 c0 3d 85 0a 3b bd
       0.07705698 0.099122405 0.09393675 -0.04566433
0003f0 34 e8 3c bd 14 62 01 be a8 02 d6 3d 54 e4 c1 bd
       -0.046119884 -0.1263507 0.104497254 -0.09467378

arith.constant22 f4 [3, 1, 1, 8]
000000 bd d4 02 be ee 7d a5 bd 27 05 8c bd eb 6b 6d 3e
       -0.12776466 -0.0808066 -0.0683692 0.23185699
000010 ba 4e b2 bc ff 53 4e 3e e6 c8 94 be 5c 69 a8 bd
       -0.021766055 0.2014923 -0.29059523 -0.08223221
000020 da 57 57 be c3 33 a8 3d 81 af 45 3e 17 bc 9e bd
       -0.21029606 0.08212998 0.1930523 -0.07750719
000030 f2 67 89 bd dc 4f f1 3d 53 86 39 bd c0 4a f9 bd
       -0.06709279 0.1178281 -0.045294117 -0.121724606
000040 39 e2 06 be 29 03 cf 3d a6 57 6c 3e 35 0d 6b be
       -0.13172235 0.101080246 0.2308031 -0.22954257
000050 fc ba 82 bc 2a b8 70 be 47 b9 cb 3d 0a 80 29 be
       -0.015958302 -0.23507753 0.09947448 -0.1655275

arith.constant23 f4 [32, 1, 1, 128]
000000 56 11 28 3e 57 04 df bd 91 07 be be 1a b9 47 be
       0.16412863 -0.108895 -0.37115148 -0.19504204
000010 57 33 b6 3e 50 21 36 3e cd 80 8d be 4e 51 9c 3e
       0.35586044 0.17786145 -0.2763733 0.3053078
000020 79 53 82 3e f4 e5 0c be 8e 00 bc be 68 26 4e 3e
       0.2545431 -0.13759595 -0.36719173 0.20131838
000030 19 f4 83 bd 1a ea 28 3e 6b 22 33 bd 48 eb bd bc
       -0.06443042 0.16495553 -0.043733995 -0.02318348
000040 cd 25 2f 3d c8 d3 0a 3e c6 b3 52 be 8f ea 3e be
       0.04276066 0.1355735 -0.2057639 -0.18644165
000050 51 16 64 3e c1 07 04 3d c0 9e 73 3e bb b7 4b 3e
       0.22274138 0.032233957 0.23791027 0.19894306
000060 76 ed 95 be b6 1d f6 bd 0b 20 6a 3e 47 43 1f be
       -0.2928273 -0.12017386 0.22863786 -0.15553008
000070 ef ea 31 3e 40 d3 4a be 7f 97 c8 bd 8c 6f 8a 3e
       0.17374776 -0.19807148 -0.097945206 0.2703823
000080 7b 4e f9 3d c2 6c 1b be 4e 48 eb bd 7f bf 4d 3e
       0.12173172 -0.15178207 -0.114884004 0.20092581
000090 16 7d 4d be 6d c2 80 be e8 f6 f3 3d 87 b1 16 be
       -0.20067248 -0.25148335 0.11912328 -0.14716159
0000a0 69 43 8f be ec d4 8b 3e ba a1 9b 3e 94 b5 f8 3d
       -0.27981117 0.27310884 0.30396825 0.12144008
0000b0 1b 19 8b 3d 16 b4 28 3d 5e 9e 2f 3e 4c 69 60 be
       0.06791898 0.04118737 0.17150256 -0.21915168
0000c0 47 cc 95 bd c6 af a8 3e 01 d1 a8 3e ee 26 ac be
       -0.073143534 0.32946604 0.32971957 -0.3362345
0000d0 89 1e 7d bd 3f 68 83 3e 2e 95 5f 3d d1 d8 8e be
       -0.0617967 0.2566547 0.05458563 -0.27899793
0000e0 63 f6 8e be 88 ab a9 bd 75 d4 4c 3e ca f4 40 3e
       -0.27922353 -0.0828467 0.20002921 0.1884338
0000f0 68 e4 ad 3e f0 f9 9a be 48 1c d8 bd 46 29 bf be
       0.33963323 -0.30268812 -0.10552269 -0.37336177
000100 1a 45 2d 3d 27 c2 d0 3d 2c 19 1d be ac 0f 6b 3e
       0.04230223 0.101932816 -0.15341634 0.22955197
000110 9f bf a9 bd ae d4 ea bd c2 79 81 be 5c 38 24 be
       -0.08288502 -0.11466347 -0.25288206 -0.16037124
000120 59 2f a6 bb df ca 2e 3e 2b 41 1c 3e b0 2e b3 bd
       -0.0050715622 0.17069577 0.15259235 -0.08749139
000130 d5 20 a4 be af c5 59 3d 78 72 bd be f3 ae b1 3d
       -0.320563 0.05316704 -0.37001395 0.08675947
000140 64 a2 5e 3e ac 8f 87 be 83 2a 0f be 28 e6 38 3e
       0.21741635 -0.264768 -0.1398106 0.18056548
000150 55 2d ce bd ce 61 0c 3e c7 77 a4 be ad ec cf 3d
       -0.1006724 0.13709185 -0.32122633 0.10152564
000160 14 28 aa bd e3 64 1b bd 54 46 4d be bc 8b 57 3e
       -0.083084255 -0.03793801 -0.2004636 0.21049398
000170 ff 3d c0 3e 76 dd 40 be 69 f3 a8 bd 21 7f 5c 3e
       0.375473 -0.1883448 -0.08249552 0.21532871
000180 7f ad 8b 3d 10 0d 49 be d0 42 9d be b2 46 62 bd
       0.06820201 -0.19633889 -0.30715036 -0.0552432
000190 19 7e 3d 3e 98 82 f9 3e 87 56 18 3d fd 41 13 3e
       0.18505134 0.48732448 0.037191894 0.14380641
0001a0 6f 90 a6 bd 72 0f 5c bd b2 40 d7 3d 77 f8 9b 3e
       -0.08133017 -0.053725667 0.105103865 0.30463
0001b0 b8 18 2b be 28 42 e3 bc 64 a9 86 3d 97 4d 6b 3e
       -0.16708648 -0.027741507 0.065752774 0.22978817
0001c0 c4 81 de bd 22 a3 88 3e 70 db e1 3e 65 5a a0 be
       -0.108645946 0.2668696 0.4411273 -0.31318966
0001d0 ad 42 6c 3e cd 0f 4d bd 17 9c 05 bd c5 40 1d 3d
       0.2307231 -0.050063897 -0.032619562 0.038391847
0001e0 82 fa 6a be 83 3a a6 be c6 75 1e be eb f9 a9 3d
       -0.22947124 -0.32466516 -0.15474615 0.08299621
0001f0 d7 b4 c0 be ba bd 83 be 4e 96 54 3d b4 a6 4a 3e
       -0.3763797 -0.25730687 0.051901154 0.19790155
000200 8c 9e 29 3e 8a 25 6a bd 49 6a 98 3e 57 6a a9 3e
       0.16564387 -0.057164706 0.2976859 0.33088943
000210 ae 1a 67 be 81 36 5a be 22 f5 94 bc 00 42 28 be
       -0.22568771 -0.21309854 -0.018183295 -0.16431427
000220 54 ca 98 3d de 03 4a be a1 05 1e 3e 33 a0 90 3e
       0.07460466 -0.19728038 0.15431835 0.28247222
000230 38 d3 5c 3e f0 86 b2 3e 41 f8 bd 3d 32 d3 f3 3d
       0.21564949 0.34868574 0.09275866 0.11905517
000240 2d a6 8a bd c9 b7 1d 3e aa 90 5b 3d 5e 83 a8 be
       -0.06769977 0.1540214 0.05360476 -0.32912725
000250 8d 06 87 be 2d 16 84 be 22 a5 73 3e 5f 48 9c bc
       -0.26372185 -0.2579817 0.23793462 -0.019077478
000260 39 bb b4 bd 49 3e c8 3d 9a 38 8b 3e a9 9f 3c 3e
       -0.088247724 0.09777505 0.2719162 0.1842028
000270 99 56 82 3e c1 ee 65 3e 51 33 89 3e d4 17 09 3e
       0.25456694 0.22454359 0.26796964 0.13387996
000280 65 6b 36 3c 06 bc a3 3d 46 4b 51 bc d1 d3 b3 3e
       0.011134003 0.07994847 -0.012774294 0.3512254
000290 3a 81 47 bd d9 6f 89 3e a5 39 e4 bd 87 e4 af bd
       -0.048707224 0.26843145 -0.11143807 -0.0858851
0002a0 30 3b d8 bd 7c 05 77 be e5 2c 85 be bf 3d 94 bd
       -0.10558164 -0.24123186 -0.26010814 -0.0723834
0002b0 e8 4b 4e be 96 2c bd 3d 03 39 87 3e 6f 7f 70 be
       -0.20146143 0.0923702 0.26410684 -0.23486112
0002c0 2c da 10 bd 8c 55 8a be 6b cf 40 3e ad 6b ae 3e
       -0.035364315 -0.27018392 0.18829124 0.34066525
0002d0 44 3a 23 be 37 2d 0e be 3c 70 20 be 12 b5 36 3e
       -0.15940195 -0.13884436 -0.15667814 0.1784251
0002e0 46 41 d6 bd f8 fc 08 3e 27 7f 99 be 4c 5f 57 be
       -0.10461669 0.1337775 -0.29979822 -0.21032447
0002f0 b9 1f 78 be bb d4 b8 3d 5e 16 2e bd a0 93 4b 3e
       -0.24230851 0.0902495 -0.0425018 0.19880533
000300 be 10 ab bd 6e 38 48 be da 07 95 be f2 ed cf bd
       -0.08352803 -0.19552776 -0.29107553 -0.10152806
000310 ad 84 26 bd 78 5d 3e 3e 91 1b b2 3e fd df a6 b9
       -0.040653873 0.18590343 0.34786656 -0.00031828872
000320 d4 43 a6 bc 22 3b 20 3e 82 c8 2b 3d fc 45 5e 3e
       -0.020296015 0.15647557 0.041939266 0.21706384
000330 3b e5 19 bb bd 83 fe 3d 47 eb 20 3d 8c c9 9e be
       -0.002348258 0.12427471 0.039286878 -0.31013143
000340 48 3d 36 3e bd a4 71 bd ee 18 60 bd 99 30 d7 bd
       0.17796814 -0.058994997 -0.054711275 -0.10507316
000350 2d 7f 1f 3e 3e b5 9b 3e 45 5e 1b 3e 02 f8 76 3d
       0.15575857 0.30411714 0.1517268 0.060295112
000360 aa c6 eb 3b 05 b3 f5 3d f9 46 ab 3e 0e f4 83 be
       0.0071953135 0.11997036 0.33452585 -0.25772136
000370 be ec 47 be 5a c7 5b 3e 0d 99 8b 3e ea 1f b8 3d
       -0.19523904 0.21462765 0.27265206 0.08990462
000380 19 36 2e 3e 78 81 00 3e c3 38 22 3e 53 22 1b be
       0.17012824 0.12549388 0.15841965 -0.15149812
000390 84 82 e8 bd 47 74 86 be eb 26 d2 bd 55 b9 8c bd
       -0.11353019 -0.26260588 -0.10261329 -0.06871287
0003a0 1c 86 57 be e4 d9 24 bd cb a0 97 be 73 36 cf 3c
       -0.21047252 -0.04024686 -0.29614863 0.025294518
0003b0 98 12 d4 3e 1f 47 47 be c5 59 e4 3d 56 01 9f bd
       0.41420436 -0.19460724 0.11149935 -0.07763927
0003c0 21 1a 95 be 6f 45 d1 be 35 5a 63 3d 00 e2 dc 3d
       -0.29121497 -0.40873286 0.05550595 0.107852936
0003d0 7c e9 74 3c 1e 9c 39 3e e5 ac 2f be 45 b1 1b be
       0.014948245 0.1812596 -0.17155798 -0.15204342
0003e0 ad 03 a2 3e 0e e0 10 3e ea 2d bd 3d 71 59 1a 3e
       0.3164343 0.1414797 0.09237273 0.15073182
0003f0 43 13 c1 3e f0 6b 46 be 0a e6 5b 3d e0 fb 4a 3e
       0.37710008 -0.19377112 0.05368618 0.19822645
