tf_lite_inference/models/residual-efficientunet-enlight_float16.tflite (tflite, 247672 bytes, 41 tensors)

arith.constant1 f2 [1, 1, 1, 32]
0.9224 0.9287 0.927 0.9087 0.8887 0.927 0.912 0.9224
0.9014 0.915 0.899 0.9307 0.9155 0.9346 0.913 0.896
0.97 0.9463 0.9253 0.93 0.9355 0.9355 0.955 0.9062
0.9365 0.9126 0.9565 0.942 0.959 0.944 0.987 0.935
00000000: 613b 6e3b 6a3b 453b 1c3b 6a3b 4c3b 613b
00000010: 363b 523b 313b 723b 533b 7a3b 4e3b 2b3b
00000020: c33b 923b 673b 713b 7c3b 7c3b a43b 403b
00000030: 7e3b 4d3b a73b 893b ac3b 8d3b e53b 7b3b

arith.constant2 f2 [1, 1, 1, 64]
0.9487 0.964 0.9756 0.9746 1.007 0.9385 1.001 0.9653
0.9756 0.954 0.9663 0.9663 0.932 0.9883 1.005 1.006
1.001 1.002 0.9785 0.9443 0.942 0.9243 0.985 0.9927
0.998 0.937 1.004 0.938 0.9985 0.9883 0.8857 0.9976
0.9873 0.941 1.006 0.9653 1.022 0.972 1.032 0.9697
1.001 0.955 0.9673 0.9624 0.9546 0.9956 0.996 0.948
0.9644 1.016 0.96 1.001 1.005 0.9805 0.998 0.9614
0.957 0.9614 1.009 0.899 0.9893 0.996 0.9404 1.018
00000000: 973b b63b ce3b cc3b 073c 823b 013c b93b
00000010: ce3b a23b bb3b bb3b 753b e83b 053c 063c
00000020: 013c 023c d43b 8e3b 893b 653b e13b f13b
00000030: fc3b 7f3b 043c 813b fd3b e83b 163b fb3b
00000040: e63b 873b 063c b93b 173c c73b 213c c23b
00000050: 013c a43b bd3b b33b a33b f73b f83b 963b
00000060: b73b 103c ae3b 013c 053c d83b fc3b b13b
00000070: a83b b13b 093c 313b ea3b f83b 863b 123c

arith.constant3 f2 [1, 1, 1, 16]
1.042 0.998 0.995 0.9556 0.9834 1.034 0.996 1.037
1.03 0.9277 0.99 0.9805 1.067 1.012 0.987 1.04
00000000: 2b3c fc3b f63b a53b de3b 233c f83b 263c
00000010: 1f3c 6c3b ec3b d83b 453c 0c3c e53b 293c

arith.constant4 f2 [1, 1, 1, 16]
1.051 1.045 1.089 0.941 1.042 1.072 1.106 0.933
1.022 1.05 1.0 1.051 1.023 1.0205 1.022 0.9614
00000000: 343c 2e3c 5b3c 873b 2b3c 4a3c 6d3c 773b
00000010: 173c 333c 003c 343c 183c 153c 173c b13b

arith.constant9 f2 [1, 1, 1, 16]
-0.010704 -0.05087 -0.02817 -0.002382 -0.005424 0.0745 -0.06885 -0.02328
-0.02042 -0.01499 0.02017 0.01608 0.01166 0.02007 0.02742 0.006874
00000000: 7ba1 83aa 36a7 e198 8e9d c52c 68ac f6a5
00000010: 3aa5 ada3 2a25 1e24 f821 2325 0527 0a1f

arith.constant10 f2 [1, 1, 1, 64]
-0.008446 -0.02362 -0.005924 -0.005054 -0.02866 0.008026 -0.0339 0.0006137
0.05887 0.006386 0.02296 0.02272 -0.00797 -0.02588 -0.0151 0.0553
-0.0208 0.034 0.00866 -0.03056 0.03336 0.010254 0.03482 -0.0274
0.02138 -0.013885 -0.05087 -0.00799 -0.02629 0.00552 0.002447 0.0002174
0.03717 -0.04056 -0.03378 -0.004227 -0.01249 0.007744 -0.02562 -0.02788
0.02003 -0.0199 0.04813 0.072 0.01312 0.000563 -0.03323 -0.00968
-0.03537 0.05826 0.02951 -0.004326 -0.01093 0.05087 0.001625 -0.02939
0.0267 -0.0097 -0.03995 0.01264 -0.0578 0.022 0.004066 -0.00156
00000000: 53a0 0ca6 119e 2d9d 56a7 1c20 57a8 0711
00000010: 892b 8a1e e125 d125 15a0 a0a6 bba3 142b
00000020: 53a5 5a28 6f20 d3a7 4528 4021 7528 04a7
00000030: 7925 1ca3 83aa 17a0 bba6 a71d 0319 200b
00000040: c228 31a9 53a8 549c 65a2 ee1f 8fa6 23a7
00000050: 2125 18a5 292a 9c2c b822 9d10 41a8 f5a0
00000060: 87a8 752b 8e27 6e9c 99a1 832a a816 86a7
00000070: d626 f7a0 1da9 7922 66ab a225 2a1c 6496

arith.constant11 f2 [1, 1, 1, 32]
-0.01782 -0.0112 -0.03275 -0.06415 0.00767 -0.01372 -0.004543 0.001933
0.005486 9.02e-05 0.02557 -0.01427 -0.02249 -0.02692 -0.00316 0.01906
-0.0155 -0.00782 -0.02693 0.001116 -0.00894 0.0282 -0.03796 0.006927
0.0005293 -0.01009 0.00641 0.02087 0.02248 0.0332 0.01198 0.0249
00000000: 90a4 bca1 31a8 1bac db1f 06a3 a79c eb17
00000010: 9e1d e905 8c26 4ea3 c2a5 e4a6 799a e124
00000020: f0a3 01a0 e5a6 9214 94a0 3827 dca8 181f
00000030: 5610 2ba1 901e 5825 c125 4028 2222 6026

arith.constant12 f2 [1, 1, 1, 16]
-0.010025 -0.005726 -0.00272 0.01665 0.02522 0.05402 -0.0319 -0.04477
0.04236 -0.007347 0.006626 0.002542 0.02621 -0.006954 0.02533 -0.06232
00000000: 22a1 dd9d 9299 4324 7526 ea2a 15a8 bba9
00000010: 6c29 869f c91e 3519 b626 1f9f 7c26 faab

arith.constant17 f2 [16, 2, 2, 3]
-0.01372 -0.212 0.185 0.227 0.1128 -0.0324 0.2009 0.10913
0.1339 -0.0534 0.02104 -0.1959 -0.2067 -0.11017 0.1322 -0.1011
-0.1667 0.2913 -0.293 -0.2073 0.1159 -0.2211 0.1611 0.1887
0.011345 0.08185 0.2397 -0.0324 0.0881 0.2615 -0.3179 0.006733
-0.2908 -0.084 -0.147 0.288 0.0573 0.2266 -0.1063 -0.0627
-0.02132 0.1554 0.0723 -0.1531 0.0576 -0.1498 -0.10187 0.1152
-0.1208 -0.04138 0.09625 0.052 0.1552 0.071 0.1893 -0.04947
0.02127 0.1873 -0.06744 -0.3416 0.06113 0.07465 0.01605 0.2394
-0.2009 0.1836 0.295 -0.10693 -0.08215 -0.02441 -0.10986 0.1827
-0.2737 -0.2482 0.01238 0.06055 -0.0824 0.009865 0.2347 -0.02771
0.161 0.283 0.07965 0.223 -0.2012 0.02473 -0.2278 0.0177
-0.155 -0.0755 0.2258 -0.0632 -0.0135 0.1713 -0.1287 -0.2336
-0.0514 0.05063 -0.05856 0.1334 0.269 -0.1181 0.1661 0.1046
0.001385 0.07477 -0.2351 0.03455 0.07 -0.1777 -0.03925 -0.3384
-0.08545 -0.00947 0.2119 0.3 -0.00688 -0.1954 -0.2407 0.1315
0.2666 -0.025 -0.10474 0.0905 0.2085 -0.086 0.1293 -0.2358
-0.04254 -0.12274 0.1924 -0.10187 -0.00982 -0.0999 -0.1804 -0.03653
0.1061 0.1423 0.2417 -0.2094 0.251 0.3042 0.1981 -0.002295
-0.0967 0.2542 0.255 -0.02116 0.2151 0.12213 -0.0371 0.1561
-0.258 -0.3108 -0.05313 0.2155 0.1376 -0.2467 -0.1625 0.03986
0.1959 0.1744 -0.2242 0.1454 -0.0339 0.2698 -0.2019 -0.1271
0.1113 0.1165 -0.1729 0.2576 0.1844 0.1647 -0.07654 0.00937
-0.12103 0.1436 0.08057 -0.1993 -0.209 0.02988 0.06433 -0.1805
0.0732 0.2852 -0.2686 0.21 0.222 -0.12036 0.2115 -0.0912
00000000: 06a3 c9b2 ec31 4433 382f 26a8 6e32 fc2e
00000010: 4930 d6aa 6325 45b2 9db2 0daf 3b30 78ae
00000020: 56b1 a934 b0b4 a2b2 6b2f 13b3 2831 0a32
00000030: cf21 3d2d ac33 26a8 a32d 2f34 16b5 e51e
00000040: a7b4 60ad b4b0 9c34 562b 4033 ceae 03ac
00000050: 75a5 f930 a12c e6b0 5f2b cbb0 85ae 5f2f
00000060: bbaf 4ca9 292e a82a f730 8b2c 0f32 55aa
00000070: 7225 fe31 51ac 77b5 d32b c72c 1c24 a933
00000080: 6eb2 e031 b834 d8ae 42ad 40a6 08af d931
00000090: 61b4 f1b3 5722 c02b 46ad 0d21 8333 18a7
000000a0: 2731 8734 192d 2333 70b2 5526 4ab3 8824
000000b0: f6b0 d5ac 3a33 0bac e9a2 7b31 1eb0 7ab3
000000c0: 94aa 7b2a 7fab 4530 4e34 8faf 5131 b22e
000000d0: ac15 c92c 86b3 6c28 7b2c b0b1 06a9 6ab5
000000e0: 78ad d9a0 c832 cd34 0c9f 41b2 b4b3 3530
000000f0: 4434 66a6 b4ae cb2d ac32 81ad 2330 8cb3
00000100: 72a9 dbaf 2832 85ae 07a1 65ae c6b1 ada8
00000110: ca2e 8e30 bc33 b3b2 0434 de34 5732 b398
00000120: 30ae 1134 1434 6ba5 e232 d12f c0a8 ff30
00000130: 21b4 f9b4 cdaa e532 6730 e5b3 33b1 1a29
00000140: 4532 9531 2db3 a730 57a8 5134 76b2 11b0
00000150: 202f 752f 88b1 1f34 e731 4531 e6ac cc20
00000160: bfaf 9830 282d 61b2 b0b2 a627 1e2c c7b1
00000170: af2c 9034 4cb4 b832 1b33 b4af c532 d6ad

arith.constant18 f2 [64, 3, 3, 16]
0.1547 0.3442 0.4265 -0.2803 -0.09 -0.05746 -0.4448 -0.4265
0.02669 0.546 -0.588 0.1779 0.495 -0.251 -0.3555 0.585
0.1986 -0.332 0.015144 -0.0104 -0.444 0.0846 -0.4275 -0.303
-0.42 0.0642 0.0924 -0.1362 -0.0688 0.1641 -0.4668 0.1602
-0.0769 -0.302 -0.5835 -0.528 0.8936 -0.2422 0.4033 -0.1556
-0.308 0.0918 0.6636 0.1749 -0.1185 0.01423 0.4956 -0.56
-0.4202 0.0651 -0.366 0.4463 0.4336 -0.003998 -0.3381 -0.1912
-0.0735 -0.152 0.272 -0.0882 -0.02 -0.7344 0.337 0.1439
-0.3728 0.3728 1.093 0.4912 -0.1605 0.10077 0.0966 0.6006
-0.3115 -0.2214 -0.165 -0.4395 -0.262 -0.2174 -0.5444 0.332
-0.03214 -0.5215 -0.82 -0.505 0.804 0.3364 0.294 0.04245
0.1293 0.482 0.387 0.479 -0.721 -0.3506 0.4097 0.0946
-0.3208 -0.0393 -0.0793 -0.2815 0.1171 0.2012 -0.1783 0.3235
-0.1792 -0.1675 -0.721 -0.4639 0.3474 0.0251 -0.4563 0.643
-0.01567 0.1443 -0.1837 0.2233 -0.17 0.02762 -0.1462 0.4622
0.4153 -0.03546 -0.4316 0.3594 0.2157 0.3943 -0.1954 0.721
0.397 -0.5015 0.2452 0.06793 0.5986 0.07153 -0.1783 0.3218
0.351 -0.3352 -0.1534 0.342 -0.2003 -0.276 0.5923 -0.4294
0.3494 0.2362 0.073 -0.02351 0.2998 0.306 0.2115 0.1827
-0.1218 0.2537 0.153 -0.1747 0.229 0.308 0.2406 -0.4192
0.1049 0.2494 -0.1647 -0.4187 0.2744 -0.1523 0.623 -0.2272
0.02606 -0.4163 0.3818 0.193 0.04413 0.1742 0.1284 0.0919
-0.1187 -0.4238 0.08044 -0.1884 0.2737 0.235 -0.3928 0.1871
-0.02701 0.2842 -0.1742 -0.3262 -0.04404 -0.3394 -0.2169 0.0822
0.1411 0.2019 0.1753 -0.04037 0.3335 -0.4297 -0.077 -0.1082
-0.08606 0.06152 0.1471 -0.359 0.1365 -0.2031 0.0744 -0.3245
-0.242 0.4995 0.5146 -0.544 -0.0154 -0.1823 0.8115 -0.1099
-0.3284 -0.009026 0.00847 0.7114 -0.7124 0.1521 0.1016 0.3657
-0.08057 -0.3665 0.4336 0.0649 0.1716 -0.6196 -0.131 -0.1121
0.3203 -0.1578 0.327 -0.1982 -0.3513 0.1962 0.1842 -0.1819
-0.3374 -0.3232 -0.08655 -0.1239 -0.531 -0.3774 0.2103 -0.3118
-0.4258 0.3777 0.4072 -0.2484 0.3955 -0.04248 0.4102 0.1285
00000000: f330 8235 d336 7cb4 c3ad 5bab 1eb7 d3b6
00000010: d526 5e38 b4b8 b131 ec37 04b4 b0b5 ae38
00000020: 5b32 50b5 c123 53a1 1bb7 6a2d d7b6 d9b4
00000030: b8b6 1c2c ea2d 5cb0 67ac 4031 78b7 2031
00000040: ecac d5b4 abb8 39b8 263b c0b3 7436 fbb0
00000050: eeb4 e02d 4f39 9931 96af 4923 ee37 7bb8
00000060: b9b6 2b2c dbb5 2437 f036 189c 69b5 1eb2
00000070: b4ac ddb0 5a34 a5ad 1fa5 e0b9 6435 9b30
00000080: f7b5 f735 5f3c dc37 23b1 732e 2f2e ce38
00000090: fcb4 16b3 48b1 08b7 31b4 f5b2 5bb8 5035
000000a0: 1da8 2cb8 8fba 0ab8 6f3a 6235 b434 6f29
000000b0: 2330 b637 3136 aa37 c5b9 9cb5 8e36 0e2e
000000c0: 22b5 08a9 13ad 81b4 7f2f 7032 b5b1 2d35
000000d0: bcb1 5cb1 c5b9 6cb7 8f35 6d26 4db7 2539
000000e0: 03a4 9e30 e1b1 2533 71b1 1227 aeb0 6537
000000f0: a536 8aa8 e8b6 c035 e732 4f36 41b2 c539
00000100: 5a36 03b8 d933 592c ca38 942c b5b1 2635
00000110: 9e35 5db5 e9b0 7935 69b2 6ab4 bd38 dfb6
00000120: 9735 8f33 ac2c 05a6 cc34 e534 c532 d931
00000130: ccaf 0f34 e530 97b1 5433 ee34 b333 b5b6
00000140: b72e fb33 45b1 b3b6 6434 e0b0 fc38 45b3
00000150: ac26 a9b6 1c36 2d32 a629 9331 1c30 e22d
00000160: 99af c8b6 262d 07b2 6134 8533 49b6 fd31
00000170: eaa6 8c34 93b1 38b5 a3a9 6eb5 f1b2 432d
00000180: 8430 7632 9c31 2ba9 5635 e0b6 eeac edae
00000190: 82ad e02b b530 beb5 5e30 80b2 c32c 31b5
000001a0: beb3 fe37 1e38 5ab8 e3a3 d5b1 7e3a 09af
000001b0: 41b5 9fa0 5620 b139 b3b9 de30 812e da35
000001c0: 28ad ddb5 f036 272c 7e31 f5b8 31b0 2daf
000001d0: 2035 0db1 3b35 58b2 9fb5 4732 e531 d2b1
000001e0: 66b5 2cb5 8aad eeaf 3fb8 0ab6 bb32 fdb4
000001f0: d0b6 0b36 8436 f3b3 5436 70a9 9036 1d30

arith.constant19 f2 [4, 1, 1, 64]
-0.0319 -0.1438 -0.1118 -0.00343 -0.0498 0.1393 0.0993 0.06186
-0.08386 -0.0484 0.006775 -0.02144 -0.04877 -0.0326 0.0666 -0.02495
0.183 0.2206 0.02121 -0.1456 0.10486 -0.05112 0.0173 -0.0166
-0.00696 0.0966 0.029 -0.1656 -0.11884 0.0637 -0.1566 -0.1137
-0.002934 0.07733 0.01345 0.0207 -0.0964 -0.01927 0.005295 0.1915
-0.04358 0.0901 -0.02141 -0.1287 -0.0452 -0.12177 0.1896 0.0396
-0.0786 -0.03032 0.01069 -0.003626 0.09717 0.258 -0.08954 0.08215
-0.1127 0.0586 0.01088 0.02808 -0.0156 0.1267 -0.1444 -0.07916
-0.1015 -0.153 -0.2059 0.0645 -0.12024 0.002775 0.08417 0.02225
0.00397 0.01732 0.0834 -0.1251 -0.07196 0.0909 -0.01611 -0.1663
0.221 0.265 0.1239 -0.02135 -0.0588 0.0512 0.0002241 -0.01558
-0.1619 0.0797 0.03796 -0.03108 -0.0764 -0.0158 -0.0141 0.00792
-0.00538 -0.0918 -0.05753 0.1092 -0.0696 -0.098 0.0221 0.0731
0.11755 -0.02292 -0.08105 -0.05594 -0.03146 -0.01148 0.1633 -0.1099
-0.0633 -0.1262 0.10834 0.046 0.06494 0.03973 -0.0518 0.1482
-0.03107 -0.04922 -0.01901 0.002382 -0.08057 0.013214 -0.1915 0.0719
0.2062 0.04584 0.0627 -0.078 0.002275 0.2175 0.128 0.08075
-0.0634 0.1443 -0.01949 0.0733 0.04193 -0.01462 0.06006 0.03064
0.0498 -0.0591 0.0892 0.05988 0.0601 -0.0868 0.05667 0.0919
0.2047 0.0898 0.1423 0.0462 -0.000536 -0.12085 0.12286 -0.0942
0.0513 0.02444 0.06586 0.099 0.1547 -0.0249 -0.03445 -0.0967
-0.0948 -0.04666 0.01513 0.05908 -0.02069 0.11707 0.03105 0.1037
0.0915 -0.06396 0.04208 0.09955 0.10895 -0.00351 -0.0791 -0.05673
-0.02644 0.03067 -0.01912 -0.003006 0.0995 0.04456 0.013145 -0.08386
-0.05258 -0.1694 -0.10925 0.01729 -0.1608 0.04874 -0.138 -0.11346
-0.12476 -0.051 0.126 -0.0803 -0.10864 0.03108 0.0583 -0.00427
0.004776 0.1497 0.05347 -0.05368 0.10895 -0.06946 -0.002382 -0.02464
-0.0681 0.0964 0.02737 -0.0808 0.04074 -0.0002197 0.0901 -0.08624
-0.02155 -0.09814 0.03387 -0.0165 -0.2095 0.0098 -0.02946 -0.02863
-0.005173 -0.02327 -0.05243 -0.1422 0.04877 0.003004 -0.02266 -0.09985
-0.0973 0.0333 -0.1488 -0.05145 0.045 0.1436 -0.0824 -0.003796
-0.03287 -0.05676 -0.04123 0.0865 0.03876 0.0576 -0.0431 0.10223
00000000: 15a8 9ab0 28af 069b 60aa 7530 5b2e eb2b
00000010: 5ead 32aa f01e 7da5 3eaa 2ca8 432c 63a6
00000020: db31 0f33 6e25 a9b0 b62e 8baa 6e24 40a4
00000030: 219f 2f2e 6d27 4db1 9baf 142c 03b1 47af
00000040: 029a f32c e322 4d25 2bae efa4 6c1d 2132
00000050: 94a9 c42d 7ba5 1eb0 c9a9 cbaf 1132 1229
00000060: 08ad c3a7 7921 6d9b 382e 2134 bbad 422d
00000070: 36af 802b 9221 3027 fda3 0e30 9fb0 11ad
00000080: 7fae e5b0 97b2 212c b2af af19 632d b225
00000090: 111c 6f24 562d 01b0 9bac d12d 20a4 52b1
000000a0: 1233 3d34 ee2f 77a5 87ab 8e2a 580b faa3
000000b0: 2eb1 1a2d dc28 f5a7 e4ac 0ba4 38a3 0e20
000000c0: 829d e0ad 5dab fd2e 74ac 46ae a825 ae2c
000000d0: 862f dea5 30ad 29ab 07a8 e1a1 3a31 09af
000000e0: 0dac 0ab0 ef2e e329 282c 1629 a1aa be30
000000f0: f4a7 4daa dea4 e118 28ad c422 21b2 9a2c
00000100: 9932 de29 032c feac a918 f632 1930 2b2d
00000110: 0fac 9e30 fda4 b12c 5e29 7ca3 b02b d827
00000120: 602a 91ab b52d aa2b b12b 8ead 412b e22d
00000130: 8d32 bf2d 8e30 ea29 6490 bcaf dd2f 07ae
00000140: 912a 4226 372c 562e f330 60a6 69a8 30ae
00000150: 11ae f9a9 bf23 902b 4ca5 7e2f f327 a32e
00000160: db2d 18ac 6329 5f2e f92e 309b 10ad 43ab
00000170: c5a6 da27 e5a4 289a 5e2e b429 bb22 5ead
00000180: bbaa 6cb1 feae 6d24 25b1 3d2a 6ab0 43af
00000190: fcaf 87aa 0830 24ad f4ae f527 762b 5f9c
000001a0: e41c ca30 d82a dfaa f92e 72ac e198 4fa6
000001b0: 5cac 2b2e 0227 2cad 3729 338b c42d 85ad
000001c0: 84a5 48ae 5628 39a4 b4b2 0521 8ba7 54a7
000001d0: 4c9d f5a5 b6aa 8db0 3e2a 271a cda5 64ae
000001e0: 3aae 4328 c3b0 96aa c329 9830 46ad c69b
000001f0: 35a8 44ab 47a9 892d f628 5f2b 84a9 8b2e

arith.constant20 f2 [64, 1, 1, 4]
-0.2979 -0.3796 -0.2344 0.2898 -0.096 -0.03668 0.2028 -0.09186
-0.3684 0.1316 0.3345 -0.5244 -0.286 -0.4312 0.3867 -0.347
-0.2297 0.2532 -0.06354 0.2588 0.4995 -0.0001692 -0.486 0.1227
0.1732 0.38 0.3088 0.1644 0.3625 0.542 -0.2734 0.619
0.3064 0.02809 0.0528 0.0924 -0.44 -0.1399 0.4211 -0.2683
-0.0216 -0.1993 -0.312 0.4382 -0.12366 -0.08246 0.2319 0.05698
-0.515 0.3289 -0.3108 -0.2847 -0.2113 0.4834 -0.1964 0.11066
-0.3406 0.1643 -0.368 0.1954 -0.1841 -0.3005 -0.3005 0.3875
0.3345 -0.04886 -0.561 0.5586 0.0858 -0.1995 -0.1448 -0.1582
0.2627 0.00747 -0.494 0.1855 0.4568 0.2847 -0.4336 -0.1453
-0.0237 0.0811 0.215 0.459 -0.417 -0.3145 0.0229 -0.0724
0.314 0.4573 0.02342 0.366 0.3374 -0.4932 -0.1274 -0.3833
0.4065 0.11725 0.02867 -0.3926 -0.3828 0.2742 0.2795 0.02953
0.03098 -0.5635 0.02063 -0.4885 0.4983 0.528 -0.3752 0.2974
-0.1575 0.1967 -0.2642 -0.1688 0.2325 0.3506 0.159 0.242
0.2024 -0.3604 -0.3015 -0.4185 0.3794 0.298 0.06003 -0.3823
0.4238 -0.2228 -0.513 -0.2686 0.2448 0.2705 -0.05377 0.08344
-0.0234 0.2462 -0.35 0.361 0.03078 0.5654 0.095 0.02257
-0.1406 0.1926 -0.2139 0.2136 -0.5176 -0.0953 0.3054 -0.415
-0.377 -0.3425 0.2114 0.1758 -0.2473 0.4126 -0.2427 0.4421
0.5747 0.5225 0.265 -0.3032 0.3167 -0.3108 -0.2524 -0.10095
0.1527 0.06647 0.2305 -0.2095 -0.3926 0.2192 0.1383 0.2783
-0.3809 -0.02328 -0.4194 -0.005596 0.01947 -0.1823 0.01717 0.04642
0.1958 0.097 -0.04944 0.5073 0.252 -0.5127 -0.01489 -0.1675
0.3174 0.408 -0.01718 -0.3884 0.177 0.4182 0.01183 -0.2352
0.135 -0.2954 -0.0678 0.0569 0.379 0.0014515 0.2463 0.1781
-0.0674 -0.02809 -0.45 -0.11816 0.3682 -0.3816 -0.01718 0.2642
-0.507 0.2761 0.2399 0.3364 0.7334 0.1335 0.0808 0.4717
0.6553 0.5654 -0.2455 -0.545 -0.03888 0.2266 0.2395 0.4463
0.31 0.4587 -0.2512 0.0846 0.4507 0.1372 0.09015 0.5347
0.0748 0.02446 -0.4 0.0382 0.4006 0.4963 -0.6123 0.552
0.2452 -0.5146 0.1755 0.4539 -0.4358 0.291 -0.1161 0.1454
00000000: c4b4 13b6 80b3 a334 25ae b2a8 7d32 e1ad
00000010: e5b5 3630 5a35 32b8 93b4 e6b6 3036 8db5
00000020: 5ab3 0d34 11ac 2434 fe37 8b89 c7b7 da2f
00000030: 8b31 1436 f134 4331 cd35 5638 60b4 f438
00000040: e734 3127 c22a ea2d 0ab7 7ab0 bd36 4bb4
00000050: 88a5 61b2 feb4 0337 eaaf 47ad 6c33 4b2b
00000060: 1fb8 4335 f9b4 8eb4 c3b2 bc37 49b2 152f
00000070: 73b5 4231 e3b5 4132 e4b1 cfb4 cfb4 3336
00000080: 5a35 41aa 7db8 7838 7e2d 62b2 a2b0 10b1
00000090: 3434 a61f e7b7 f031 4f37 8e34 f0b6 a6b0
000000a0: 11a6 312d e132 5837 acb6 08b5 dd25 a2ac
000000b0: 0635 5137 ff25 db35 6635 e4b7 14b0 22b6
000000c0: 8136 812f 5727 48b6 20b6 6334 7934 8f27
000000d0: ee27 82b8 4825 d1b7 f937 3938 01b6 c234
000000e0: 0ab1 4b32 3ab4 67b1 7133 9c35 1731 be33
000000f0: 7a32 c4b5 d3b4 b2b6 1236 c534 af2b 1eb6
00000100: c836 21b3 1bb8 4cb4 d533 5434 e2aa 572d
00000110: fea5 e133 9ab5 c735 e127 8638 142e c725
00000120: 80b0 2a32 d8b2 d632 24b8 19ae e334 a4b6
00000130: 08b6 7bb5 c432 a031 eab3 9a36 c4b3 1337
00000140: 9938 2e38 3d34 dab4 1135 f9b4 0ab4 76ae
00000150: e330 412c 6033 b4b2 48b6 0433 6d30 7434
00000160: 18b6 f6a5 b6b6 bb9d fc24 d5b1 6524 f129
00000170: 4432 352e 54aa 0f38 0834 1ab8 a0a3 5cb1
00000180: 1435 8736 66a4 37b6 aa31 b136 0f22 87b3
00000190: 5230 bab4 57ac 482b 1036 f215 e233 b331
000001a0: 50ac 31a7 33b7 90af e435 1bb6 66a4 3a34
000001b0: 0eb8 6b34 ad33 6235 de39 4630 2c2d 8c37
000001c0: 3e39 8638 dbb3 5cb8 faa8 4033 aa33 2437
000001d0: f634 5737 05b4 6a2d 3637 6430 c52d 4738
000001e0: ca2c 4326 66b6 e428 6936 f137 e6b8 6a38
000001f0: d933 1eb8 9e31 4337 f9b6 a834 6eaf a730

arith.constant21 f2 [16, 1, 1, 64]
0.1832 0.4265 0.373 -0.232 -0.2325 0.0483 -0.1725 -0.3035
0.1548 0.4133 -0.1653 -0.2737 0.1954 -0.1929 0.2554 -0.06287
-0.1268 -0.188 0.05923 -0.1743 -0.03876 0.04047 0.1292 -0.01041
0.1538 0.1533 0.1335 -0.10156 -0.02275 -0.05243 0.2197 0.0725
0.1561 0.1454 0.084 0.1344 0.04037 0.348 0.1552 -0.0002847
-0.323 -0.1478 -0.04785 0.2817 0.378 0.1335 -0.1193 -0.1152
0.1411 -0.2246 -0.1942 -0.01578 -0.10645 0.07367 -0.1973 -0.1658
0.1971 0.1263 -0.1917 0.11206 0.1976 -0.428 0.2181 0.0859
-0.751 -0.09174 0.0704 -0.4104 -0.38 -0.3242 0.1643 0.2233
-0.2642 -0.01884 0.0673 -0.05093 0.397 0.02036 -0.2188 0.2642
0.1425 0.0947 0.135 0.2585 -0.002953 0.02942 0.3396 -0.3184
-0.2712 -0.58 -0.3403 -0.11334 0.1841 0.495 0.3064 0.6025
-0.1643 -0.3115 0.05957 0.1735 -0.2057 0.1351 0.4243 -0.01319
0.1383 0.0759 -0.4268 -0.0968 -0.2362 -0.3828 0.181 0.2776
-0.424 0.1976 0.1865 0.3442 0.0838 -0.1411 0.3606 0.2205
-0.7764 -0.1542 0.3323 0.4468 -0.1158 0.2129 0.3796 0.612
0.0641 0.1719 0.1771 0.2473 0.3481 0.4111 -0.1857 -0.211
-0.3755 0.0875 0.5264 0.0776 0.4177 0.03784 -0.095 0.4185
0.5347 0.05777 0.0357 -0.0416 0.10614 0.2693 0.3 -0.114
0.2148 -0.272 -0.05356 -0.1396 0.4978 0.10803 -0.2158 -0.1951
0.4834 -0.2207 -0.2625 0.02283 0.153 0.4038 -0.255 0.01121
0.0559 -0.004124 -0.3904 -0.04623 -0.05972 0.0875 0.0426 -0.1766
0.1179 0.4456 0.3752 0.2896 0.2844 -0.3652 0.1525 -0.134
-0.729 -0.202 0.3584 0.3916 -0.1519 -0.3293 0.1914 0.1407
0.214 0.1835 0.523 0.324 -0.1289 -0.04654 -0.1338 -0.2593
-0.551 -0.0749 0.2302 -0.3577 -0.374 0.3706 -0.437 0.4316
0.5557 0.4524 0.05008 0.4587 -0.4453 -0.0069 0.0847 -0.3167
0.1299 -0.1455 -0.0353 -0.12164 -0.0434 -0.281 0.26 -0.02966
0.1262 0.2886 0.012535 0.1798 -0.06323 -0.09564 0.471 -0.5923
-0.3047 -0.3647 0.366 -0.3123 0.3372 0.1594 -0.4045 0.477
0.3718 -0.0748 -0.214 0.1476 0.249 0.622 -0.0743 0.2223
0.2957 -0.5303 -0.1103 -0.5225 0.1831 -0.05872 0.2244 -0.05646
00000000: dd31 d336 f835 6db3 71b3 2f2a 85b1 dbb4
00000010: f430 9d36 4ab1 61b4 4132 2cb2 1634 06ac
00000020: 0fb0 04b2 952b 94b1 f6a8 2e29 2230 54a1
00000030: ec30 e830 4630 80ae d3a5 b6aa 0833 a42c
00000040: ff30 a730 602d 4d30 2b29 9135 f730 aa8c
00000050: 2bb5 bbb0 20aa 8234 0c36 4630 a3af 5faf
00000060: 8430 30b3 37b2 0aa4 d0ae b72c 50b2 4eb1
00000070: 4f32 0b30 22b2 2c2f 5332 d9b6 fb32 7f2d
00000080: 02ba dfad 812c 91b6 14b6 30b5 4231 2533
00000090: 3ab4 d3a4 4f2c 85aa 5a36 3625 00b3 3a34
000000a0: 8f30 102e 5230 2334 0c9a 8827 6f35 18b5
000000b0: 57b4 a4b8 72b5 41af e431 ec37 e734 d238
000000c0: 42b1 fcb4 a02b 8d31 95b2 5330 ca36 c1a2
000000d0: 6d30 dc2c d4b6 32ae 8fb3 20b6 cb31 7134
000000e0: c9b6 5332 f831 8235 5d2d 84b0 c535 0e33
000000f0: 36ba efb0 5135 2637 69af d032 1336 e538
00000100: 1a2c 8031 ab31 ea33 9235 9436 f1b1 c1b2
00000110: 02b6 9a2d 3638 f72c af36 d828 14ae b236
00000120: 4738 652b 9228 53a9 cb2e 4f34 cd34 4caf
00000130: e032 5ab4 dbaa 78b0 f737 ea2e e8b2 3eb2
00000140: bc37 10b3 33b4 d825 e530 7636 14b4 bd21
00000150: 282b 399c 3fb6 eba9 a5ab 9a2d 7429 a7b1
00000160: 8c2f 2137 0136 a234 8d34 d8b5 e130 4ab0
00000170: d5b9 77b2 bc35 4436 dcb0 45b5 2032 8130
00000180: d932 df31 2f38 2f35 20b0 f5a9 48b0 26b4
00000190: 68b8 cbac 5e33 b9b5 fcb5 ee35 feb6 e836
000001a0: 7238 3d37 692a 5737 20b7 119f 6c2d 11b5
000001b0: 2830 a8b0 85a8 c9af 8ea9 7fb4 2934 98a7
000001c0: 0a30 9e34 6b22 c131 0cac 1fae 8937 bdb8
000001d0: e0b4 d6b5 db35 ffb4 6535 1a31 79b6 a237
000001e0: f335 caac d9b2 b930 f833 fa38 c1ac 1d33
000001f0: bb34 3eb8 0faf 2eb8 dc31 84ab 2e33 3aab

arith.constant22 f2 [32, 2, 2, 16]
-0.0875 -0.01622 0.1365 0.06635 -0.01736 0.0647 0.08325 -0.003733
-0.1185 -0.0003302 -0.08093 -0.0908 0.0971 0.1077 0.0466 -0.002832
-0.145 0.08105 -0.0681 0.00324 0.05374 -0.09845 -0.06024 0.1158
-0.1282 0.11774 -0.0954 -0.1104 0.11145 0.1467 0.09216 0.1082
-0.03278 -0.03287 0.08453 -0.00359 -0.003511 0.1335 0.00918 0.1259
0.02328 -0.0593 0.0959 0.0982 -0.0237 0.11664 0.01491 -0.03001
-0.11774 0.02028 0.07104 0.02702 -0.0616 0.1301 -0.0452 -0.10406
-0.1573 0.01709 0.003136 0.001195 -0.04434 -0.01889 0.00814 -0.03232
0.06046 -0.03812 -0.0899 0.06256 0.0677 -0.1044 0.01274 -0.00961
0.1852 -0.01662 -0.03284 0.0377 -0.03528 0.0778 -0.087 -0.0652
0.1426 -0.1241 -0.1459 0.02571 0.06335 0.0758 0.1483 0.1276
0.03015 -0.02519 0.0882 0.1282 -0.1423 -0.03824 -0.02565 -0.0165
0.0976 -0.0644 0.02933 0.01625 0.01224 -0.02727 0.1696 -0.10895
0.01417 -0.1613 0.1177 -0.0418 -0.0006666 0.01333 0.072 0.06775
0.0949 -0.05676 -0.1244 -0.1393 0.1362 0.0725 0.11725 0.0959
0.189 0.002478 0.07446 0.02394 -0.1449 0.06506 -0.01675 0.0914
0.10565 -0.0333 -0.07367 -0.02734 -0.0697 -0.1078 -0.0527 -0.04706
0.001537 -0.0523 -0.1298 0.1516 -0.0969 -0.08 -0.02094 0.0929
0.1683 0.02533 0.03635 0.05457 0.04526 -0.00122 -0.0117 -0.1276
-0.0511 -0.09106 -0.1107 -0.002544 0.1111 0.0744 -0.03412 0.14
0.1534 0.1226 -0.0754 -0.0579 -0.06635 -0.07214 -0.03058 -0.01823
-0.02493 0.01372 0.09766 0.02287 0.1142 0.01399 -0.06335 0.0353
0.0852 -0.07806 0.0903 0.0931 0.09094 0.01187 0.0796 -0.02414
-0.11224 -0.06143 -0.1182 0.1827 0.0681 -0.0911 0.05237 0.03842
0.02242 0.02463 0.03604 0.06726 -0.04553 -0.0836 -0.0915 -0.114
-0.0345 -0.1134 0.08246 0.0409 0.03091 -0.02362 0.10864 0.01379
0.06836 -0.1233 -0.1505 0.0422 0.0538 0.04428 -0.06635 -0.1063
0.062 0.0227 0.0348 -0.002241 0.05667 0.02718 0.0933 -0.0714
0.1466 -0.043 -0.01561 -0.02866 0.0742 -0.01516 0.02371 0.02228
0.0799 0.0844 -0.06085 0.02658 -0.006844 -0.1364 0.02055 0.07056
0.038 0.1009 -0.02669 0.0964 -0.1219 -0.05304 0.1046 0.01393
0.02414 0.06854 0.0954 0.0187 0.10474 -0.10236 -0.0341 0.02495
00000000: 9aad 27a4 5e30 3f2c 72a4 242c 542d a59b
00000010: 96af 698d 2ead d0ad 372e e52e f729 cd99
00000020: a4b0 302d 5cac a31a e12a 4dae b6ab 692f
00000030: 1ab0 892f 1bae 11af 222f b230 e62d ed2e
00000040: 32a8 35a8 692d 5a9b 319b 4630 b320 0730
00000050: f625 97ab 232e 492e 11a6 772f a223 afa7
00000060: 89af 3125 8c2c eb26 e3ab 2a30 c9a9 a9ae
00000070: 09b1 6024 6c1a e514 ada9 d6a4 2b20 23a8
00000080: bd2b e1a8 c1ad 012c 552c aeae 8622 eca0
00000090: ed31 41a4 34a8 d328 84a8 fb2c 91ad 2cac
000000a0: 9030 f1af abb0 9526 0e2c da2c bf30 1530
000000b0: b827 73a6 a52d 1a30 8eb0 e5a8 91a6 39a4
000000c0: 3f2e 1fac 8227 2924 4422 fba6 6d31 f9ae
000000d0: 4123 29b1 882f 5aa9 7691 d322 9c2c 562c
000000e0: 132e 44ab f6af 75b0 5c30 a42c 812f 232e
000000f0: 0c32 1319 c42c 2126 a3b0 2a2c 4aa4 d92d
00000100: c32e 43a8 b7ac 00a7 76ac e6ae bfaa 06aa
00000110: 4c16 b2aa 27b0 da30 34ae 1fad 5ca5 f22d
00000120: 6331 7c26 a728 fc2a cb29 ff94 fea1 15b0
00000130: 8aaa d4ad 16af 3699 1c2f c32c 5ea8 7b30
00000140: e930 d92f d3ac 69ab 3fac 9eac d4a7 aba4
00000150: 62a6 0623 402e db25 4f2f 2a23 0eac 8528
00000160: 742d ffac c72d f52d d22d 1422 182d 2ea6
00000170: 2faf ddab 91af d931 5c2c d5ad b42a eb28
00000180: bd25 4e26 9d28 4e2c d4a9 5aad dbad 4caf
00000190: 6aa8 42af 472d 3c29 ea27 0ca6 f42e 0f23
000001a0: 602c e4af d1b0 6729 e32a ab29 3fac ceae
000001b0: f02b d025 7428 9798 412b f526 f92d 92ac
000001c0: b130 81a9 fea3 56a7 c02c c3a3 1226 b425
000001d0: 1d2d 672d caab ce26 029f 5db0 4325 842c
000001e0: dd28 752e d5a6 2b2e cdaf caaa b22e 2223
000001f0: 2e26 632c 1b2e ca24 b42e 8dae 5da8 6326

arith.constant23 f2 [128, 3, 3, 32]
0.0139 0.09827 0.11945 0.0958 -0.08527 -0.04248 0.02945 0.04865
-0.04843 -0.01217 0.068 0.1063 -0.0422 -0.0637 -0.11035 0.04166
0.046 0.0857 0.0866 -0.0991 0.03818 0.0944 0.1588 0.02246
-0.0647 -0.02628 -0.07056 -0.0237 -0.0138 0.0906 -0.04495 0.0667
0.05322 0.07587 0.06854 0.1241 -0.03815 5.466e-05 -0.012276 -0.06134
0.0104 -0.02628 0.0985 0.00214 0.0352 -0.046 0.04153 0.1092
0.0683 -0.004753 -0.0372 -0.145 -0.000121 0.02414 0.1141 0.06122
0.0174 0.01917 -0.01567 0.09656 -0.0807 -0.03235 0.001594 0.0592
-0.05872 -0.03525 -0.02824 0.0759 0.00485 -0.00734 0.05527 0.04367
0.01138 0.03546 0.01536 -0.0923 0.03006 0.01179 -0.0826 -0.0683
-0.01956 0.0383 -0.1037 0.0417 0.05057 -0.0322 0.0353 0.01587
0.002613 -0.0498 0.001242 -0.00804 0.0123 0.03174 0.06335 -0.04404
-0.02771 0.1151 0.01666 0.0385 -0.0285 -0.0898 0.0806 0.02435
-0.09937 -0.007114 0.1236 -0.03683 -0.0673 0.0694 -0.10345 -0.01461
0.0919 0.12415 0.07166 -0.03674 -0.0697 -0.06793 0.013794 -0.05045
-0.02774 -0.1001 0.02057 0.0712 0.0664 0.07306 -0.04407 0.05905
-0.10504 -0.01958 -0.05127 -0.082 0.0809 -0.02048 -0.0487 0.03265
0.10596 -0.06256 -0.0978 -0.07874 0.03091 0.04474 0.0809 -0.000858
-0.02763 -0.02245 -0.00963 0.079 -0.08923 -0.01329 -0.006176 0.0805
-0.04663 -0.05365 -0.1 -0.03302 0.04675 -0.04883 -0.04172 0.0424
0.03827 -0.02814 -0.0462 0.0809 0.03433 -0.05057 -0.0822 0.10297
0.0973 0.0416 -0.05194 -0.08405 0.0907 -0.02008 -0.03235 -0.1038
0.0825 -0.08856 0.002504 0.05392 0.04364 -0.1299 -0.04367 0.0022
0.0626 -0.02855 -0.0461 -0.02016 -0.0683 -0.04315 0.07104 -0.1209
-0.000368 -0.08057 0.07635 -0.06696 -0.0758 -0.0378 0.0405 -0.03342
0.0661 0.06073 -0.002424 0.03836 0.0271 0.02583 0.01091 0.0345
0.04904 -0.01002 0.08636 0.0865 0.004692 0.0662 -0.005367 -0.015335
0.04355 -0.01223 0.01833 -0.052 0.0392 0.0383 0.03354 0.0183
-0.003513 0.001309 -0.0379 0.05936 -0.005234 0.02458 -0.05893 0.0394
0.07837 0.03223 0.01906 0.05225 0.006733 0.0715 0.11365 -0.0947
0.10504 0.05984 0.006973 0.1174 -0.05197 0.0619 0.1007 -0.0712
0.01788 -0.0004053 -0.01628 -0.0638 0.03555 -0.02989 0.0997 0.02345
00000000: 1e23 4a2e a52f 222e 75ad 70a9 8a27 3a2a
00000010: 33aa 3ba2 5a2c ce2e 67a9 14ac 10af 5529
00000020: e329 7c2d 8b2d 58ae e328 0b2e 1531 c025
00000030: 24ac baa6 84ac 11a6 11a3 cc2d c1a9 452c
00000040: d02a db2c 632c f12f e2a8 9503 49a2 daab
00000050: 5321 baa6 4e2e 6218 8128 e3a9 5129 fd2e
00000060: 5f2c de9c c3a8 a4b0 ee87 2e26 4d2f d62b
00000070: 7424 e824 03a4 2e2e 2aad 24a8 8716 942b
00000080: 84ab 83a8 3ba7 dc2c f71c 849f 132b 9729
00000090: d421 8a28 dd23 e8ad b227 0922 49ad 5fac
000000a0: 02a5 e728 a3ae 5629 792a 1fa8 8528 1024
000000b0: 5a19 60aa 1615 1ea0 4c22 1028 0e2c a3a9
000000c0: 18a7 5e2f 4424 ee28 4ca7 bfad 292d 3c26
000000d0: 5cae 499f e92f b7a8 4fac 712c 9fae 7ba3
000000e0: e22d f22f 962c b4a8 76ac 59ac 1023 75aa
000000f0: 1aa7 68ae 4425 8f2c 402c ad2c a4a9 8f2b
00000100: b9ae 03a5 90aa 3fad 2d2d 3ea5 3caa 2e28
00000110: c82e 01ac 42ae 0aad ea27 ba29 2d2d 0793
00000120: 13a7 bfa5 eea0 0e2d b6ad cea2 539e 272d
00000130: f8a9 deaa 66ae 3aa8 fc29 40aa 57a9 6d29
00000140: e628 34a7 eaa9 2d2d 6528 79aa 43ad 972e
00000150: 3a2e 5329 a6aa 61ad ce2d 24a5 24a8 a5ae
00000160: 482d abad 2119 e72a 9629 28b0 97a9 8118
00000170: 022c 4fa7 e7a9 29a5 5fac 86a9 8c2c bdaf
00000180: 088e 28ad e32c 49ac daac d7a8 2f29 47a8
00000190: 3b2c c62b f798 e928 f026 9d26 9621 6a28
000001a0: 472a 21a1 872d 892d ce1c 3d2c 7f9d daa3
000001b0: 9329 43a2 b124 a8aa 0529 e728 4b28 af24
000001c0: 329b 5d15 daa8 992b 5c9d 4b26 8bab 0b29
000001d0: 042d 2028 e124 b02a e51e 932c 462f 10ae
000001e0: b92e a92b 241f 832f a7aa ec2b 722e 8fac
000001f0: 9424 a48e 2ba4 15ac 8d28 a7a7 612e 0126

arith.constant24 f2 [8, 1, 1, 128]
0.0911 0.03693 0.02246 -0.0892 -0.0846 -0.109 0.0693 0.0785
0.0722 0.05228 0.0326 -0.01134 0.1046 0.006042 0.04562 0.0621
0.113 -0.02905 -0.03235 -0.003824 0.0224 -0.0806 -0.0671 0.03012
0.1205 -0.207 -0.02855 -0.10876 -0.11633 0.08386 0.07794 0.0365
0.0912 0.02425 -0.08154 -0.010925 0.07367 0.0976 -0.03906 0.03348
-0.0479 0.05008 0.038 0.02312 -0.041 -0.0114 -0.12244 -0.04196
-0.07434 -0.03595 -0.04593 -0.1998 -0.0777 0.0846 -0.010086 -0.0001904
0.0487 -0.01254 -0.05264 -0.03418 0.07715 -0.07086 -0.045 0.05478
-0.000564 0.0923 -0.05576 0.003807 -0.06235 -0.2268 -0.02115 0.07324
0.06616 0.03452 -0.003756 -0.031 -0.0313 -0.1218 -0.09467 -0.04205
0.02495 -0.341 0.06793 0.02516 0.02118 0.03952 -0.0359 0.01317
-0.002546 -0.07794 -0.0492 -0.004684 -0.0704 0.07477 0.03114 0.03326
0.0468 -0.09485 0.02388 0.0683 0.04355 0.05667 0.0674 -0.03363
-0.0713 -0.0295 -0.04956 -0.05594 0.07446 -0.0648 -0.0737 -0.03766
-0.053 -0.02852 0.0354 -0.03323 0.01674 -0.03638 0.07355 -0.02422
-0.03397 0.07684 -0.0144 0.06274 0.0466 0.1284 -0.2249 0.1017
0.01819 0.05945 0.0793 -0.0816 -0.0453 0.231 -0.02972 0.03583
0.09454 -0.03494 0.0277 0.02016 0.09875 -0.1202 0.1327 0.07605
0.01405 -0.01056 -0.06836 -0.0739 -0.1387 0.24 -0.10956 0.1375
-0.05728 0.0924 0.06714 -0.10144 0.1266 0.08606 0.04474 -0.007248
-0.0747 0.05283 0.2057 0.08655 0.0985 0.1087 0.1191 0.002705
-0.1232 -0.1503 -0.04666 -0.0866 0.08777 0.02863 0.12 -0.0307
0.2253 -0.1908 0.02296 0.3481 -0.1724 0.0938 -0.1388 0.118
0.0101 0.2205 0.07983 -0.0713 0.10175 0.1104 -0.1898 0.06616
-0.06207 0.03378 -0.08185 -0.1289 -0.04938 0.2593 -0.03882 0.01974
0.1368 -0.02129 -0.1021 0.1174 -0.07275 0.1505 0.02881 -0.01391
0.1041 0.1646 -0.01249 -0.11383 -0.03284 -0.00753 -0.129 -0.02327
-0.0445 -0.0562 -0.12067 -0.1241 -0.181 -0.0667 -0.1913 -0.1465
0.0718 0.04028 0.02422 0.03598 0.0906 -0.08716 -0.149 0.02252
0.1033 -0.036 0.03714 -0.1023 0.11017 -0.04065 0.0633 0.03198
-0.1486 0.001378 -0.1962 0.0739 0.10864 -0.02876 0.05753 -0.004837
-0.1418 -0.01351 0.06415 -0.01224 0.00503 0.01102 0.254 -0.1251
00000000: d52d ba28 c025 b5ad 6aad faae 6f2c 062d
00000010: 9f2c b12a 2c28 cea1 b22e 301e d729 f32b
00000020: 3b2f 70a7 24a8 d59b bc25 29ad 4bac b627
00000030: b62f a0b2 4fa7 f6ae 72af 5e2d fd2c ac28
00000040: d62d 3526 38ad 98a1 b72c 3f2e 00a9 4928
00000050: 22aa 692a dd28 eb25 3fa9 d6a1 d6af 5fa9
00000060: c2ac 9aa8 e1a9 65b2 f9ac 6a2d 2aa1 3d8a
00000070: 3c2a 6ca2 bdaa 60a8 f02c 89ac c3a9 032b
00000080: 9f90 e82d 23ab cc1b fbab 42b3 6aa5 b02c
00000090: 3c2c 6b28 b19b f0a7 02a8 ccaf 0fae 62a9
000000a0: 6326 75b5 592c 7126 6c25 0f29 98a8 be22
000000b0: 3799 fdac 4caa cc9c 81ac c92c f927 4228
000000c0: fe29 12ae 1d26 5f2c 9329 412b 502c 4ea8
000000d0: 90ac 8da7 58aa 29ab c42c 26ac b8ac d2a8
000000e0: c9aa 4da7 8828 41a8 4924 a8a8 b52c 33a6
000000f0: 59a8 eb2c 5fa3 042c f729 1c30 32b3 822e
00000100: a824 9c2b 132d 39ad cca9 6433 9ca7 9628
00000110: 0d2e 79a8 1727 2925 522e b1af 3f30 de2c
00000120: 3223 68a1 60ac bbac 70b0 ae33 03af 6630
00000130: 55ab ea2d 4c2c 7eae 0d30 822d ba29 6c9f
00000140: c8ac c32a 9532 8a2d 4e2e f52e 9f2f 8a19
00000150: e3af cfb0 f9a9 8bad 9e2d 5427 ae2f dca7
00000160: 3633 1bb2 e125 9235 84b1 012e 71b0 8d2f
00000170: 2c21 0e33 1c2d 90ac 832e 112f 13b2 3c2c
00000180: f2ab 5328 3dad 20b0 52aa 2634 f8a8 0e25
00000190: 6130 73a5 89ae 832f a8ac d130 6027 1fa3
000001a0: aa2e 4431 65a2 49af 34a8 b69f 21b0 f5a5
000001b0: b2a9 32ab b9af f1af cbb1 45ac 1fb2 b0b0
000001c0: 982c 2829 3326 9b28 cc2d 94ad c5b0 c425
000001d0: 9c2e 9ca8 c128 8cae 0d2f 34a9 0d2c 1828
000001e0: c1b0 a515 47b2 bb2c f42e 5da7 5d2b f49c
000001f0: 8ab0 eba2 1b2c 44a2 271d a421 1034 01b0

arith.constant25 f2 [128, 1, 1, 8]
-0.02567 0.1571 -0.26 -0.07526 -0.1018 0.0679 0.2025 0.1929
0.1255 -0.2793 0.01386 0.03613 0.2446 -0.1459 0.2988 -0.3818
0.1636 0.02927 -0.3884 0.02443 -0.319 0.2686 -0.1444 0.1698
0.28 0.03177 -0.02298 0.1085 -0.314 0.045 -0.165 0.1268
-0.1969 0.3914 -0.0749 0.08344 -0.3752 -0.012985 -0.4106 0.1481
-0.1971 -0.1009 0.2803 -0.242 -0.3564 0.02457 0.2164 0.2161
-0.1726 -0.0965 0.3955 0.1312 0.01212 -0.0936 -0.09235 -0.0915
-0.2542 0.1744 0.03152 -0.0128 0.0747 -0.02235 0.1128 -0.2036
-0.2122 0.03354 -0.03595 -0.1644 -0.1975 -0.02713 -0.3506 0.02606
-0.1191 0.2131 0.288 -0.0242 -0.2128 -0.1776 -0.04108 -0.3853
-0.3337 -0.392 0.3809 0.2471 0.0897 0.2803 -0.1794 -0.2319
0.1663 -0.2693 -0.207 -0.1854 -0.1544 0.2196 0.1847 0.137
0.146 0.3577 0.2368 -0.326 -0.1344 0.336 -0.2783 0.1521
-0.08514 -0.08264 0.3315 0.333 0.1346 -0.5195 0.1921 0.04276
0.2847 0.3323 0.04398 0.0928 -0.0924 0.2893 0.2556 -0.3508
0.2345 0.243 0.2617 -0.2352 -0.01012 -0.2115 -0.4246 0.1475
0.2964 -0.02544 0.3364 -0.2333 0.34 -0.1735 0.231 -0.08746
-0.3293 0.2079 -0.0251 -0.2598 -0.283 0.1373 0.006683 -0.3367
0.158 -0.316 0.3545 0.1554 -0.1437 -0.512 0.1841 -0.2013
0.10974 -0.1238 0.2998 0.3665 0.3362 -0.2135 -0.2544 0.3162
0.1362 -0.2478 0.132 0.2817 -0.1976 0.1586 -0.1462 -0.1493
0.358 -0.001448 0.02524 0.01993 0.1509 0.1675 0.010284 -0.02046
0.3086 -0.4517 0.3386 0.2213 0.2979 -0.2454 0.04355 0.01536
0.1876 0.08295 0.2241 -0.1786 0.2275 -0.05624 0.295 0.2222
0.1969 0.5034 -0.4155 -0.10815 -0.512 0.1489 -0.1586 -0.3894
0.2272 -0.07275 -0.3154 0.1426 0.1631 0.08344 -0.1128 -0.2291
-0.02394 -0.5034 0.3867 0.317 0.4575 -0.4355 0.3289 0.03223
0.2754 -0.4087 -0.0365 -0.04736 -0.177 0.313 -0.07684 0.261
-0.2457 -0.1877 0.2124 -0.0768 0.1796 -0.02274 0.10547 -0.4084
-0.284 -0.05368 0.02312 -0.1442 -0.2009 -0.2277 -0.0827 0.2961
-0.3396 -0.1953 0.1396 0.266 0.3325 -0.01657 0.403 0.027
0.2146 0.3108 0.305 -0.2408 -0.2996 0.15 -0.2263 -0.2255
00000000: 92a6 0731 29b4 d1ac 84ae 582c 7b32 2c32
00000010: 0430 78b4 1923 a028 d433 abb0 c834 1cb6
00000020: 3c31 7e27 37b6 4126 1bb5 4c34 9fb0 6f31
00000030: 7b34 1128 e2a5 f22e 06b5 c329 48b1 0f30
00000040: 4db2 4336 cbac 572d 01b6 a6a2 92b6 bd30
00000050: 4fb2 75ae 7c34 beb3 b4b5 4a26 ed32 ea32
00000060: 86b1 2dae 5436 3330 3522 fead e9ad dbad
00000070: 11b4 9531 0928 8ea2 c82c b9a5 382f 84b2
00000080: cab2 4b28 9aa8 43b1 52b2 f2a6 9cb5 ac26
00000090: 9faf d232 9c34 32a6 cfb2 afb1 42a9 2ab6
000000a0: 57b5 46b6 1836 e833 be2d 7c34 beb1 6cb3
000000b0: 5231 4fb4 a0b2 efb1 f1b0 0733 e931 6230
000000c0: ac30 b935 9433 37b5 4db0 6035 74b4 de30
000000d0: 73ad 4aad 4e35 5435 4f30 28b8 2632 7929
000000e0: 8e34 5135 a129 f02d eaad a134 1734 9db5
000000f0: 8133 c733 3034 87b3 2ea1 c5b2 cbb6 b830
00000100: be34 83a6 6235 77b3 7135 8db1 6433 99ad
00000110: 45b5 a732 6da6 28b4 87b4 6530 d81e 63b5
00000120: 0e31 0eb5 ac35 f930 99b0 19b8 e431 71b2
00000130: 062f ecaf cc34 dd35 6135 d5b2 12b4 0f35
00000140: 5c30 eeb3 3930 8234 53b2 1331 aeb0 c7b0
00000150: ba35 ee95 7626 1a25 d430 5c31 4421 3da5
00000160: f034 3ab7 6b35 1533 c434 dab3 9329 dd23
00000170: 0132 4f2d 2c33 b7b1 4833 33ab b834 1c33
00000180: 4d32 0738 a6b6 ecae 19b8 c430 13b1 3bb6
00000190: 4533 a8ac 0cb5 9030 3831 572d 38af 55b3
000001a0: 21a6 07b8 3036 1235 5237 f8b6 4335 2028
000001b0: 6834 8ab6 aca8 10aa aab1 0235 ebac 2d34
000001c0: ddb3 02b2 cc32 eaac bf31 d2a5 c02e 89b6
000001d0: 8bb4 dfaa eb25 9db0 6eb2 49b3 4bad bd34
000001e0: 6fb5 40b2 7830 4234 5235 3ea4 7336 e926
000001f0: de32 f934 e134 b5b3 cbb4 cd30 3eb3 37b3

arith.constant26 f2 [32, 1, 1, 128]
-0.172 0.2034 0.225 -0.1968 0.1033 0.07605 -0.0801 0.1357
0.03333 0.0312 -0.1743 0.1307 -0.2932 0.05222 -0.2583 0.10205
-0.02231 0.002281 0.0836 0.1881 -0.0931 0.1604 0.2384 -0.1707
-0.1459 0.00389 -0.1208 -0.15 0.1735 0.287 -0.1978 -0.2927
0.278 -0.03217 -0.2384 -0.3013 0.0976 0.2478 -0.1265 0.1241
0.1158 -0.2208 -0.06573 -0.2274 -0.2162 -0.2544 -0.1282 -0.1816
0.1009 -0.05594 -0.0902 0.1709 0.1937 -0.1427 -0.0926 -0.02698
0.02347 -0.0518 -0.0745 0.1349 -0.0315 0.2277 -0.3008 -0.299
0.10095 -0.09845 -0.3784 -0.0514 -0.2223 0.1611 -0.1755 0.2261
-0.1703 0.1381 -0.2178 0.371 -0.2123 -0.04565 0.2012 0.253
0.164 -0.091 0.2798 -0.1404 -0.09143 0.2009 -0.0632 0.2903
-0.02821 0.1598 -0.1941 -0.2578 0.0225 -0.2015 -0.1741 -0.1196
0.2382 -0.07605 0.0512 -0.1769 0.2432 -0.1578 -0.3223 -0.1073
0.05612 0.1399 -0.276 -0.0629 0.08655 0.156 -0.1699 -0.1522
-0.11646 -0.11163 -0.2893 0.015015 0.1368 0.1731 0.1145 -0.2423
-0.12115 -0.02466 -0.0716 0.0798 -0.03775 -0.07074 0.0166 -0.04984
-0.1296 0.05328 -0.1866 -0.2096 0.2216 -0.01826 0.02763 0.1722
0.01598 0.1552 0.04858 -0.1108 0.275 -0.2544 0.2278 0.1887
-0.1765 0.1957 -0.004303 0.0914 0.07745 0.2554 -0.1875 0.0501
0.1543 -0.0337 -0.488 -0.10675 -0.05865 0.04465 0.1709 -0.0917
0.0894 -0.3533 0.02222 0.3396 0.0843 -0.1531 0.02618 -0.3289
-0.1976 -0.02565 -0.0825 0.0899 -0.03268 0.09045 0.073 -0.04944
-0.3032 0.2732 -0.2683 0.0947 0.06247 0.2448 0.02531 0.3374
-0.3384 0.29 0.0866 -0.10657 0.03302 -0.197 0.2057 0.4473
-0.1091 -0.1833 0.41 0.141 0.1345 0.01753 0.05438 -0.05103
-0.1597 0.005283 0.3508 -0.0002728 -0.10547 -0.05267 0.06384 -0.2035
-0.1367 0.2598 0.1377 0.0502 0.01497 -0.0531 -0.04953 0.09576
0.3115 0.00781 -0.1664 0.1433 -0.1635 -0.3796 0.286 -0.1289
0.2527 0.08093 0.1406 -0.1302 0.2615 0.00853 0.02806 0.10394
0.2085 -0.1665 0.4065 0.07684 0.1517 -0.2136 0.1354 -0.3447
-0.2128 0.1986 -0.11774 0.02267 -0.1438 0.2449 -0.0652 0.04883
0.2048 0.2394 0.2654 0.04456 0.3325 -0.01564 0.1048 -0.02097
00000000: 81b1 8232 3333 4cb2 9c2e de2c 20ad 5830
00000010: 4428 fd27 94b1 2f30 b1b4 af2a 22b4 882e
00000020: b6a5 ac18 5a2d 0532 f5ad 2231 a133 76b1
00000030: abb0 f71b bbaf cdb0 8d31 9834 54b2 afb4
00000040: 7334 1ea8 a1b3 d2b4 3f2e ee33 0cb0 f12f
00000050: 692f 11b3 35ac 47b3 ebb2 12b4 1ab0 d0b1
00000060: 752e 29ab c6ad 7831 3332 91b0 edad e8a6
00000070: 0226 a1aa c5ac 5130 08a8 4933 d0b4 c9b4
00000080: 762e 4dae 0eb6 94aa 1db3 2831 9eb1 3c33
00000090: 73b1 6b30 f8b2 f035 cbb2 d8a9 7032 0c34
000000a0: 3f31 d3ad 7a34 7eb0 daad 6e32 0bac a534
000000b0: 39a7 1d31 36b2 20b4 c325 73b2 92b1 a8af
000000c0: 9f33 deac 8e2a a9b1 c833 0db1 28b5 deae
000000d0: 2f2b 7a30 6ab4 07ac 8a2d fe30 70b1 dfb0
000000e0: 74af 25af a1b4 b023 6130 8a31 542f c1b3
000000f0: c1af 50a6 95ac 1b2d d5a8 87ac 4024 61aa
00000100: 26b0 d22a f9b1 b5b2 1733 ada4 1327 8331
00000110: 1724 f730 382a 17af 6634 12b4 4a33 0a32
00000120: a6b1 4332 689c d92d f52c 1634 00b2 6a2a
00000130: f030 50a8 cfb7 d5ae 82ab b729 7831 dead
00000140: b92d a7b5 b025 6f35 652d e6b0 b426 43b5
00000150: 53b2 91a6 48ad c12d 2fa8 ca2d ac2c 54aa
00000160: dab4 5f34 4bb4 102e ff2b d533 7b26 6635
00000170: 6ab5 a434 8b2d d2ae 3a28 4eb2 9532 2837
00000180: fbae deb1 8f36 8330 4e30 7d24 f62a 88aa
00000190: 1cb1 691d 9d35 788c c0ae beaa 162c 83b2
000001a0: 60b0 2834 6830 6d2a aa23 ccaa 57aa 212e
000001b0: fc34 ff1f 53b1 9630 3bb1 13b6 9334 20b0
000001c0: 0b34 2e2d 8030 2bb0 2f34 5e20 2f27 a72e
000001d0: ac32 54b1 8136 eb2c db30 d6b2 5530 84b5
000001e0: cfb2 5b32 89af ce25 9ab0 d633 2cac 402a
000001f0: 8e32 a933 3f34 b429 5235 01a4 b52e 5ea5

arith.constant27 f2 [128, 3, 3, 32]
-0.01189 0.0151 -0.02457 -0.03268 0.01714 -0.02261 -0.02682 0.003431
-0.0227 0.0063 0.003283 0.02197 -0.01631 -0.003784 -0.01765 -0.021
0.02184 -0.003027 -0.01426 -4.62e-05 0.01857 -0.005764 -0.02397 0.02008
0.00606 0.00436 -0.02852 0.01576 0.00383 0.004467 -0.01884 0.01234
-0.005863 0.02107 -0.01516 -0.02284 -0.00669 0.000396 0.011635 0.01006
-0.00010395 0.003357 -0.0279 -0.01791 -0.0163 0.011444 0.005203 0.003656
0.01944 0.00912 0.0252 0.006912 0.01275 -0.00318 -0.02327 -0.003462
-0.02094 0.001543 0.005524 0.007225 -0.02443 -0.02734 0.02034 0.0133
0.004913 -0.02289 0.01834 -0.01164 0.0263 0.02765 -0.0216 0.003433
0.01301 -0.006355 0.000652 0.012215 -0.01074 -0.007607 0.004227 -0.01403
-0.01155 -0.01834 0.01024 0.01072 -0.02025 0.00646 0.004475 0.01114
-0.001153 -0.004284 0.00815 -0.01796 0.01387 -0.0009093 -0.0041 -0.01491
0.0171 -0.003122 0.01906 -0.013275 0.02849 -0.02248 -0.02254 0.009926
0.01843 -0.01659 -0.006046 0.01956 0.01288 0.01791 0.02104 0.02054
0.002666 -0.013725 -0.0003614 -0.00751 0.02406 -0.0006475 -0.0258 -0.01209
-0.009766 -0.000642 -0.01694 -0.007435 -0.01947 0.01098 -0.004726 -0.02321
-0.02586 -0.00544 0.007404 -0.02592 0.003502 -0.007526 0.0006466 0.01976
0.02528 -0.0001067 0.01315 -0.002966 -0.0155 -0.00534 0.02588 0.0062
0.003483 0.02515 0.01624 0.02646 -0.01675 0.004574 0.001038 0.009636
-0.0186 0.03244 -0.02036 -0.015434 0.01845 -0.01848 0.02185 -0.00863
0.01102 0.01121 0.00835 -0.02567 -0.003546 -0.012726 0.003357 -0.007492
-0.01874 0.00922 -0.02855 0.0003116 0.02399 -0.01584 -0.018 -0.004025
-0.008766 0.010124 -0.0002658 0.01019 0.001261 -0.01213 0.01152 0.00392
0.02115 0.002186 0.02287 0.02042 0.007023 -0.004646 -0.002579 -0.02039
0.01656 0.01875 -0.0181 0.00979 0.02904 0.0149 -0.02954 0.000715
0.003712 0.02075 0.001862 0.01598 0.01267 0.01254 -0.005527 0.006046
0.03113 0.01423 0.00974 -0.00902 0.01689 0.00777 -0.001242 -0.01265
-0.002056 0.002089 -0.01458 -0.008125 0.01695 0.008316 0.01631 0.011215
-0.002918 -0.01578 -0.02399 -0.02644 -0.01793 -0.02205 -0.006004 0.003515
0.01369 -0.007607 -0.002596 -0.0003648 -0.013145 0.02582 0.0287 0.02048
-0.00849 0.000536 0.02579 0.02744 -0.02328 0.00865 -0.02666 0.00358
0.0176 0.005085 0.005337 -0.001212 -0.00223 0.0163 0.0262 -0.01953
00000000: 16a2 bb23 4aa6 2fa8 6324 caa5 dea6 071b
00000010: d0a5 741e b91a a025 2da4 c09b 85a4 60a5
00000020: 9725 339a 4da3 0783 c124 e79d 23a6 2425
00000030: 351e 771c 4da7 0924 d81b 931c d3a4 5122
00000040: 019e 6525 c3a3 d9a5 da9e 7d0e f521 2721
00000050: d086 e01a 24a7 96a4 2ca4 dc21 541d 7d1b
00000060: fa24 ab20 7426 141f 8722 839a f5a5 179b
00000070: 5ca5 5216 a81d 661f 41a6 00a7 3525 cf22
00000080: 081d dca5 b224 f6a1 bc26 1427 88a5 081b
00000090: a922 829e 5711 4122 80a1 ca9f 541c 2fa3
000000a0: eaa1 b2a4 3e21 7d21 2fa5 9d1e 951c b421
000000b0: b994 639c 2c20 99a4 1a23 7393 339c a2a3
000000c0: 6124 659a e124 cca2 4b27 c1a5 c5a5 1521
000000d0: b824 3fa4 319e 0225 9822 9624 6325 4225
000000e0: 7619 07a3 ec8d b19f 2926 4e91 9ba6 31a2
000000f0: 00a1 4291 56a4 9d9f fca4 9f21 d79c f1a5
00000100: 9fa6 929d 951f a3a6 2c1b b59f 4c11 0f25
00000110: 7926 fe86 bc22 139a f0a3 789d a026 591e
00000120: 221b 7026 2824 c626 4aa4 af1c 4014 ef20
00000130: c3a4 2728 36a5 e7a3 b924 bba4 9825 6ba0
00000140: a421 bd21 4620 92a6 439b 84a2 e01a ac9f
00000150: cca4 b820 4fa7 1b0d 2426 0ea4 9ca4 1f9c
00000160: 7da0 2f21 5b8c 3821 2a15 36a2 e621 041c
00000170: 6a25 7a18 db25 3a25 311f c29c 4899 38a5
00000180: 3d24 cd24 a2a4 0321 6f27 a123 90a7 db11
00000190: 9a1b 5025 a017 1724 7d22 6c22 a99d 311e
000001a0: f827 4923 fd20 9ea0 5324 f51f 1695 7aa2
000001b0: 3698 4718 77a3 29a0 5724 4220 2d24 be21
000001c0: fa99 0aa4 24a6 c5a6 97a4 a5a5 269e 331b
000001d0: 0223 ca9f 5199 fa8d bba2 9c26 5927 3e25
000001e0: 59a0 6410 9a26 0627 f6a5 6e20 d3a6 551b
000001f0: 8124 351d 771d f794 9198 2c24 b526 00a5

arith.constant28 f2 [8, 1, 1, 128]
-0.02803 0.007294 0.0963 0.02469 -0.06198 -0.1389 0.09796 0.06964
-0.1177 -0.082 0.0236 -0.1177 0.09045 0.0723 0.011284 -0.05106
-0.099 -0.0305 0.06415 -0.1367 -0.001687 -0.02858 0.0278 -0.07117
-0.1403 -0.05954 -0.03952 -0.06525 0.10876 -0.1475 0.1276 0.04852
0.0977 -0.11664 -0.1951 0.07904 0.05792 0.00577 -0.0831 -0.1536
0.145 -0.08075 -0.1219 0.06027 -0.01028 -0.0079 -0.09827 -0.0035
0.03705 -0.007103 -0.1438 0.02689 0.01007 -0.05386 -0.01906 0.02293
-0.0291 0.013985 0.006535 -0.10895 -0.07715 0.0365 0.04382 -0.001473
0.0338 0.04 0.022 -0.1263 -0.1859 -0.0491 0.0336 0.04657
0.0831 0.0223 0.1039 -0.12134 0.07635 -0.002626 -0.02596 -0.00903
0.000531 0.05978 -0.01119 -0.02596 -0.0213 -0.0947 0.084 -0.1571
0.04437 0.1147 0.0849 -0.00847 -0.09216 -0.0607 0.14 -0.128
0.08594 -0.10547 0.02666 -0.10974 0.04993 -0.142 0.0915 0.04962
-0.193 0.02905 -0.1075 0.06305 0.0679 -0.0642 -0.0007396 -0.0813
-0.10364 -0.0244 -0.08746 -6.49e-05 -0.1545 -0.03638 -0.004498 0.04865
0.1047 -0.00869 0.03445 0.04233 0.175 0.02855 -0.04074 -0.10315
0.015236 -0.0623 -0.06207 0.00121 0.0633 0.0261 -0.03867 0.0962
-0.0429 0.01507 -0.1362 0.05118 -0.1191 0.05807 -0.148 0.001634
0.0551 0.02032 0.0393 0.02522 -0.04178 0.012146 0.05847 0.1035
0.0964 0.0675 -0.01736 -0.00877 -0.03683 0.08514 -0.05487 -0.05432
0.03128 0.03308 0.014145 -0.01784 0.02786 0.0876 0.00795 0.004814
-0.0877 0.051 0.04007 -0.02634 -0.05115 0.1049 -0.01195 -0.00533
-0.1065 0.05014 0.113 -0.013664 -0.02362 0.16 0.1375 -0.102
0.016 0.02737 0.07007 0.02034 0.0297 0.06335 -0.05872 -0.1525
0.04852 -0.03738 -0.03165 0.01845 0.07477 0.09265 -0.01723 0.002045
-0.1825 -0.12366 0.006577 -0.03284 0.007835 0.01508 -0.0825 0.02606
0.0712 -0.02635 -0.0972 0.04895 -0.007328 0.06366 -0.05737 0.02779
0.09937 -0.02466 -0.0579 0.01282 0.03586 0.0321 0.03958 0.005096
-0.01665 -0.02243 -0.1786 0.1129 -0.003134 -0.03568 0.02563 -0.01268
0.05884 0.01392 -0.00297 -0.01293 -0.014305 0.136 -0.012505 0.118
0.0357 0.01575 0.1752 0.08075 0.01788 -0.08276 -0.1184 0.05893
-0.02367 0.1176 0.0659 -0.106 -0.174 -0.07916 -0.00529 -0.0417
00000000: 2da7 781f 2a2e 5226 efab 72b0 452e 752c
00000010: 88af 3fad 0b26 88af ca2d a12c c721 89aa
00000020: 56ae cfa7 1b2c 60b0 e996 51a7 1e27 8eac
00000030: 7db0 9fab 0fa9 2dac f62e b8b0 1530 362a
00000040: 412e 77af 3eb2 0f2d 6a2b e91d 52ad eab0
00000050: a430 2bad cdaf b72b 43a1 0ba0 4aae 2b9b
00000060: be28 469f 9ab0 e226 2821 e5aa e1a4 df25
00000070: 73a7 2923 b11e f9ae f0ac ac28 9c29 0996
00000080: 5428 1f29 a225 0bb0 f3b1 49aa 4d28 f629
00000090: 522d b525 a62e c4af e32c 6199 a5a6 a0a0
000000a0: 5a10 a72b bba1 a5a6 74a5 10ae 602d 07b1
000000b0: ae29 572f 6f2d 56a0 e6ad c5ab 7b30 19b0
000000c0: 802d c0ae d326 06af 642a 8bb0 db2d 5a2a
000000d0: 2db2 7027 e1ae 092c 582c 1cac 0f92 34ad
000000e0: a2ae 3fa6 99ad 4184 f2b0 a8a8 9b9c 3a2a
000000f0: b32e 73a0 6928 6b29 9a31 4f27 37a9 9aae
00000100: cd23 f9ab f2ab f514 0d2c ae26 f3a8 282e
00000110: 7ea9 b723 5cb0 8d2a 9faf 6f2b bcb0 b116
00000120: 0e2b 3425 0829 7526 59a9 3822 7c2b a02e
00000130: 2b2e 522c 72a4 7ea0 b7a8 732d 06ab f4aa
00000140: 0128 3c28 3e23 91a4 2227 9b2d 1220 ee1c
00000150: 9dad 872a 2129 bea6 8caa b72e 1ea2 759d
00000160: d1ae 6b2a 3b2f ffa2 0ca6 1f31 6630 87ae
00000170: 1924 0227 7c2c 3525 9a27 0e2c 84ab e1b0
00000180: 362a c9a8 0da8 b924 c92c ee2d 69a4 3018
00000190: d7b1 eaaf bc1e 34a8 0320 b923 48ad ac26
000001a0: 8f2c bfa6 39ae 442a 819f 132c 58ab 1d27
000001b0: 5c2e 50a6 69ab 9022 9728 1c28 1129 381d
000001c0: 43a4 bea5 b7b1 3a2f 6b9a 91a8 9026 7ea2
000001d0: 882b 2123 159a 9fa2 53a3 5a30 67a2 8d2f
000001e0: 9228 0824 9b31 2b2d 9424 4cad 94af 8b2b
000001f0: 0fa6 872f 382c c9ae 91b1 11ad 6b9d 56a9

arith.constant29 f2 [128, 1, 1, 8]
-0.09357 -0.1741 -0.1926 -0.0908 0.0762 -0.1236 0.2269 0.2311
-0.11426 0.212 0.03308 -0.002075 0.2375 0.1051 0.201 0.1818
0.0803 0.10156 -0.10614 0.2869 0.2559 -0.2455 -0.1351 0.339
0.17 -0.3145 -0.351 -0.01488 -0.1746 -0.07666 0.2454 -0.0418
-0.2059 -0.1449 -0.2396 -0.16 -0.1946 0.2032 0.0966 -0.443
0.0788 -0.2402 0.184 -0.2532 0.1725 0.0678 0.3203 -0.346
-0.12134 0.04822 -0.3743 -0.05942 0.2747 -0.496 0.2651 0.479
0.3228 -0.2268 -0.2444 0.01732 -0.1895 0.2278 -0.2224 0.2212
0.0766 0.05756 0.07117 -0.3032 -0.2566 -0.3738 0.302 0.2365
-0.0651 0.000667 -0.2642 -0.369 0.0491 0.005276 0.0546 0.09436
-0.2969 -0.3066 -0.2817 -0.3752 0.0734 -0.2391 -0.3416 -0.02379
0.1163 0.07935 -0.3506 0.1842 -0.1553 -0.116 0.1224 0.1473
0.013664 -0.1619 -0.3496 0.0457 -0.279 0.2908 0.2935 -0.04095
0.0549 -0.10236 0.01761 -0.2559 0.10767 -0.1807 0.2428 0.00436
-0.2288 -0.1511 0.08044 0.2362 0.184 0.02817 -0.2167 0.0449
-0.1497 -0.3584 -0.236 0.06506 0.2452 0.09595 -0.02385 0.2632
0.0453 0.1392 -0.0088 0.2773 -0.2656 0.0966 -0.2524 0.1681
0.00712 0.1378 0.1857 -0.2874 0.2109 0.02666 -0.3655 -0.01349
-0.1823 -0.2734 0.1293 -0.1221 -0.09186 0.2142 -0.087 -0.1257
0.1344 -0.3152 -0.2373 -0.1614 -0.4248 0.05487 -0.03467 -0.2664
0.1868 0.0812 0.11383 -0.3562 0.05496 -0.1964 0.123 -0.04633
0.1567 -0.1144 -0.03735 0.04602 -0.1763 0.02252 -0.0431 0.1089
0.1564 -0.1624 0.2622 0.00711 0.2185 0.0089 -0.09344 0.0766
0.01604 -0.3308 -0.1624 -0.0684 -0.3293 0.2205 0.0448 -0.2737
-0.11755 -0.0854 -0.2754 -0.261 -0.13 -0.03876 0.01013 0.1139
0.2664 -0.2905 -0.1311 -0.3784 -0.1647 -0.067 0.11945 0.2291
0.2139 -0.0976 -0.12225 -0.2134 -0.1796 0.3093 -0.10864 -0.303
0.1285 0.2037 -0.1602 -0.2827 -0.3262 0.1257 0.0906 -0.1584
-0.1251 0.1301 0.327 0.0813 -0.4153 0.11847 -0.3088 0.251
-0.2942 -0.0701 -0.07605 -0.06033 0.00957 0.0842 0.347 -0.1912
0.1049 -0.04742 -0.1656 -0.2391 0.2449 -0.09625 0.237 -0.3408
0.0713 -0.1267 0.2367 0.05536 -0.4297 0.3347 0.325 -0.485
00000000: fdad 92b1 2ab2 d0ad e02c e9af 4333 6533
00000010: 50af c932 3c28 4098 9a33 ba2e 6f32 d131
00000020: 242d 802e cbae 9734 1834 dbb3 53b0 6d35
00000030: 7131 08b5 9eb5 9ea3 96b1 e8ac da33 5aa9
00000040: 97b2 a3b0 abb3 1fb1 3ab2 8132 2f2e 17b7
00000050: 0b2d b0b3 e331 0db4 8531 572c 2035 89b5
00000060: c4af 2c2a fdb5 9bab 6534 f0b7 3e34 aa37
00000070: 2a35 42b3 d2b3 6f24 10b2 4a33 1eb3 1433
00000080: e72c 5e2b 8e2c dab4 1bb4 fbb5 d534 9133
00000090: 2bac 7711 3ab4 e7b5 492a 671d fd2a 0a2e
000000a0: c0b4 e8b4 82b4 01b6 b32c a7b3 77b5 17a6
000000b0: 712f 142d 9cb5 e531 f8b0 6daf d52f b730
000000c0: ff22 2eb1 98b5 d929 77b4 a734 b234 3ea9
000000d0: 072b 8dae 8224 18b4 e42e c8b1 c533 771c
000000e0: 52b3 d6b0 262d 8f33 e331 3627 efb2 bf29
000000f0: cab0 bcb5 8db3 2a2c d933 242e 1ba6 3634
00000100: cc29 7430 81a0 7034 40b4 2f2e 0ab4 6131
00000110: 4a1f 6930 f131 99b4 c032 d326 d9b5 e8a2
00000120: d5b1 60b4 2330 d0af e1ad db32 91ad 06b0
00000130: 4d30 0bb5 98b3 2ab1 ccb6 062b 70a8 43b4
00000140: fa31 322d 492f b3b5 092b 49b2 df2f eea9
00000150: 0431 52af c8a8 e429 a4b1 c425 84a9 f82e
00000160: 0131 32b1 3234 481f fe32 8f20 fbad e72c
00000170: 1b24 4bb5 32b1 61ac 45b5 0e33 bc29 61b4
00000180: 86af 77ad 68b4 2db4 29b0 f6a8 3021 4a2f
00000190: 4334 a6b4 32b0 0eb6 45b1 4aac a52f 5533
000001a0: d832 3fae d3af d4b2 bfb1 f334 f4ae d9b4
000001b0: 1d30 8532 20b1 86b4 38b5 0630 cc2d 12b1
000001c0: 01b0 2a30 3b35 342d a5b6 952f f1b4 0434
000001d0: b5b4 7dac deac b9ab e620 642d 8d35 1eb2
000001e0: b72e 12aa 4db1 a7b3 d633 29ae 9633 74b5
000001f0: 902c 0eb0 9333 162b e0b6 5b35 3335 c3b7
